experiments/flockingGNN-050-20221008014818/savedModels/DAGNN1LyG00Architlast.ckpt (torch, 9247 bytes, 4 tensors)

readout.0.weight f8 [64, 12]
0	0x3fd20800ef89fd3b	0.28173850433809705
1	0x3fd4790d9626af86	0.31988849318690205
2	0xbfa61ad747cc854c	-0.04317353011561895
3	0xbfc46385a327be34	-0.15928717104496715
4	0xbfba7b836eb198c6	-0.1034471650360472
5	0xbfb5ebcdb539288a	-0.08562932657619818
6	0xbf7d0d4367990d82	-0.007092726993110589
7	0xbfa1e4f1107bf422	-0.034949811231833175
8	0x3fb7d8f634685aea	0.09315432338221866
9	0x3fb9896eefefcf61	0.09975331647711762
10	0x3fb57d177cfcdfdf	0.08393999864063016
11	0xbfc7c8332c0ae3a5	-0.18579711580767114
12	0x3f9e6eb2789b9cc4	0.02971915112621272
13	0x3fbe6e118652ad66	0.11886701135033703
14	0xbfccd67757e0ea57	-0.22529498854585725
15	0xbfc14c5d3b994b4a	-0.1351429501542845
16	0xbf9c48ac560b6d4a	-0.02762097621130736
17	0xbfa3b67ca58aeaf4	-0.03850163956436417
18	0x3faeb65de3a7ff12	0.059985097923343514
19	0xbfbde98773ebcde1	-0.11684462146859388
20	0x3fce8600269f3809	0.2384643734534964
21	0xbfa40fa92113ab8e	-0.03918198136110283
22	0x3f970f74e6b3349d	0.02251989992219149
23	0x3fc698716835b8b0	0.17652719105121184
24	0xbfb899d328ad400a	-0.09609718077740595
25	0xbfc58ce21b47a75d	-0.16836191494013067
26	0xbfd68e669cc7a80b	-0.3524414568952358
27	0xbfaf9b04c06b839b	-0.061729572762266836
28	0x3f7e4984a8eca968	0.007394331171591474
29	0x3fa05a66cc63a22b	0.031939709138729754
30	0x3fc10b3bcc55f2ce	0.13315532185870044
31	0xbfa89ab55b75b078	-0.04805533162547787
32	0xbfb127378e2c0a2c	-0.06700465413090545
33	0xbfb880740b6d711c	-0.0957100417994678
34	0xbfc8cd4743fe65ba	-0.19376459903723547
35	0x3fc217294950c51e	0.1413318260179403
36	0xbfd4fea85a635cfa	-0.32804306818930196
37	0xbfda904abb960c6f	-0.4150568801780485
38	0x3fa6aab2024333a6	0.04427105214708797
39	0x3fc3efa4a11d749b	0.1557508265204078
40	0x3fb925b3b2b6540d	0.09823153603640851
41	0x3f98535ac316b377	0.023755472333209817
42	0xbf7e91088c6384a0	-0.007462533371126373
43	0xbf9d8c944ff2f6c0	-0.02885658014269299
44	0x3fbdabce055f37ed	0.11590278273726513
45	0x3fb3ad0af7cba646	0.07685917424864738
46	0x3f875b2f8d4650ce	0.01140439176450805
47	0xbfd10cd5fcce4898	-0.2664084404760927
48	0x3fcd41c0c28b429a	0.22856912135332125
49	0x3fd195c01b22378d	0.2747650399186277
50	0x3f750d07af6c0d45	0.005139379520872571
51	0x3fa1a840ea535851	0.03448679790896903
52	0xbfdc697cbb0645c8	-0.44393842949019957
53	0x3fc13881355914c1	0.1345368872154378
54	0xbfb9f510c5612f13	-0.10139565295065393
55	0xbfc7553a9feaced9	-0.1822884827466769
56	0x3fd1c8259b93e254	0.277840997630425
57	0xbfd2d30c99e5045f	-0.2941314223172124
58	0x3fcde57116948880	0.23356450655507288
59	0x3fc16bed7b24e42f	0.13610619080444183
60	0x3fbcc72358aa7aec	0.11241360583015209
61	0x3fcb73eb71ca6ae8	0.21447508865534037
62	0x3fd136fa6d528b69	0.2689806048967314
63	0x3fd8afc193253932	0.3857273041693531
64	0xbfa4267993c813c8	-0.03935604027723333
65	0xbf7435cb011b4950	-0.004934113488803085
66	0xbfc014ec63638926	-0.12563853123635588
67	0xbf994bce6988026d	-0.024703240576857178
68	0x3fc097c7637ccb48	0.12963192327296214
69	0x3fb90ad8f1466b70	0.09782176867012793
70	0x3fcf2969ced360e3	0.2434513339892482
71	0xbfc3723b1749c65b	-0.15192354809873873
72	0xbf998bee5c788921	-0.02494785727879745
73	0xbfb01e19394b0ba0	-0.06295926712759448
74	0x3fcf04f5328c3614	0.24233880012654707
75	0x3fd1a44e80b47512	0.2756534821399593
76	0xbf254e049c32f658	-0.00016254240299489148
77	0x3f95db5b0fc29a45	0.02134458812420294
78	0xbfbabcba55eb8b10	-0.10444225881250824
79	0xbfbefa9c27579508	-0.12101150475026057
80	0x3f91ae0c0e17dba2	0.017265499458484997
81	0xbfc0a1de1c9455a8	-0.12993980784874037
82	0x3fbdb569f57d4deb	0.11604940646548527
83	0x3fc492d049e9b3fc	0.16073039635685393
84	0xbf98f33128f7045e	-0.024365203976916987
85	0xbfaa86bd71608de9	-0.05180923470495797
86	0xbfd2b10ac7ed825d	-0.2920557930392869
87	0xbfd7f4c180899ad7	-0.37431371262065966
88	0x3f9257b814b46595	0.017912746680939746
89	0x3fb0d8fd5ff4114f	0.06581100075351752
90	0x3fbfa9f1b9974621	0.12368689328220529
91	0x3fc2f73f7887c258	0.14817040810841564
92	0xbfb4d0a09fc6390d	-0.08130840206851904
93	0x3fd159c0c242a319	0.27110308619244133
94	0xbfbfdbcdcc1f2a4f	-0.1244476912826624
95	0xbfd1a872ecd7d0e4	-0.27590630654527915
96	0x3faaba39e034d59f	0.05220204221624702
97	0x3fc04d181f1fe59d	0.1273527290320943
98	0x3fcdcc137bf23293	0.2327904086308946
99	0xbfc21230f55ec108	-0.1411801527115204
100	0x3fa8e3761fad7570	0.04861039292039038
101	0x3f8760456b5aef21	0.011414091433259057
102	0xbfd08263d6b40121	-0.25795837370971425
103	0xbf7ca702ad02da04	-0.006995211079063871
104	0xbfcc6872bb64c91b	-0.2219375052459974
105	0x3fcfcb0bb0928c37	0.24838396188451536
106	0xbfc7b23c9e08c7dc	-0.18512685505407844
107	0xbfd06b152fb19ec8	-0.2565358129272508
108	0x3fa0db68f88e4dc5	0.032923965779584154
109	0x3fc04457fe93323c	0.12708568506640627
110	0x3fd1ab15ae38c129	0.2760671807655109
111	0x3fd59cfa0dfbc0d1	0.3377061020428416
112	0xbef72b0b112c37dd	-2.209485780740166e-05
113	0x3f34c739bc38e830	0.00031705054809416915
114	0xbfb8692bc4a34d54	-0.09535478163461636
115	0x3f7d396ccb5e42d4	0.007134842851784302
116	0xbf914e732c9e98be	-0.016900825117453826
117	0x3fa05b1a52e883f8	0.03194505941451803
118	0x3fb88bb5ca3d7cbb	0.09588180720810417
119	0xbfbb47fe91fd4726	-0.10656729759400871
120	0x3fd3bccde6c51c47	0.30839870010499165
121	0x3fd1f288c5981a0e	0.28042811676314805
122	0xbf7b9c354d01c469	-0.006740768629343121
123	0xbfb428482b0294ad	-0.0787396531109887
124	0xbfb5e8480cdaa744	-0.08557558358975564
125	0x3fa63f54449be4b5	0.043451913237683305
126	0xbf9958a701b93988	-0.02475224445361726
127	0xbfbfd024c7cbeea7	-0.12426977041098529
128	0x3f9662e1741066db	0.021861574849117864
129	0x3fd01946a5b3b654	0.25154272252880117
130	0x3fc31d3d6eb02be2	0.14932983307548314
131	0xbf92189154757cd8	-0.017671843318905228
132	0x3fbb30876949f683	0.10620924301653116
133	0x3f947490c813676e	0.01997591229596856
134	0xbfbc990e1bc146a3	-0.11171043565380016
135	0xbfc711aa93018140	-0.18022663286229523
136	0xbfbee36579a1c7ca	-0.12065729350595614
137	0xbfca35ff63f90c51	-0.20477287656294377
138	0x3fda0a354ba2af9c	0.4068730581882336
139	0xbfc34724f7801a64	-0.15060865483265495
140	0x3fb85b89d0e57cbd	0.09514676427851305
141	0x3fc84254adffba43	0.18952425476114074
142	0xbfc0445b29cd3fc5	-0.12708606282330784
143	0x3fbf17c85eeb6a2b	0.12145664517758152
144	0x3fa17cd6dccccc22	0.03415557332336784
145	0x3fca70d8a586b878	0.20656879503571068
146	0x3fc2926313b42cb2	0.14509237730121566
147	0xbfccd9ecc1ee6671	-0.2254005381517348
148	0xbf77c67688ef501b	-0.005804503466567491
149	0xbfb89b6809b1e3a3	-0.09612131344500922
150	0xbfdbda0af3c69065	-0.4351832752820484
151	0x3fc60450ddf4ad4d	0.17200671041187335
152	0xbfc4b31c82dc42b1	-0.1617160452811013
153	0x3fcd19cfe7b26ed6	0.22735022366838703
154	0x3fca13831f65d1b3	0.203720465022014
155	0x3f88e3b613853552	0.012153074713433885
156	0x3fca28f85661a8f3	0.20437530725332173
157	0x3fd1554c23cda8ee	0.2708311414377381
158	0xbfbcfaa8305b8850	-0.11319972210506646
159	0xbf97d476ee3e3b53	-0.02327142552490653
160	0xbfb735c83c4a82bd	-0.09066440078687328
161	0xbfbbd5bb304dd985	-0.10873002938556027
162	0xbf9aee9a15d16140	-0.026300818998010955
163	0xbfd4e7b6e67f221f	-0.32664272794184684
164	0x3fc7e841c79f30e0	0.18677541968498357
165	0xbf658d9f55750713	-0.002631007384167891
166	0x3fa4324e8cda22b7	0.039446310705050384
167	0xbfc1af52739ff607	-0.13816290517563365
168	0xbf8482432649029b	-0.010014080625411472
169	0xbfc824da1c8ea251	-0.18862463373558794
170	0xbfc90196e846c671	-0.19536100713371554
171	0xbfbdb7dbed1b0a80	-0.11608671702109952
172	0x3f884bb61ba151cf	0.011863157957272911
173	0x3fc02e11c3e5e194	0.1264059263737748
174	0x3fa6526199112334	0.043597268996171584
175	0xbfc562275637444e	-0.16705791196594294
176	0x3f9efedee85b87a6	0.0302691296882426
177	0xbfc571f83ccc6563	-0.16754057854340507
178	0x3fb1c41dd02f6e54	0.06939874966286058
179	0x3fb02cba60e2d2d7	0.06318249574071487
180	0x3faa7262f4332664	0.05165395003275533
181	0x3fc092fdd0deb101	0.12948582361912744
182	0x3fd3585d6c672f1b	0.30226836763607573
183	0x3fdc8416b38999ee	0.44556205304107166
184	0x3f74db48e1e47e93	0.005091938683363789
185	0x3f4e3e79af7743f8	0.0009229749838884907
186	0xbfb6c367ae38401e	-0.08891914370929085
187	0x3fb8dee1e1f0d4a0	0.09715091482287841
188	0xbfc6eb4d0ad90af2	-0.17905581502608175
189	0x3fc2d99759a9373f	0.1472653568075035
190	0xbfb7166064adf721	-0.09018518884655836
191	0xbfc4aa89c650754e	-0.161454412301206
192	0xbf84178779ec8c71	-0.00981050339539122
193	0xbfb0a9fd19f26a4d	-0.06509382136793214
194	0x3fce0b68601ef09a	0.23472313588525112
195	0x3fcd7c52479e8600	0.23035648819954702
196	0xbf76ab9f57c38196	-0.00553476565639279
197	0xbf8251750ed8003e	-0.008944429889197743
198	0xbfbc5ed277cd160d	-0.11082187104064918
199	0xbfb76b41839e90e6	-0.09148034537662716
200	0x3fa697cd9b9bcb13	0.04412691616552968
201	0xbf9879ba8ad4bf2f	-0.02390185806615291
202	0x3fc39ede6da9f490	0.15328579287225752
203	0x3fc43d2ca35015e1	0.15811689352282968
204	0xbfd128fab0a7482a	-0.2681261754161165
205	0xbfd60930ab7e5428	-0.3443109202137884
206	0x3fb493b974972f94	0.08037909599732834
207	0x3fc579fe5006e7f9	0.16778544337813608
208	0x3f9b54e68543c8a3	0.026691057094418224
209	0xbfc0213999a71c96	-0.1260139465577807
210	0xbfb14e1185706382	-0.06759747989452872
211	0xbfbaba038a2306fa	-0.10440084574204525
212	0x3fb327f1ccee4738	0.07482825520699243
213	0x3fa15f8355299f1c	0.03393183149893117
214	0x3fc2b87d970f125e	0.14625520587846358
215	0xbfc2363940a7325b	-0.1422797742547058
216	0xbf94c528c26d1f27	-0.020283352724873496
217	0xbfab2531b55740c0	-0.053018144022304536
218	0xbfd398c435599f00	-0.30619912347764
219	0xbfd9410ac9a4b47a	-0.39459485713707176
220	0x3f3a933816fce18b	0.00040550345783032436
221	0xbfaf621a7adb0b9e	-0.06129534482672415
222	0x3fb7e86c1260fadf	0.09339023064329009
223	0xbf81ce31dd009aa0	-0.008694066578823822
224	0xbfba79512c4a442e	-0.10341365176488246
225	0x3fc5a271ecfb494b	0.16901992865912016
226	0xbf9ae0d97bdd8e46	-0.026248357949397304
227	0x3f8615b22c4967b5	0.01078356931354905
228	0xbfcee64c91d0afd3	-0.24140317077524162
229	0xbfd11aba3deab76d	-0.2672563175827836
230	0xbfbd0ab4f1ef6ee9	-0.11344462305663296
231	0xbfbf00743392306f	-0.12110067614611507
232	0x3fc0aa713bf28d95	0.13020148684618663
233	0x3fc28298bc21dccb	0.1446104925741792
234	0x3f9dca84c2ac6fe2	0.0290928596324277
235	0x3fba6e307f1bc10e	0.10324385741455819
236	0xbfd1519e5cbe6b73	-0.27060660416616783
237	0xbfa4bd40d2876420	-0.040506387423825396
238	0x3f93bf41d1ef0679	0.019284275472961163
239	0xbfd757ada8251dd2	-0.3647264616051561
240	0x3fd3bdbc0861418f	0.3084554750285173
241	0x3fbf3980a659e095	0.1219711691027235
242	0xbfa2af42233cfaa0	-0.03649336509851264
243	0xbfb33db7844dd3e9	-0.07516047458723531
244	0xbfbe589d5fd12d0e	-0.11853965367588534
245	0xbfc0b176402d1179	-0.13041570790859305
246	0xbf93fcdf015372bc	-0.01951931424706531
247	0xbfce6b236c87255c	-0.23764460372175733
248	0xbf9c2d7c52f5c3e5	-0.027517263949849897
249	0x3fc12abb7c8c8fac	0.134116588416075
250	0xbfa155628ec5ea04	-0.03385456078372687
251	0x3fc5d46e770c17af	0.17054539502003993
252	0xbfd30d139c8decac	-0.2976731327868929
253	0xbfcc8a6078dae44b	-0.22297292615056316
254	0x3fa6739274e3d257	0.04385049511794097
255	0x3fc3b739a7d0e0b2	0.15402908987176073

readout.0.bias f8 [64]
0	0xbfb75c54a1e91545	-0.09125260308163259
1	0x3fc32bac5e5f9963	0.1497703038032326
2	0x3fd6ca788e185a5c	0.35610784412839336
3	0x3fce7fc8d9e4ca2c	0.2382746757444506
4	0x3fab2e261045855a	0.05308646153094783
5	0x3fb3f1304f7b6134	0.07789899769284575
6	0x3f5352f8bd1fedc0	0.0011794499482665616
7	0x3fc436761c25eb98	0.15791202902240964
8	0x3fb3f4bf6be88454	0.07795330414275387
9	0x3f7e8fb2cb5f4c85	0.007461260238375127
10	0xbfcc6b13bab78d73	-0.22201773278275602
11	0x3fb6bfd1c60ccfe6	0.08886443219381554
12	0xbf939e1c99ad0a80	-0.01915783584559927
13	0x3f8fb35d2a2a4846	0.015478828286436774
14	0x3fa5061747c2c6a1	0.04106209517466409
15	0x3fc8d65f6e9e2188	0.1940421381116375
16	0x3f8171b83dfd6e67	0.008517684356483103
17	0x3fc2d7306c01e2eb	0.1471920516376238
18	0x3fb68a125033893f	0.08804430444755428
19	0xbfb75871dca2bf78	-0.0911933101331196
20	0xbfc073eeccd94109	-0.1285379886853735
21	0x3fbabb56ea8ee2b3	0.10442107416646244
22	0x3fab2fe902b9463d	0.053099900801168755
23	0x3fa146a93dd05b19	0.03374222640575492
24	0xbfb216de6ce07f32	-0.07066145094040335
25	0xbfd2d23513aa9321	-0.2940800373128685
26	0x3fb480b6dbf5f1d1	0.08008902425894539
27	0x3fc1de4afde392b9	0.13959634205743557
28	0x3fbef2799bda8e03	0.12088737540266696
29	0xbf835d44090aa962	-0.009455234075478717
30	0xbfd1a04058070102	-0.27540596577092924
31	0xbf89dc8c4a87a6a8	-0.012627693199607506
32	0x3fc14a978aff96a7	0.13508886611014256
33	0x3fc5e39c097b5e54	0.17100859129890245
34	0x3fd1f3bffec2b59f	0.28050231818164123
35	0xbf5e4424dea218e7	-0.0018473014884264284
36	0x3fc2d2dca0f7aa1e	0.14705999240625628
37	0x3f9af994187db55f	0.026342691416563976
38	0x3facb6e028799e93	0.05608273023682133
39	0x3fc04633654f5b42	0.1271423573186557
40	0xbfaf187e68f37703	-0.06073374777927933
41	0xbfc2a8e3b872399c	-0.14577909952317902
42	0x3fc50d14a66f41c6	0.16446169020356488
43	0x3fa83d9dfe4e7624	0.047345101636193015
44	0xbfb3405ad720ad3a	-0.07520072700633743
45	0x3fa9ef41636d7d72	0.05065349901883111
46	0xbfb1154f95075ae2	-0.066731428035705
47	0xbfc0a694e49c8923	-0.13008366739911378
48	0xbfc0abdb9337720a	-0.13024468124685057
49	0x3fb29364828d3eba	0.07256153285311032
50	0x3fc2ab282a16d371	0.14584829383025125
51	0x3f83d97df7c79eb5	0.009692176937235212
52	0x3fc046c13415f554	0.12715926211596218
53	0xbfc62577092c298d	-0.1730183405673639
54	0xbfb6b39a3ca53662	-0.08867801647758136
55	0x3f89b74bfaf14a49	0.012556642146738588
56	0x3fa9a6ca3d7642fb	0.050100631716423615
57	0xbfb78286ff41b2d3	-0.0918354390320915
58	0xbf98e63635829978	-0.02431568814849913
59	0x3fbd0d371914935d	0.11348289835275467
60	0x3fb4e267e64c7b1a	0.08157967922714385
61	0xbfaf901899f16d3a	-0.06164624098956968
62	0x3fac33f08cba8091	0.05508376806142324
63	0xbfc11cb394748994	-0.13368839978018043

readout.2.weight f8 [2, 64]
0	0xbfc9c1049fbf9b8e	-0.20120294380396014
1	0xbfab81a12dc91ad4	-0.053723370398577025
2	0x3f889804e802e451	0.01200870354692732
3	0x3fce9d68fd94ed4f	0.23917877561494058
4	0xbfd46c4f62200e52	-0.31911072332898016
5	0xbfcc6280f446b3b5	-0.22175609519527276
6	0x3fc22c63c3552a54	0.1419796661160314
7	0x3fc2aa55e1a1ec0f	0.14582322613918605
8	0x3f983215a2176165	0.023628557222623487
9	0xbfbf7d80258fb10a	-0.12300873677276428
10	0xbfd4064b5ee3d273	-0.3128841807040665
11	0xbfc5b987bf7ee1b4	-0.1697244343793166
12	0x3f88ae705ff59051	0.012051465919917488
13	0xbfcb307b1b1809c0	-0.21241701910919453
14	0xbfb30ba6eab3cdc4	-0.07439654569662141
15	0xbfc7f58a35bd063b	-0.1871807825464645
16	0xbf80de9a9476c9a8	-0.008237083106767809
17	0x3fca9412791a3616	0.2076438037224057
18	0x3fbc89c91d634b4b	0.11147744147755849
19	0x3fcc056c8f797f4d	0.2189155293044628
20	0xbfc42c0949fba973	-0.15759388077215028
21	0x3fd44aac6e7ee423	0.317057712465216
22	0xbf8adfef43c605c1	-0.013122433906349042
23	0xbfd0096d45805ce3	-0.250575368759611
24	0x3fd8c1214f38e66d	0.3867877267508451
25	0x3f73033ced8ad7d2	0.004641759872063349
26	0xbf768398e09e3565	-0.005496594598196712
27	0xbfc45b3bced41d46	-0.15903422926951744
28	0xbfd45b5924381174	-0.31807545220387756
29	0xbfd34bc7ad4474af	-0.30150024338383735
30	0x3fcf3830231456f2	0.24390222275604106
31	0xbfcf44ab610449eb	-0.24428312527795923
32	0x3fb2b3802c8f45b2	0.07305146301157242
33	0x3fc315e822983408	0.14910604180514064
34	0xbfc2dade056f1628	-0.14730429902390196
35	0xbfd239962934d574	-0.28476480506954904
36	0x3fcd88c3afca8266	0.23073621829555008
37	0xbfd5b5774fb80b35	-0.33920080933619384
38	0x3fc4f1859cbc2612	0.1636206641490366
39	0x3fd4c68a7abbf551	0.3246179770065583
40	0x3fbe7f17966d2d7b	0.11912677214166038
41	0xbf5d5f6325229b94	-0.0017927616322965566
42	0xbfc8fc21aaedac42	-0.19519444318879847
43	0xbfbc5f4e7659690f	-0.1108292616785642
44	0xbfd4c0b9c7120605	-0.3242630428358953
45	0x3fb5c6438851370b	0.08505651548440711
46	0x3fbbdd26fd7cf6ff	0.10884326637912166
47	0x3fd0aa43c4e8e4ae	0.26039213399378525
48	0x3fda3347ca743ec9	0.40937990923792406
49	0x3fcb8bb31d2440e5	0.21520079539232664
50	0x3f8ce2c76d5b365e	0.014104421639241579
51	0xbfd42af1382afb07	-0.3151209877504901
52	0xbfcd1f3f9823c90c	-0.22751612595272552
53	0x3fcc3c0899232526	0.22058207967192195
54	0xbfcb169eb991d4d5	-0.2116278081991029
55	0x3fcde2c04cf37117	0.23348239667291956
56	0x3fada748d97712cf	0.057916904970203846
57	0x3fd2e92fdefb780b	0.29548260474791793
58	0xbfce57aa73e42f78	-0.23705034884221354
59	0x3fd1d6533e753fa2	0.27870637034811285
60	0x3fda29adea9538d9	0.4087939062927837
61	0xbfd549692498c130	-0.3326056344403865
62	0xbfac447169c538e6	-0.0552096788038499
63	0x3fccdc37ddef3d7e	0.22547052704474518
64	0x3fb8981c3701a142	0.09607101767472151
65	0x3fd71f0c513955d6	0.36127002651241236
66	0x3fd099476934f43e	0.25935540460688233
67	0xbf944d104b5d2bb4	-0.019825224494791363
68	0x3f9bf3392b5ff055	0.0272950108264783
69	0xbfca52acf64ed1d7	-0.2056480601001016
70	0xbfd1e8f048a3bfd9	-0.2798424443599266
71	0x3fd2476e9e01c4e1	0.28560986929285376
72	0xbfd0c0b991888264	-0.2617629929755252
73	0xbfd1860c092f326e	-0.27380658051405404
74	0xbfb00c404e86516d	-0.0626869384489674
75	0x3fd43f6d80387f3a	0.31637132188369643
76	0xbfd7e525be7499f6	-0.3733610496441594
77	0x3fd183a7b10369d0	0.2736605862279733
78	0x3fd1fe73e89e7d83	0.28115556446751827
79	0xbfcab169e494a326	-0.208539234744671
80	0xbfd3b228128ba0e3	-0.3077488118274358
81	0xbfcb816a3259d3f8	-0.21488692720927793
82	0x3fd1a0f03a112e18	0.2754478995381944
83	0x3fd0ee50b10ddd7d	0.2645456055683651
84	0x3f847c6dc425a817	0.010002954052385644
85	0xbfbe48705d2606d4	-0.11829283022054976
86	0xbfd4c8d4d483b8fa	-0.32475777390835925
87	0xbfd584ff41cf26c3	-0.3362424986522507
88	0x3f971a90a5d6a3de	0.022562275049185725
89	0xbfbbf59ca933f5ed	-0.10921649104053417
90	0xbfd39b6b3507a02a	-0.30636100939455224
91	0xbfb620499f125a89	-0.0864301694258335
92	0xbfd3f5ff58cba44a	-0.31188949271615185
93	0xbfc6e15bef99e644	-0.1787524146964633
94	0x3fa18b74de3dd2ba	0.03426709378155608
95	0x3fc3115034749fd5	0.14896585999781445
96	0xbfcbbf5f7188ed31	-0.2167777351731757
97	0xbfd53b0745541a89	-0.33172780771602867
98	0x3fa8767973c306c4	0.04777888811214617
99	0x3fbb987fbe1a324a	0.1077956999890343
100	0x3fc3783aaa8db28d	0.15210660293395897
101	0x3fc92f7bb447f72d	0.196761572864426
102	0xbf831ad0b8f0cbb6	-0.009328489917697396
103	0xbfa369505276a952	-0.037912855211589616
104	0xbfcbb965a86ed1d5	-0.21659537052404568
105	0x3fd40e3e2f5c91eb	0.313369318248333
106	0x3fd337049544b0bb	0.3002330262850241
107	0xbfd3f069bbeea1b1	-0.31154864647626385
108	0xbf9afff91cd1b81a	-0.026367084869370762
109	0x3fd8ccf9be77efa4	0.38751071548881044
110	0xbf60f66005d3e46f	-0.002070605797254425
111	0x3f845f9be728d9c7	0.009947984687738732
112	0xbfa7e53233f8442a	-0.046670502513855475
113	0x3fc502a0e1b8abe1	0.1641427137522831
114	0x3fd4e3d34faec4bc	0.3264053609992279
115	0xbfc193000c190a65	-0.13729858961785904
116	0x3fba269cbd4f02ae	0.10215167638581121
117	0x3fd538550d235752	0.33156324656498726
118	0x3fd19e04fc893c45	0.2752697435543648
119	0xbfd447145415f289	-0.3168383427762725
120	0xbfd19867cad303c9	-0.27492708975847485
121	0x3f8bfc767c165101	0.013665128385391247
122	0xbfb3c65042ed173a	-0.07724477418841227
123	0x3fbdda8cdf471265	0.11661606265176656
124	0x3fc22a82240b16ef	0.14192225227286978
125	0xbfa0683bc8a24c8a	-0.03204523872514027
126	0x3fbb1dc5a12ad6c9	0.10592303452252873
127	0xbfd484e9bbcda414	-0.32061236705936946

readout.2.bias f8 [2]
0	0x3fa42c5746031dcc	0.03940079431191243
1	0xbfac13f96d1276c2	-0.054839891972034774
