experiments/flockingGNN-050-20221018101228/savedModels/DAGNN1LyG06Architlast.ckpt (torch, 9247 bytes, 4 tensors)

readout.0.weight f8 [64, 12]
00000000: e449 18ea 4ad8 c33f 65ee 3e38 8682 cc3f
00000010: 708f e9a0 0359 c73f 640d 886b 0ee8 ac3f
00000020: 7d23 a78a 6de4 b1bf ad3d 24de 98ef b53f
00000030: 68d9 0846 c828 83bf 39ca 063b 5fd3 993f
00000040: 52ab a8c4 50fc d03f 3633 bbcb 3574 d5bf
00000050: 02f8 4ffe ba21 c6bf 06d6 aa37 18e0 d03f
00000060: c843 e1a0 7a34 c63f 6198 cea7 2e52 a83f
00000070: e2eb e1ea 1efd c03f 64b2 9c96 baa9 bc3f
00000080: ddef 0aff 5fcd 99bf 1769 11fd b679 943f
00000090: 8f2a b532 9211 a2bf 9580 2e0b 5af7 b0bf
000000a0: 6e6c 6202 fe11 c8bf 8489 21c7 a786 81bf
000000b0: 282f c61d 6652 cbbf a471 0f4f a11b ce3f
000000c0: 73bb d6de 77fa 98bf c28c 5513 1fb6 bebf
000000d0: f4a2 f61e d99e ca3f fdf7 e2ba 2f31 bb3f
000000e0: 1d17 7d25 a198 b13f ca6b ff3d 1fbf a03f
000000f0: 782e 0a09 495f b5bf f63f 1c29 394f 98bf
00000100: eeb5 6660 b8b5 a7bf c149 bad4 7969 c7bf
00000110: 815c 6518 2131 a3bf 995d ddbc e721 d13f
00000120: 54a3 01e5 ef5e d03f a35b 46fe 2f00 d13f
00000130: 58fc fc86 fa16 a33f 27d6 b64b 93c5 c83f
00000140: 7753 f76c dbb0 afbf 772d a9d3 93b1 bd3f
00000150: 8d2d a87e 1044 9cbf 9d8d 80d0 1adb c5bf
00000160: 2bff c130 f228 a2bf cfed 28c8 8028 cb3f
00000170: 3ed8 775c 8984 bd3f 55a0 95d5 2841 cc3f
00000180: 356a 03f0 7819 d0bf 3b58 f180 b964 c3bf
00000190: 3845 c10e 4b0a 9a3f 7954 a32f 05fe b23f
000001a0: a6c5 9c0a 4b63 bb3f a560 d7e8 bd7c aa3f
000001b0: 61f8 8139 0cc1 a1bf e2f5 2676 4682 c5bf
000001c0: cfa8 d225 87b9 b4bf 9ce9 bd40 1d2a b3bf
000001d0: 16df 8669 afea c13f 8fd4 2f4a cfdd c13f
000001e0: 24ad 8a8a a55b 9f3f e36d 49c3 bb53 c4bf
000001f0: ae66 9aef 8cab c73f 6035 3a50 e298 d63f
00000200: de3b dd77 0a06 d2bf 5e37 2e53 088f bfbf
00000210: f388 7b58 fc0d c3bf aa75 8b0f 9ef7 883f
00000220: ec20 84d6 a1a4 8fbf 9d99 3989 265a cb3f
00000230: 50b5 7ba1 7fff a0bf 6478 bb20 091b ac3f
00000240: 4e58 04fb 8c15 d0bf c80b 510e 07e1 c8bf
00000250: 16a7 6502 3afe 8bbf 0ac6 e679 0ca2 acbf
00000260: d32d da8d a8bc a93f 7bf0 c337 d7b0 bfbf
00000270: 6d51 cf6a 0da6 45bf 52de 2c64 45ba a9bf
00000280: 2387 02cc 68ed c53f 928f 67ce 9535 bd3f
00000290: 023d 96f3 7f76 b4bf 1c8b 327b 8930 993f
000002a0: 2bd6 feb4 8407 d43f 35c9 8cdf 663a d63f
000002b0: a043 79f9 d942 a1bf eeff 34ee 99c0 bbbf
000002c0: 2a80 9f76 60b6 bcbf 77aa 9f78 9986 b33f
000002d0: 2e4b a191 b696 a1bf b1d0 c5d0 037f d1bf
000002e0: 04b7 ff6a 67af c33f 9405 33e6 1566 843f
000002f0: 032c 17de 16d8 b73f 4ae0 cfb1 2137 cb3f
00000300: d8ef 6f7c f489 d2bf 4ab9 4272 ce27 d6bf
00000310: 23ca 569d d7e3 9b3f 7d0a 6f3e e36d b33f
00000320: 254d d7df 37d7 b93f defb a714 fde3 b13f
00000330: a1b3 ed8d 763c 7bbf ed5d 8631 1e58 b03f
00000340: 0b31 76b0 0687 703f 9053 a82b 1198 a33f
00000350: c688 bf64 9efe c23f 9845 ab3e c9f8 d6bf
00000360: b5c8 0723 73f2 abbf 047c ff7d 046d c6bf
00000370: ce32 3f23 cf8b d23f b75f a6b9 e25d ce3f
00000380: b093 97a6 c02b 823f 93bb 4c22 53fe be3f
00000390: 4395 0576 8710 c5bf f73e 0d12 79ca cebf
000003a0: 72de 4584 f306 b93f c002 0b94 3096 d8bf
000003b0: 2dd1 6c34 6444 d43f 2893 3132 d28e c3bf
000003c0: 392b a852 4c59 c9bf 2943 a36c aa4c c8bf
000003d0: b945 2c53 7121 a63f 51c2 6a9f 89a1 b6bf
000003e0: dc4d 548a a519 b73f 623b 4fb1 cf7d b3bf
000003f0: 5514 a657 fc5a dabf d9b4 35c4 a6b1 b7bf
00000400: bd5c b296 098a 953f 27a6 9210 310e babf
00000410: 3706 08f7 4c91 d23f ef4a fd73 8f22 b4bf
00000420: c51b 9496 7953 d3bf d2ea e142 311c d5bf
00000430: 7ba1 ae02 c3d7 a0bf dd60 db4d 8439 c8bf
00000440: 7251 0e69 0788 c23f b9ae fa7c 6ca4 b63f
00000450: 049b a92a 2e1c 923f dca4 5c40 3213 813f
00000460: dd42 9fce e514 cdbf b9f8 0e3a 6cdd 973f
00000470: 03a6 291c e3dc c8bf 3825 1ac8 ccb1 c13f
00000480: e26c 950b b198 35bf 43dd 2b57 0e75 80bf
00000490: 8661 64aa ae1d c9bf a8d4 d545 ac55 c8bf
000004a0: 3108 7510 1f81 69bf 4814 c348 9420 70bf
000004b0: c6c9 4c99 cf01 d03f 8658 4984 ccc5 2e3f
000004c0: b3b8 8b0d 9949 a0bf 60be 14e0 f652 883f
000004d0: e22a c7ea 009f 733f 1973 a2b8 cea9 a7bf
000004e0: 7192 4bb6 dc51 cb3f 0511 8d45 15d6 923f
000004f0: 4a7d 2c91 6d2f 6abf 07d5 584e 02aa a3bf
00000500: e921 f826 e502 b6bf fac2 7b0e cc0a b1bf
00000510: aff1 eb60 d60f 99bf 4933 e928 eea3 bebf
00000520: f389 76c2 2b12 b6bf 78e8 e687 afd9 b7bf
00000530: 2d8c bb7a 1bda c13f a421 6b72 d2d7 b2bf
00000540: 8d0e a60c d1b3 d2bf bf67 b0fb 07fc cdbf
00000550: 7713 a2ba cb35 a63f 8c7d ed9c 66ee be3f
00000560: 739d eb23 7013 c13f a562 749a d825 633f
00000570: 4be7 e47e e3a3 723f 898e 61bc dffb 4dbf
00000580: 00eb 8ccb be66 d2bf 9791 c5c1 441e d23f
00000590: c70f cc9d a083 b5bf 8a25 169e a8c9 d83f
000005a0: a802 7ff3 4ba2 a6bf 545f ce21 0b3d a7bf
000005b0: 2bf9 37cd dd24 d33f 32b6 7516 6636 cd3f
000005c0: fa4f 6bef 12d3 a63f 27a9 1353 895b c13f
000005d0: 263c 9064 3a27 c1bf d052 e48f 09bc a2bf
000005e0: 3997 e9a0 a360 ccbf 6e15 db41 57e4 d23f
000005f0: a1f7 32b1 28d5 cf3f fd10 efd7 4233 cfbf
00000600: 972a 4a78 8066 c43f b3e6 ef2c 0f59 ce3f
00000610: f22e eccc 86f3 cc3f be7c 6f1a 6894 c43f
00000620: c0f8 e36a d9b5 c0bf 43ee 774d a66a c5bf
00000630: bd1b a731 68ed 9a3f a7a2 c6bf 1e1c d83f
00000640: d9e5 681a 1f69 c63f dc7f b0c3 fe5e b0bf
00000650: d697 00d5 a744 bc3f dfbc 0694 5136 d6bf
00000660: fdd9 138a bdec 96bf 16b6 2ed6 6217 8c3f
00000670: b4ae 3dc1 8729 d2bf f509 4f03 0790 b0bf
00000680: a4cf 558c 6ce1 953f d371 03ac 5472 7c3f
00000690: 8204 a50d e2a3 b13f eb7d c9d8 5b56 80bf
000006a0: ce37 a5c7 adad cbbf 1a18 4729 0f06 d0bf
000006b0: 5966 d6b4 0744 ca3f 96af 1057 4081 8f3f
000006c0: 9306 d68b ccf5 b33f b2dd 9578 a0d7 d23f
000006d0: dcf6 cb8a 0522 d33f d317 b574 9d04 c03f
000006e0: 0c26 b369 162c a9bf 3caa 5bb9 300d a4bf
000006f0: 8502 b0cf beac c5bf c37c d7b7 dfd1 cbbf
00000700: d779 b821 725a cd3f 28fd e0da 72a8 cebf
00000710: 6155 ac7d 1595 d33f 5b84 8b01 4897 75bf
00000720: fce5 d717 055e d2bf a8e0 2f0f 1457 973f
00000730: c7c1 170a af57 9ebf 006b 29bb eed4 c7bf
00000740: f05a 55a5 0038 bc3f 1289 5108 ed2e 81bf
00000750: 5719 088c 4a72 963f b7b9 e321 2c11 d03f
00000760: 52e6 f424 1424 a2bf b55f bc14 5dc8 c6bf
00000770: 5044 d3c7 d852 b33f 4a2a 0c19 0f81 cebf
00000780: 08b1 6776 e956 92bf 9bbd c73e 90c2 9ebf
00000790: d537 4028 8e83 d1bf aa4c 5bf0 a6ed d4bf
000007a0: dcb3 6cbd 2b71 27bf 032b 8c10 0786 a63f
000007b0: 6053 a538 5599 ba3f 9f55 dbdc 144a ad3f
000007c0: 1f28 dc37 418e c13f 31fd 8bba f4b3 bb3f
000007d0: 981f ff0c 6e34 b7bf 4576 a241 1ab4 c8bf
000007e0: 2bf2 e07b 7edb d1bf b238 5b78 daba d8bf
000007f0: 5578 090b 8e4c b23f be07 aadb 1a90 d03f
0.15503822737134876 0.22273328539255313 0.18240399701164334 0.05645794928207229 -0.06989178309517104 0.08568721221330718 -0.00935512984970606 0.025220382669156136
0.2654001160141678 -0.3352179040492048 -0.17290437142941079 0.2636776488901379 0.1734765325113854 0.04750200079369971 0.13272463292000142 0.11196485688260222
-0.02519750589520685 0.019995555110974807 -0.035290306749250815 -0.06627428791989794 -0.18804907909802487 -0.008557616009231557 -0.21345211461845648 0.23521820412032668
-0.024392960525513496 -0.11996645185495239 0.20797266017805038 0.1062192755952935 0.0687351910138116 0.032708145444949446 -0.08348518820474193 -0.023739712843109793
-0.04630829026005388 -0.18290636908620964 -0.03748420164873157 0.2676944107419899 0.25579450000673387 0.2656364424851125 0.037284687974982134 0.19352952191336323
-0.06189618783142852 0.11599086682797642 -0.02760339520504611 -0.17074904614228795 -0.03546864361942278 0.21217355512076927 0.11530359752200156 0.22073851040772988
-0.2515547126655833 -0.15151137157471503 0.02542989041859764 0.07418854153668687 0.10698384293643545 0.051732954667103294 -0.034675962467176864 -0.16803818482541916
-0.08095593140993461 -0.07486136274920913 0.13997452404668626 0.1395815956345001 0.030623041706957413 -0.15880534205903904 0.18492280673381373 0.3530813010664442
-0.2816187067555215 -0.12327625304007259 -0.14886431045949386 0.012191042756451182 -0.015450729712498355 0.21368867588462317 -0.0331992992995348 0.05489376568378715
-0.25131535066009725 -0.19436729620983173 -0.01366849250617323 -0.05592383373312877 0.05026747447581283 -0.12379212485751794 -0.000660664130573125 -0.05024926040499324
0.17130765878123907 0.11409889496968464 -0.07993316361374883 0.024599216598868087 0.31295888591134496 0.34731456595467886 -0.03371316118558032 -0.1084076124725468
-0.11215784927435438 0.07627257532991814 -0.034352975155931595 -0.27337737453423033 0.1537904045539379 0.009960337722420921 0.09314101144916269 0.2126199835036025
-0.28967010643077407 -0.34617959173455815 0.027236336687289985 0.0758955027986676 0.10094022002094911 0.06988507990170897 -0.006649458983571417 0.06384457310775078
0.004035020952312128 0.03826955469063542 0.14839534682602656 -0.3589346992494824 -0.05458411982171311 -0.1752019515251676 0.2897832721908288 0.23724016251503396
0.008872513851153702 0.12106818759342124 -0.16456692946227677 -0.24055398351128307 0.0977623174602458 -0.38416685540509476 0.3166742813075583 -0.15279605341779612
-0.19803766284925375 -0.18983965210511514 0.04322389736456551 -0.08840236799256586 0.09023508670025343 -0.07613847807736598 -0.411803327173691 -0.09255449571874709
0.021034383604811014 -0.10177904753313581 0.2901184475341298 -0.07865234929822028 -0.301969906854023 -0.32984572917454813 -0.03289613158932788 -0.18925527383431176
0.14477627401050658 0.08844640780687997 0.017685624460138008 0.008337395276230834 -0.22720024670572672 0.023305598300560535 -0.19424094081050222 0.138238523203009
-0.0003295356978775932 -0.008035766635187463 -0.19621833152701756 -0.19011453065801232 -0.0031133276676494005 -0.003937319979916039 0.2501105305738317 0.0002347767023304673
-0.031811507133043725 0.01187699195233377 0.0047903095077781194 -0.04621740344848586 0.2134357347596452 0.01839478718763223 -0.003196443556035132 -0.03840644079574856
-0.08598167611501818 -0.06657100061034874 -0.024474477449062778 -0.11968887804796426 -0.08621476647980568 -0.09316536968154476 0.13946860783389195 -0.07360568326396916
-0.2922251342317644 -0.23425388135438927 0.04337917950855446 0.12082520800821878 0.133405702151531 0.002337382367511092 0.004550827651024945 -0.0009150354824325062
-0.2875210750386685 0.2830974476148866 -0.08403972485035559 0.38730826795707485 -0.04420697543492241 -0.045387599827505426 0.29912514725573897 0.22822261902494884
0.04457911655995868 0.135605969967693 -0.13400964651415953 -0.03659086114399701 -0.22169919354490178 0.2951868193743711 0.24869259502696386 -0.2437518648495213
0.1593781077720748 0.2370928735179426 0.22618184095369248 0.16077901163860092 -0.13054959983123204 -0.16731718809738724 0.02629626086288871 0.37671631553761603
0.1750830534891026 -0.06394951131414878 0.11042260122539402 -0.34706534820266016 -0.022387467911324056 0.01371648040898336 -0.283784807884085 -0.06469768362789081
0.021367736878758273 0.006944971799580607 0.06890690644378775 -0.007977216294590547 -0.21623775718984323 -0.2503698256590511 0.20520111398654953 0.01538324609472123
0.07796934522596137 0.2944108178703245 0.2989515166699286 0.12514084051707516 -0.04916448631554368 -0.0391631342188998 -0.16933426991456116 -0.2173423431076796
0.22932268759264104 -0.23951564490742183 0.3059743621136786 -0.005271226190161372 -0.28698851898624844 0.022793115069334263 -0.02963136195279661 -0.18618568552741266
0.11022953068218633 -0.008390285316810995 0.02192036132512362 0.2510481196358358 -0.035431508551891824 -0.17798961174480402 0.07548289183184065 -0.2383135673811288
-0.017909667827482628 -0.030039075691033906 -0.27365449839350947 -0.3270051333649443 -0.000178848828647742 0.043991299409830396 0.10390217431024729 0.05720582195287282
0.13715377070940435 0.1082146602093317 -0.09064376656817641 -0.19299629406752863 -0.27902185533074214 -0.38640462640331485 0.07148063439805814 0.2587954659612669

readout.0.bias f8 [64]
00000000: 1e34 0e51 647c 833f 02bd 886c fb4c a6bf
00000010: 8879 3706 113d c13f d0b5 974c 82b1 a03f
00000020: 47ba cc93 c673 c43f 95fa b3d5 7a34 9fbf
00000030: 4397 250b e5a6 b03f 395a d339 19d8 d1bf
00000040: ae13 e212 003c c1bf 9e64 6ebd 4e8c 8ebf
00000050: d829 cec3 c975 c1bf 8f94 cc2d 1dfe c9bf
00000060: 7f3b 0d34 91bb a4bf d828 8009 1763 a0bf
00000070: f244 ab58 ebbe c7bf 3af0 ebfd d5ca 91bf
00000080: f3f3 67d4 678e d43f a7da 3ca2 80e6 d2bf
00000090: f135 62b9 0f91 c73f df39 bcfc d0bc d8bf
000000a0: 2242 49ce 6622 c43f 21aa d96a d451 623f
000000b0: 8b5c f578 4ac2 b43f 29bb dc6b 46f4 b93f
000000c0: 163f 9204 c381 c4bf 9d93 5b0b 7c2d a9bf
000000d0: 799f 7af7 baea afbf 8f4a 60dc c74e c53f
000000e0: 2d27 30f3 3c76 c53f 2b0d 6c8a 355c b73f
000000f0: 0f59 bd9a a5ea d1bf d857 af91 c4b1 a7bf
00000100: 3fc1 78a8 d82e a3bf 7bf7 bf63 a12a c83f
00000110: ec32 e39a 90ac 9b3f 6678 cfa9 f754 6dbf
00000120: ab61 0b3c 615d 8b3f 676d bd6a 4e23 b33f
00000130: dfab 9e00 cc20 d1bf 815d 5cc6 ccb9 d13f
00000140: aa8e 0bb6 fb3e a3bf 2370 b7cf 00f6 82bf
00000150: b232 4ea1 e69b c43f 6f1c e1af 6d31 c03f
00000160: ef8a a5bf 5f32 b13f 8fbd 71d9 7e21 cbbf
00000170: dd74 a076 91f7 b13f fdfa 030d 8b93 b0bf
00000180: fa00 324f 94b7 c13f abf7 5ac6 11e5 b03f
00000190: 4a13 05e8 3689 91bf 6ab9 b479 3edc b5bf
000001a0: 374b b4dd 75d2 c83f e720 8b3e 085e c4bf
000001b0: 91dd 5a87 7360 b53f 5b31 6fa0 1423 bbbf
000001c0: 8e85 3df8 3c59 96bf a48c 4b61 4245 973f
000001d0: 0827 00cb a44b c63f d3e3 2d30 19c7 c23f
000001e0: d9ec 3827 cb11 92bf 5aaf 0c21 67fd b33f
000001f0: e8a0 c443 9a2a d3bf 0ecf 20ed dca1 aa3f
0.00951460239755347 -0.043556077002330454 0.13467610171842304 0.03260428605049592 0.1597831937483127 -0.030473632138632373 0.06504661104335434 -0.27881460806875996
-0.1346435634806346 -0.014916052967054502 -0.13640710888678487 -0.2030674432400343 -0.0404935241737041 -0.03200599661802678 -0.1855138953165248 -0.01737532007517493
0.3211917471197118 -0.29531875461126805 0.18411442329345065 -0.38652443581750434 0.1572998530632655 0.0022362850930239962 0.0810896439846706 0.10138359197001691
-0.16021001551825326 -0.04917514456409509 -0.06233772536262356 0.16646669636300657 0.16767084001940571 0.09125074986882413 -0.27994670974057184 -0.04627813604717773
-0.037466784062760265 0.18880097742652055 0.027025470212538247 -0.00358055469267442 0.01336170162669322 0.07475748163181138 -0.2676267629673798 0.2769653260342793
-0.03758989903670103 -0.00925827630901927 0.16100771785968032 0.12650843704088596 0.06717489651559182 -0.21195970170400044 0.07018384119188022 -0.06475133006822982
0.13841489664992662 0.06599532215747554 -0.017124994193426425 -0.08539190741860173 0.19392274213222446 -0.15911963514213953 0.08350297979892775 -0.10600403706411525
-0.021824791575800577 0.022725140751287967 0.17418346321237999 0.14670100071432887 -0.01764600207228004 0.07808537060617252 -0.2994752561376246 0.052016166635807534

readout.2.weight f8 [2, 64]
00000000: 18f8 fca8 6b86 cabf ecfb 66fc 4f2e cbbf
00000010: eb25 fccd 65c6 9a3f b31b 5853 be78 cdbf
00000020: 2e25 0d65 bcc3 c93f 237d 23d6 f328 b8bf
00000030: d2e4 62ea ccb5 d43f 8639 4f85 c494 cfbf
00000040: 2824 b619 f657 d13f f8b1 9ef5 258e c93f
00000050: 0e96 53ef d553 c73f e40f 3a00 91f7 c73f
00000060: ecfc d767 8052 673f 6dfa 73c0 d46e d2bf
00000070: 02da 9d42 05c3 d43f 00bc b694 92ae c83f
00000080: a10f 2b00 335f d0bf 7d5e 7569 a86b bf3f
00000090: 8806 1df9 5b8d c0bf cd90 d036 4b07 bd3f
000000a0: 7cb6 ed49 6a92 c83f 54a2 345e 05bd ce3f
000000b0: 8b74 9868 1ef6 d4bf 35cb e98f 13b2 d13f
000000c0: da86 ea66 9b99 d03f bc73 b2fd 82af 953f
000000d0: e799 8fb0 a43b b1bf c4c0 5390 fa1b d13f
000000e0: 0910 47a5 4e18 be3f 2f3a e645 3732 d93f
000000f0: 2b52 adaf 8565 ab3f e9f8 2391 a733 c93f
00000100: bc3d dafd 0140 b73f 7464 99a1 6bce cfbf
00000110: 926b 2528 fe33 d4bf a117 32a7 9f36 bfbf
00000120: 0ade 1a96 124f c7bf d143 52c3 b491 b7bf
00000130: e5ae 65eb 44ce c1bf 4783 7655 17f6 b7bf
00000140: 7e20 6b26 19e3 c03f 9a71 08eb 7f97 cfbf
00000150: f305 45ec fbaf d73f 1032 2164 b918 b03f
00000160: ec7f 0eb1 8d92 d83f 6193 c57d 237d cdbf
00000170: 38ff 0d88 8c9f 933f 31cc b18f 3985 d03f
00000180: 7b98 4fcd acd2 b43f 84dd 348d faf7 d33f
00000190: 681f a229 a276 a83f d1be 0fc2 a156 c83f
000001a0: c697 8080 a196 763f 3277 ecad acc3 cd3f
000001b0: 3479 d995 9794 9a3f 342a 5320 ecf3 b0bf
000001c0: f38c b35f b813 d63f 00b7 7904 9c90 d23f
000001d0: 5634 6ead 9b2e c83f 9b39 2a10 f925 c13f
000001e0: 4f32 c6d5 cfe6 d03f dcc2 a985 c241 d4bf
000001f0: 0774 7ca0 67f4 c8bf 38f7 df3d bc2a cf3f
00000200: af7c 1cf9 2c00 cbbf 0c13 1ecf 2561 d4bf
00000210: 93a8 0db4 515b dabf c9ed 52ef 65bc a7bf
00000220: fdbe 7a34 c732 b6bf f8e0 9022 5046 acbf
00000230: 449b c431 92c8 a93f 1954 2300 021c c13f
00000240: f774 3a4a 4c6e c1bf 84e7 ce3d ffea d2bf
00000250: 55ee 6532 50f8 c9bf a9e6 fab0 9c9f 44bf
00000260: 20b7 ba14 e362 d83f 9223 cdd0 d33b 9fbf
00000270: 783f d70e 2b9e cbbf e1ea 0f4d f506 d0bf
00000280: 571f 83fe c81e d0bf 2cf9 20c6 89c9 d33f
00000290: d1e6 7352 bdf8 c9bf 52fa 6e2e 708c 8c3f
000002a0: 49a4 de47 efb9 d63f 5ac9 04c9 7efb c2bf
000002b0: 5a68 bffd 5e91 b23f 146c 0dd6 d48c b6bf
000002c0: 10ca 2d05 8db7 803f 3f0a 6f1e 64bb d23f
000002d0: 1825 552c c68e bebf c8bf 4a2d 8b0c d23f
000002e0: 90aa 91a8 cb08 d13f 9880 f324 1bf1 c33f
000002f0: ad93 80ec 9caa d53f 3110 a52b f2bf ccbf
00000300: a6d5 026b 4553 d1bf eb08 22c6 9aa8 ba3f
00000310: da0c f0d3 121d c93f 5342 dbea 08bd d3bf
00000320: 9af4 1989 b718 d23f 9981 f926 1d50 d53f
00000330: 4ba7 7fb7 c9bb d2bf 4175 6c2c 3e03 903f
00000340: d468 36d0 15db d2bf 722d 50bf 2a81 b2bf
00000350: 5c81 b402 57b7 c23f 1742 fd02 b086 d73f
00000360: 7ee0 23d8 887e 993f f0cd 6550 e9b5 d23f
00000370: 5582 b028 42e5 d23f aa6e 5653 5029 cbbf
00000380: 9fe0 9c46 db73 d23f e4a8 5a61 3f54 d13f
00000390: 004a 4a62 b3ce 9fbf a79b d364 bea1 d73f
000003a0: d11c 88b8 77c9 da3f 9637 a37b f00b cc3f
000003b0: e28b 501f d34f d6bf 4950 a215 591b 49bf
000003c0: 8730 ab46 fa7a d3bf 659f 5290 e7ec cc3f
000003d0: 0aa7 c205 3626 c7bf f5c4 a5b2 0c57 453f
000003e0: 1ece ab11 44c6 b43f 8767 3591 a1e0 943f
000003f0: c25b a13f 5b91 90bf b9c0 1fce 2395 cbbf
-0.20722718955397634 -0.21235084366159585 0.02614745206577666 -0.23024729795016938 0.2012858861365116 -0.09437488534921505 0.32359621896064283 -0.24672752866031206
0.2709937335098993 0.19965052121314364 0.1822459620081393 0.18724262724947416 0.0028469570086141396 -0.2880145911621302 0.3244031096031962 0.19282753240028683
-0.25581049934793937 0.12273647856397392 -0.12931394256343176 0.11339254463433975 0.19196823701661347 0.24014346217997462 -0.32752189840704976 0.2764939217951679
0.25937542963411675 0.021177336439553093 -0.06731633482522846 0.26733268827866774 0.11755839858147978 0.3936899359331702 0.053508928008032385 0.19688887202204988
0.09082043120928679 -0.24848695173821833 -0.31567338867687866 -0.12192724067617046 -0.18210060433715142 -0.09206704872691708 -0.1391073369408026 -0.09359880291459631
0.13193048835660542 -0.24681090332240957 0.3701162154503372 0.062877261110039 0.3839449147289986 -0.2303814281578083 0.019163318447225935 0.25813139946621094
0.08133964550470012 0.31201041974733124 0.04778010137766736 0.1901437947812981 0.005514746539153797 0.23253401272170887 0.025957458993041985 -0.06622195996457308
0.3449536261161505 0.29007625996642616 0.18892236679349378 0.1339713410311106 0.26408763767611715 -0.31651366284408566 -0.1949586423515088 0.2434916784404153
-0.2109428612102184 -0.31842942453685974 -0.41182367881140997 -0.04635923906740975 -0.08671231299626565 -0.0552239458269827 0.05035836083907566 0.13366723067034128
-0.1361785280650236 -0.2955930808635616 -0.2028904195866398 -0.0006293788046242882 0.38103558563567397 -0.030501660937520443 -0.2157644102539924 -0.25042469525912564
-0.25187897543627485 0.30917591427341296 -0.2029034283257745 0.013939739625013523 0.355098552880524 -0.1483000260864838 0.07253068633090845 -0.08808641649140753
0.008162595482393648 0.29268744442029865 -0.11936606008852768 0.2820156042389468 0.2661618372136809 0.15579547218567735 0.33853839012072734 -0.22460772639362994
-0.2707074685125356 0.10413520180921736 0.1961997542240173 -0.30841277060702516 0.2827586020355938 0.3330147629367502 -0.29271166724958125 0.015637370549588473
-0.2946218999219472 -0.07228343172771703 0.14622008926472574 0.36759567539141486 0.02489675349440334 0.29235298968634904 0.2952428243025101 -0.2121982962533953
0.2883213224008702 0.2707670641635913 -0.031061938165814595 0.36924705358836224 0.41854661007569144 0.21911436116209576 -0.3486221128279664 -0.0007661995871495265
-0.3043809595226396 0.2259797529889013 -0.180853607952763 0.0006512462617093417 0.08115029746459654 0.020388149726705797 -0.016179490812955562 -0.2154888874497425

readout.2.bias f8 [2]
00000000: 064f e9b5 76e9 86bf a89b f371 2310 b4bf
-0.011187484194273189 -0.07837125331899009
