experiments/flockingGNN-050-20221018101228/savedModels/DAGNN1LyG04Architbest.ckpt (torch, 9247 bytes, 4 tensors)

readout.0.weight f8 [64, 12]
0	0xbfd81fc938f07182	-0.37694006500694155
1	0x3fc1d6643106564a	0.1393552054766352
2	0xbfc0c4bec31a55a5	-0.13100418592936794
3	0xbfd0c8100a45cdc2	-0.2622108555144359
4	0xbfbf0c56d0161c2e	-0.12128202991708356
5	0x3f7973901cd33cac	0.006213725032650757
6	0x3fb90d70c34f8a83	0.09786133545234503
7	0xbfa752eebbced6d2	-0.045554600168015505
8	0xbfbc5476fa48369d	-0.11066382990267205
9	0xbfc65d8f643f52ce	-0.1747302283753442
10	0xbfcea977d3df493a	-0.2395467552692681
11	0x3fdcad6f5eedcd84	0.4480856349029738
12	0xbfc51df312fc43f6	-0.16497648646375723
13	0xbf8cf33922865b91	-0.014135786405672398
14	0xbfacf2bd25ed42a7	-0.0565394505307542
15	0x3f92ce904307c219	0.018366102305607954
16	0x3fce8412440c3c3c	0.23840549776693531
17	0xbfc459e62a5df1f7	-0.15899350231838102
18	0x3fc1478bc42adbb4	0.1349959094856935
19	0x3fa4ea77c2125466	0.040851347389584444
20	0x3fa517c759b1355a	0.041197042177922596
21	0x3fb78f30beb4f4c0	0.09202866226128759
22	0xbf95cda7def9d69c	-0.021292326912279877
23	0xbfb0978e0ebdef16	-0.06481254444036852
24	0x3fd0c91b03d98a74	0.2622745072932624
25	0x3fd0d149487121f5	0.26277381967932395
26	0xbfb5e32930e5b4e0	-0.08549745029241107
27	0xbfc52b06acb31e41	-0.1653755515346678
28	0xbfb98fe88f68a4c5	-0.09985211850348026
29	0x3f83f1ea50bed8d8	0.009738760556370726
30	0xbf5fc79b9fc6f4ea	-0.0019396800772562514
31	0xbf99480c92a61eef	-0.024688908053149324
32	0x3fb217c3af1199eb	0.07067511581553958
33	0xbfb9906766edb1e8	-0.09985967886831981
34	0x3fb46541188ed475	0.0796700177150614
35	0xbfc7c928b2fb159a	-0.185826384919136
36	0xbfa331b43103b777	-0.037488585456101946
37	0xbfbe8bbc29d61691	-0.1193196870936737
38	0xbfd420949fa31358	-0.31448855962326183
39	0xbfd2112c1e3ae266	-0.2822981162276278
40	0xbf408ce5ea7e78ed	-0.0005050776135140635
41	0xbf7d667f5648a251	-0.0071778272727348194
42	0x3fc05f02c4b0adbb	0.12789949993144298
43	0x3fb4551064a7f0c5	0.07942297418043427
44	0x3f9b897f346e9946	0.02689169652480785
45	0x3fb93ac961acf1b1	0.09855326304108904
46	0xbfb78e633e1e85f7	-0.09201641336996845
47	0x3fc5762693edc4f1	0.167668173056462
48	0x3fb5bd8e87d3ea5a	0.08492365661724346
49	0x3fae2e56e7496797	0.05894729207348275
50	0x3fd22d5376a38364	0.28401648126423695
51	0x3fd932072057dc05	0.3936784568645069
52	0xbfb4d7b518786133	-0.08141643378656198
53	0xbfbfb45ae234f405	-0.12384574911716591
54	0xbfbda3f2d9f726f1	-0.11578290769025636
55	0xbfb156653858de11	-0.06772453904783783
56	0x3fc2dd7f3abfe7b7	0.14738455170282602
57	0x3fc4acc01511fc56	0.16152192143269656
58	0x3fc0440ffba126ea	0.12707710062596017
59	0xbfc5480af6d8a230	-0.1662610726646263
60	0xbf5e6e5b0328795c	-0.0018573654930445693
61	0x3f961bb70595369a	0.021590099063635827
62	0xbfd43c4666a6079a	-0.3161788942744522
63	0xbfd5526b5490a3ed	-0.3331554723577586
64	0x3f5ffc31eaf69902	0.0019522178152811547
65	0x3f804d0090468f40	0.007959370043699843
66	0x3fbb20daf7284e96	0.105970082608389
67	0x3faaae38cbd428fb	0.052110457307280776
68	0x3f722525d1071c71	0.004429958077202576
69	0xbfb6df0d9f06b9c2	-0.08934102184750883
70	0x3fc16a36d8d54c64	0.13605390155371133
71	0xbfcdad855f8953ae	-0.23185794033875368
72	0xbfa48c3ad0ee6f1f	-0.04013236809188769
73	0xbfabc226006f42ae	-0.054215610077908635
74	0xbfd45ef1e0e05adb	-0.3182949729975186
75	0xbfd2d76896a663bc	-0.29439749442968455
76	0xbf8dfa8094c7e98d	-0.014637951412613837
77	0xbfb1b677623ace7e	-0.06919046543299065
78	0x3fba6f83be9ad619	0.10326407817304818
79	0xbf888d1b9d817200	-0.01198789190692029
80	0x3fc48979ddf00cbd	0.1604454358749531
81	0xbfd05b1c2389f690	-0.2555609080371619
82	0x3f9d272293099d4e	0.028469600891552198
83	0xbfa4b6375e11b233	-0.040452699883506325
84	0xbfd595204185fca2	-0.3372269286991899
85	0xbfd72c5bf7bf921c	-0.36208247369930446
86	0x3faa60606add6e06	0.05151654533866794
87	0x3fbe2c87189a21f7	0.11786693907391298
88	0x3faf249f8929f499	0.06082628774036287
89	0xbfd238a18bb21a47	-0.2847064842430069
90	0xbf879116137844e9	-0.011507198781176746
91	0xbfa26a310e9b018a	-0.035966427834412576
92	0x3fb500c70adc0209	0.0820431138527128
93	0xbfb30b56ffdd9ec5	-0.07439178225251471
94	0x3f9e52e54d28141b	0.029613097032797336
95	0xbfa09f9ce8df384d	-0.032467750002624564
96	0x3fcb79ae2df7e841	0.2146508907752054
97	0x3f9cbcff0a4b9394	0.02806471348130264
98	0x3fc81548bb48e921	0.1881495394207571
99	0x3fd11622830674f4	0.2669760016959366
100	0xbf9d56eb0fc57450	-0.028651879155735138
101	0x3fc134aec322dccc	0.13442024734624736
102	0xbfb5fbe64d53fce0	-0.08587493312733185
103	0xbfc22f33a7dcba4d	-0.14206548401257849
104	0xbfc403621da7a606	-0.1563532490538792
105	0xbfc3e45957fe587e	-0.1554061584144541
106	0xbf8744c16cb07b96	-0.011361609582363912
107	0x3fd39252bedf8c70	0.3058058609005405
108	0x3fab1da51053b39a	0.052960546725308436
109	0xbfab4ed1b9eb582b	-0.05333571810267331
110	0x3fd6eb080e6c1d7f	0.35809518249921973
111	0x3fd0a7d1840dab04	0.2602428235610861
112	0xbf877c74ceb65f58	-0.011467850263940413
113	0xbfa770268f04ffe3	-0.04577751632541529
114	0xbfb991e4a72adc6e	-0.09988240319477068
115	0xbfa72ffab614d110	-0.04528792832062056
116	0x3fb81abb5be0c622	0.09415789597621729
117	0x3fbb64bea66fc550	0.10700599254029908
118	0xbfba9844fa8cf8a2	-0.10388594738921822
119	0x3fbcef371021b9ed	0.11302513259736431
120	0x3fd33e764507750f	0.300687377368221
121	0x3fd98e666920959f	0.39931640878998026
122	0x3fbadcf5d4515416	0.10493408616578423
123	0x3fb0f941cf03240a	0.06630336097727266
124	0xbfb99cde1e245805	-0.10004986034286396
125	0x3fc107f86c85e8b8	0.13305573748568178
126	0xbfc1945cb40f84b6	-0.1373401526643982
127	0xbf9f73f5ee7d2c9b	-0.030715792351923992
128	0xbfbff2f025c88c48	-0.12480069086500223
129	0xbfbfeb101260d4ef	-0.12468052338302348
130	0x3fc13ec501e2b789	0.1347280749518485
131	0xbf805a6a6773cfd8	-0.007984954149357223
132	0x3fb5c51ec50bf8d2	0.08503906546318099
133	0x3fc8a15d8cca6d4f	0.192424482102846
134	0xbfd334b356c50813	-0.30009158586119716
135	0xbfd59630df4ae523	-0.3372919254866977
136	0xbfb003ed1eaf932d	-0.06255990981260302
137	0xbfc408ea5c0fb3d2	-0.15652207846815586
138	0x3fb8c75074817f4e	0.09679129452115129
139	0x3fbe523cc5294a84	0.11844234288700234
140	0x3fbfa4483a0dc09a	0.12360049645735885
141	0x3fa17e6a9564efc0	0.034167605148894165
142	0x3fb2f6d152445f29	0.07407863863442955
143	0xbfd3224eeabac9c4	-0.2989690105706837
144	0xbfd240956ff35c4a	-0.28519187863043227
145	0xbfbfeb2a418ddb9c	-0.12468208408777887
146	0x3fad55a99470bd9e	0.05729417740837593
147	0x3faeffc2d64fd1db	0.06054505220518865
148	0x3fd4a20c68cfd79c	0.3223906539491226
149	0x3fc80bc31a2c58dc	0.1878589513586978
150	0x3fb26cf91e8a251e	0.07197529788586052
151	0x3fb1b41cb82b9dda	0.06915454384181122
152	0xbfd586db37f2ec5e	-0.3363559767128147
153	0x3fceec0c2b4b4877	0.24157859910934906
154	0xbfc3c7e715c4122b	-0.15453804552829928
155	0xbfbbd714378a4189	-0.1087505946727615
156	0x3fa6e80f4c525508	0.0447392254510906
157	0x3fb5d74248dd14a5	0.08531584051987069
158	0xbfd50f72c9be6af9	-0.3290678949503412
159	0xbf8b517a2f6e4175	-0.01333899934050529
160	0x3f95d3909235a2e1	0.021314867900772753
161	0x3fc8c9fe1692abbf	0.193664322874012
162	0x3fb34304b570ee7d	0.07524136953082379
163	0xbfd7045483c8e1e3	-0.3596392905197076
164	0xbfab8863aa54395b	-0.053774942915071754
165	0xbfb810ca7fde8e73	-0.09400621053515028
166	0xbfbbd7579d8857af	-0.1087546119309468
167	0x3fd4c66bcf8ae024	0.3246106650144631
168	0x3fb09e94641d944a	0.0649197334692683
169	0x3fc2b42338876c3e	0.14612236271099904
170	0x3fd33d09f47e62cb	0.3006005180009594
171	0x3faedb9409fc7b2c	0.060268999308610155
172	0x3f9981a17c9f3d67	0.02490856478817474
173	0x3fc39f24414442ac	0.15329411684844751
174	0xbfbfe1745e566825	-0.12453391364252349
175	0x3f8387cf518585cc	0.009536380458203285
176	0xbfc7b197cee78f6a	-0.18510720827827792
177	0x3fc6102a70f02c07	0.1723683406310956
178	0x3fc5d76106b07c38	0.1706353457129539
179	0x3fc2dae81035bf8e	0.1473054961347739
180	0xbfc469d2a99b4378	-0.15947945863311097
181	0xbfc69a78d08e2e7c	-0.17658910926217064
182	0x3fa1b25dcb95d933	0.034563952542998065
183	0x3fb5247c0e7f4b65	0.08258796075760484
184	0x3fc54af4f3dd061f	0.16635000140563336
185	0xbfa0cc652dac3554	-0.032809411835936914
186	0x3f7edcabecc67ce0	0.007534667569785131
187	0x3fb6108102f1a6ff	0.08618933030961883
188	0x3fc38a7fcb1dcd45	0.1526641599444735
189	0xbf8e7cb822548dd5	-0.0148863206364415
190	0xbfacb76a4360fd5c	-0.05608684608932421
191	0xbfbaf61589d9a759	-0.10531744590266835
192	0xbfb9ac076b159f04	-0.10028120388380662
193	0xbfcf4738fa7abe6b	-0.24436104040568138
194	0x3fd685968d0f0404	0.351903569939225
195	0x3fd2d23d9be1388f	0.29408207152017324
196	0x3f9059caba50f591	0.015967528936234713
197	0x3fcbdc1f5946796b	0.21765510424752263
198	0xbfc765f3aac78897	-0.1827988227733541
199	0xbfc5ac3ce34d5bd7	-0.1693187818407
200	0x3fb21d3c013697f8	0.07075858144398228
201	0xbfca5debb5b1948a	-0.205991233556379
202	0x3fd3bdf6b973efb8	0.30846946821815946
203	0xbfb4aebcc8408f32	-0.0807912815949379
204	0x3fb9f0dee8de20c2	0.10133164582487367
205	0xbfc3a1bd14bae932	-0.15337337028706483
206	0x3fa53ba91250774e	0.04147079800189478
207	0x3fb04107416b908f	0.06349225375339727
208	0xbfa9e7ede117ca9b	-0.050597604491391134
209	0x3fb90e93681393bf	0.09787865916184922
210	0x3f89e58e8e9c5aec	0.012644876219878275
211	0x3fbd3f7b306e4eea	0.11424989635844054
212	0xbfd0004e7caa5dc7	-0.2500187127529582
213	0xbfbad136584ec0db	-0.10475482612560276
214	0xbf95ac2b1451777a	-0.021164582362295438
215	0x3fc99d13434a973a	0.20010605607711246
216	0x3f944d5cad33d8fa	0.01982636267799707
217	0x3fab5c7b77e4f4a7	0.05343995894006897
218	0xbfd14630b957bc54	-0.26990907764315364
219	0xbfcb9ccdfffb1bf1	-0.21572279929225105
220	0x3f8fd2979bcafba2	0.01553839153473097
221	0x3fc5aa96278a456d	0.16926838808698666
222	0x3fb36e29aa4614c0	0.07589970023225856
223	0xbfc1efa3740001dc	-0.14012568630279432
224	0x3fa11ef5f583e6ab	0.033439336986657985
225	0x3f615438d7a13348	0.002115355510829895
226	0xbf9391823153581c	-0.019109758625596482
227	0xbfbe8e1613f8f3be	-0.11935556399926292
228	0x3fd0790021be0757	0.25738528533121524
229	0x3fb607d353ef1d71	0.08605690764590236
230	0x3f6fc4aad94d9ddb	0.003877958001271981
231	0xbfa28b8867efdb74	-0.03622080105554107
232	0xbfc03dc234d2e29f	-0.1268847234657828
233	0xbfc37a5b947b2511	-0.1521715617184687
234	0xbf6372982ee6ae2b	-0.0023739788368482193
235	0xbf9d924ee7e354a1	-0.02887843408901303
236	0x3fbae3a048d4ee35	0.10503579881781706
237	0x3facded99fdd3a03	0.056387711300534014
238	0xbfadbc5123445250	-0.058077369265593703
239	0xbfc5bbf757d5ee78	-0.1697987727055652
240	0x3fa8f34fd5b0ae58	0.04873132213137116
241	0x3fccf718980fdaa5	0.2262907736291783
242	0x3fc6c48be3c1f7be	0.17787312146168505
243	0x3fc7ec57b7aae602	0.186900105172569
244	0xbf91e988858703fd	-0.017492421293130878
245	0xbfb4998d3ec9a445	-0.08046801360036777
246	0xbfab6a404990dd49	-0.053545006733140506
247	0xbfa0690732fbfaa6	-0.03205130097739088
248	0x3fb46d5e71c4fa2c	0.07979383733343387
249	0xbfabcb0a0b1ecff2	-0.05428344140764797
250	0xbfcd2822c58ba3f2	-0.22778734823012275
251	0x3fce8a7cd9e83ac5	0.23860130920407677
252	0xbfcd66daed125a9f	-0.22970139098898287
253	0xbfa7f39184d39901	-0.04678015467088593
254	0x3f77262228fcbd26	0.005651601255336735
255	0xbfb7b904e23f9a12	-0.0926669170727126

readout.0.bias f8 [64]
0	0x3fc88ac09c395e0c	0.1917343867123552
1	0xbfaee18a1a4dda46	-0.0603144795522224
2	0xbfb50b1cda19be1c	-0.0822008163902343
3	0x3fc40ad726189372	0.15658082351833574
4	0x3fc1fa0ba54e3450	0.14044328280980034
5	0x3fd3367fdc0ca6b3	0.300201382534037
6	0x3fd31a9f0583b699	0.2984998277523601
7	0x3fc0be217595064d	0.13080232850374998
8	0x3fccf76a7737f3af	0.22630053349703647
9	0x3f945c2879ac4184	0.019882805277178686
10	0xbfbb48cfded6cebe	-0.10657977285773776
11	0x3f9e87e250753595	0.029815231476552368
12	0xbfb561b44d74d69f	-0.0835220994093455
13	0x3f95057a78bd8d09	0.020528710956011973
14	0xbf8d1b3d2dd314e5	-0.014212110482171922
15	0xbfa769267cef03ec	-0.04572410845822347
16	0x3fc7791f83123277	0.1833838834758301
17	0xbfbd3f649ee9b773	-0.11424855117522074
18	0x3fb544f23e564c93	0.08308328649427414
19	0x3fbefabfcdf58551	0.12101362970635889
20	0xbf9b05e49d31988c	-0.026389667600959885
21	0xbfc8fd981404b376	-0.19523907639941357
22	0x3fc55d4a9118e91a	0.16690952381925045
23	0x3fc1ab4849b81d41	0.13803962325639854
24	0xbfb5edd911a71ca7	-0.08566052132583711
25	0x3fd1966b5104a5de	0.27480585967950144
26	0xbfb12799c305d838	-0.06701050769137928
27	0xbfce91412da70e05	-0.23880781869057457
28	0x3fb5302619351041	0.08276594272052852
29	0x3fa17123e923891e	0.03406631680424453
30	0xbfc8275fd015cb3a	-0.18870160732657287
31	0x3fc6d6aa38baad44	0.17842605371456888
32	0xbfc29864c266dd4d	-0.14527568332935417
33	0x3fa5f7ffe16f5bc0	0.04290771128551496
34	0xbfc8373edc4c2739	-0.18918596035683224
35	0x3fc0540d89e10bdb	0.12756509048821738
36	0x3fbb9bbe6fe07b15	0.10784521323556036
37	0x3f96893b76296e08	0.022007874571825098
38	0xbfaa4132049b8819	-0.05127865129703952
39	0x3fc8299b50655968	0.18876973558026156
40	0x3fabaf2ac171a9a4	0.05407079326035394
41	0x3fcbff326010a3a9	0.21872548762010283
42	0x3fcc2d0a511394af	0.22012452086270204
43	0xbfca4a83fbbfff12	-0.20539903442840363
44	0x3fbcb6043a0bb431	0.11215235154277604
45	0xbfc3b2904afc5ead	-0.15388682996193861
46	0xbfac30f9f4c58b40	-0.05506116021094565
47	0xbfcc7e94151205ea	-0.22261286763027438
48	0x3fb2a3a192bc8b03	0.07280931312974918
49	0xbfb630e33e63e68f	-0.086683466655723
50	0x3fa5b745702aaa3f	0.04241387361738135
51	0x3f94c5e96ef99023	0.020286223791473056
52	0x3fd604a7248bccfe	0.3440339905639148
53	0xbfcf7f36071726aa	-0.24606967302525123
54	0xbfcbc61dbf82d5fd	-0.21698352671744195
55	0x3fcdbc177a3df09d	0.23230260342450473
56	0x3faed3bd25cad22a	0.06020918928462422
57	0xbf90c5c8e71e14d4	-0.016379489046376275
58	0x3fd08af2a13b79b2	0.25848069901794724
59	0x3fb760833cf84e8f	0.09131641615413798
60	0xbfcae5699785b25d	-0.21012611292407515
61	0x3fcc65ffea0e66e7	0.2218627827503987
62	0xbfb76c10f8c4d018	-0.09149271081406629
63	0x3f99f4198b9d7c71	0.025345229288515406

readout.2.weight f8 [2, 64]
0	0x3fc02d307db41b1f	0.12637907159679515
1	0x3fd2523789772a62	0.2862681238590651
2	0xbfcbc7a65a1b762b	-0.21703032874840864
3	0x3fa633ef0a6fefd1	0.04336497309120058
4	0xbfd13d9491d602ce	-0.26938356630129767
5	0x3f9a042811376721	0.02540648083763764
6	0x3fc270a566737b47	0.1440626859902869
7	0x3fd033fa735f0b41	0.2531725050613894
8	0xbfcaecd22b074c76	-0.21035220242501723
9	0xbf832306ca06b9b7	-0.009344151535370366
10	0xbfca4fb368ea210b	-0.20555727598935677
11	0xbfc8f62d2086fcd8	-0.19501270378348212
12	0x3fb92ceddc2780d7	0.0983418142782314
13	0xbf9ea74e676ac4f2	-0.0299350977535981
14	0xbfb660c89152fc50	-0.08741429851487337
15	0x3fd1e20d21fc2328	0.27942207640494354
16	0xbf746af6b256105d	-0.004984820994085562
17	0xbfc7684b7a026e8a	-0.18287032563681677
18	0xbfa37a7ded7cc017	-0.038043914070272127
19	0xbfcdfd1ee408e58b	-0.23428712973126795
20	0xbfa08105d643468f	-0.03223436584961547
21	0x3fcd5ba87b11b91d	0.229359684078596
22	0xbfc746a378c3833b	-0.18184321781793664
23	0x3fd0de43baf95e50	0.26356595286549567
24	0xbfd12e2c4f49288f	-0.2684431814456127
25	0x3fc993e1679c1196	0.19982545432152382
26	0xbfbd047db90b5238	-0.11334977882081254
27	0xbfcf670c484376b1	-0.24533227470867794
28	0x3fb3732252ee4f5b	0.07597555660896431
29	0xbfca10e6ffea25a0	-0.2036408185561358
30	0xbfcdb2c593b82792	-0.23201818192347595
31	0x3fbe923ef690d807	0.11941903609917413
32	0x3fd609a1be043e96	0.34433787876421584
33	0x3fc4bc1e7cc4320c	0.16199093906506368
34	0x3fc5f976f2d7ab41	0.17167555673162307
35	0x3f94c22bba34941f	0.020271952858042504
36	0xbfc80080e47c7ce0	-0.18751536518627798
37	0xbfb2e9ec37b65991	-0.07388187751926113
38	0xbfc705a018bf7a38	-0.1798591729011194
39	0xbf9a63b9f65dd6ad	-0.025771051084538744
40	0xbf7960266d1ba7ca	-0.00619521150813713
41	0x3f6791814b77b337	0.0028769994057626052
42	0x3fc1bd725643e085	0.1385939522949721
43	0xbfcec20958d501ba	-0.24029652440550625
44	0xbfc959b2a93afb7d	-0.1980498625107109
45	0x3fd45d19e114dd1c	0.31818243961920856
46	0x3fd01d353e70b555	0.2517827138679725
47	0x3fbfc12491d000b6	0.12404087600589517
48	0xbfd605d55e80a3f4	-0.34410604695091185
49	0xbfc9a59f5036f936	-0.20036689202056274
50	0xbfb7306bf4496657	-0.09058260644942472
51	0x3fce1727a5c6f17e	0.2350816306551557
52	0xbfa9c6ae9369f9d7	-0.050343947882527544
53	0xbfd13f23a5d90898	-0.2694787139518069
54	0xbfc76d0d9186e521	-0.18301553350264846
55	0xbf8b445a40703505	-0.013313965884686594
56	0x3fce6b4ef9bac241	0.2376497954733328
57	0xbfcf31ddc0a3e1bc	-0.2437092962861821
58	0xbfcc9701953a1eeb	-0.22335834299541743
59	0x3fa444667c17e777	0.039584353111378805
60	0x3fb32c70ac5e430f	0.0748968525715663
61	0xbfcdfe150bd11cf0	-0.23431647374147913
62	0xbf9e5be7f2e72e05	-0.029647468758225787
63	0x3fd0553eef8fda1f	0.2552029933425803
64	0x3fa26a3c528f1e31	0.03596676357079465
65	0x3fd00eaeda2626f2	0.2508961801873816
66	0x3fc665a06c4c508a	0.1749763993071876
67	0x3fc46343dcf45851	0.15927933014671905
68	0xbfd0dbcd19f66444	-0.26341559920689783
69	0x3fd0a28b8c9ebec7	0.2599209664576673
70	0x3fd1c9f11475f915	0.27795054433944816
71	0xbfbad681c9b2ec06	-0.10483561682023898
72	0xbfd181f41e0e4c4d	-0.273556737281244
73	0xbfd0c44ea5714ab2	-0.2619816413545478
74	0xbfd06e0bc9ababb7	-0.2567166776122422
75	0x3fcfaf23a347bdca	0.2475323245302959
76	0xbf9bcecf0ce944f6	-0.027156100428617123
77	0x3fc7dcf7141de44f	0.1864308212496177
78	0xbfcdbce6d842e382	-0.23232732352860458
79	0xbfb7ab01ab03c1c2	-0.09245310235178919
80	0xbfccb145e842e9b5	-0.22415994492423655
81	0xbfb06c65908fe85b	-0.06415400294636824
82	0x3fd15ffd785c6e6b	0.27148377183923483
83	0xbfa66cec64ba1cda	-0.04379976968362494
84	0xbfd2e71e27f31e8e	-0.2953563108571665
85	0xbfa79470b79580af	-0.04605438462272226
86	0x3fd1e644847410e7	0.2796794217577045
87	0xbfa35763a9cd6045	-0.03777610252171874
88	0x3faf483758bc469e	0.06109784086414759
89	0x3fd0ac4b6ae6a0c9	0.26051602782764555
90	0xbfd0f53b3979ec4f	-0.26496773350635733
91	0xbfa51bd9e5065ac2	-0.04122811241830028
92	0xbfcc2e579b6b0d64	-0.22016425217416746
93	0xbfcf20e157d597c2	-0.24319092549120397
94	0xbfcebdd52ceada1a	-0.24016823476058918
95	0x3f8f31b2866baecd	0.015231508948509465
96	0x3fbe6f8dc4628518	0.11888967556526031
97	0x3fd4bed439bacb33	0.324147278191208
98	0x3fa55942caef315c	0.041696631691226144
99	0xbfd181ce378a517b	-0.2735477011094855
100	0x3fd1a8f62e638e2f	0.27593760042347787
101	0x3fd3770b14bcf19c	0.3041408255119451
102	0xbf8f8538f05fb781	-0.015390820346478542
103	0xbfa3fda1e90a00af	-0.03904443711962934
104	0xbfc12dea2f646d34	-0.13421370805813526
105	0xbfd1204df03c16ac	-0.26759670696660964
106	0xbfc13dd34196d5fb	-0.13469925596807272
107	0xbf90e52c16f0221e	-0.01649922266008918
108	0xbfcd8db0630c6480	-0.23088650547359535
109	0x3f715afeb8bd71e8	0.004237170225533472
110	0xbfd27002d3ec0d92	-0.2880866117049773
111	0xbf8d8b86680e12f5	-0.014426279116159327
112	0xbfb9f83aeaa246c6	-0.10144394138685717
113	0x3fb64c1b643312ef	0.0870988006236748
114	0x3fb054d7b8ce0fa8	0.06379459630812667
115	0xbfd24c7342042faf	-0.28591615149411614
116	0x3fa43dcfcbbd8e60	0.03953408586565099
117	0x3fb137c734f6365c	0.06725735705387009
118	0x3fac06a925b1edd6	0.05473831734795069
119	0x3fcdc8c78c170220	0.23268980350805268
120	0xbfceef87df00bf25	-0.2416848982697896
121	0x3fd028ef44043cc5	0.25249845163575585
122	0x3fa15d6fa304f12b	0.03391598572713613
123	0x3fa2f102332b79c1	0.03699499964362785
124	0xbfc10408f97a97b7	-0.13293564015947165
125	0xbfd4d18917ddabac	-0.32528903322843905
126	0x3fd3ff32a8163158	0.31245104231563436
127	0xbfbecefbc90c16da	-0.12034581812266812

readout.2.bias f8 [2]
0	0xbfb0565af9b8fd07	-0.06381767842048101
1	0xbfb1a4da0f1779ea	-0.0689216887326222
