experiments/flockingGNN-050-20221018101228/savedModels/DAGNN1LyG05Architlast.ckpt (torch, 9247 bytes, 4 tensors)

readout.0.weight f8 [64, 12]
0.33428014717979376 0.41561327898514216 -0.02560906774394594 -0.04749561708238195 -0.14873660063073127 -0.00889917681319023 -0.015740147423102435 -0.01876038068286086
0.1576862105973687 0.09550393039941714 -0.047383191881727245 -0.10691973747679577 0.23312112699368298 0.05363978223235858 0.043253614290586044 0.1854158211251163
-0.04951798578223708 0.21965871389636712 0.0030713708656528753 0.03746007584809627 -0.01593742173350069 0.048067823843598305 0.0012106045571720538 -0.0374187639134968
0.03909870914949302 0.1300657501453501 0.28338889145835705 0.1660291222454053 -0.02047610157912576 -0.09735663568487361 -0.1284535287912503 -0.12174033093710623
0.05342444278836506 0.15071764944379232 0.179565393669501 0.11956844463714068 -0.015323224847332752 -0.06558342969379703 0.19696102125875062 0.09829602194275798
-0.006815327614360874 -0.010010010725124025 -0.03175143653145501 0.26701911386309785 0.057752294366846334 -0.11923605144294329 -0.021572344613878715 -0.03122818202637722
-0.05793225351053465 -0.031997062677701714 -0.16566732226314299 -0.055357063730979365 -0.022613324564352614 -0.14212725066931062 0.03593410567150552 -0.020872378600954672
0.17216664735932774 0.0060301058971224866 0.18452482478290197 -0.2401382903897954 0.30376237114856874 0.22874829677095324 0.0805873817213125 0.20401441209044924
-0.27721886852037203 -0.05902668874769941 -0.02782018856135944 -0.0509576652855211 -0.18973928163403112 -0.0036851501630311145 0.26022315635228704 0.05552560150094801
-0.23079658608014195 -0.26239608851906027 0.024097159614041717 0.10515394579779509 0.08093686714928926 0.06026470794929293 0.03230712370765888 0.17840591493004976
-0.021154337977565288 -0.24021639096157413 -0.1473145616557425 -0.059939663797141274 0.0006531138026836282 -0.052405777834023906 -0.32245382017356444 -0.2054958260409562
0.040692370177100444 0.09775569938368123 0.09286640308369856 0.001223908500403466 -0.2531979087907135 0.27616624865032285 0.15162613337768838 -0.15406181220006823
0.2044401482155179 0.14352518727446886 0.06649703422821181 0.04926756639594784 -0.0774972585445998 -0.027200290468748303 -0.02935451413887256 -0.10455645849732788
0.056691944116804956 0.15277995801105573 0.048025496965613916 0.22576685769741608 -0.0037004746104515427 -0.017601921493391175 0.2689815328351049 0.26514228654658006
0.03881995278969044 0.2711495073538887 -0.10071840582221066 0.06527216743915519 -0.12065354088403062 -0.13988539496717853 0.19948334612165025 -0.36674579675605384
-0.06925729707290909 -0.2386779071883164 -0.30998369933960285 -0.171193614071259 -0.01474858697071533 -0.26472062422072495 0.15840594012222403 0.21966180492927295
-0.13413294262630432 0.005405767141989164 -0.26788514996901724 -0.15068350698755925 0.2885351189656775 0.34004625429039387 -0.048432606861483804 -0.16778370616297994
-0.10737871221451618 -0.05481983257959 -0.0003952237634297591 -0.015623203716106917 0.1367567081684061 0.17239417333083445 0.06303548612418902 -0.053322314062121644
-0.016518880318842816 -0.06194104562109648 -0.303755768640788 -0.1601797185808544 -0.0029354025763323834 0.006955903827394147 0.1092483214306308 0.0039109665793824406
0.08375064312047054 -0.19229806144858608 -0.12350776177272968 -0.10283736865040131 -0.28708912222956356 -0.3606412810957499 -0.02134287608071604 -0.11415274612664883
0.12250576955592289 0.10526327004402533 -0.01654350796114691 -0.09699967956236223 -0.19195521781385896 0.045865275526499584 0.07790359155193527 0.05773132149584034
-0.26396688167168403 -0.30110174795037814 -0.04917124811918001 -0.2096454555499006 0.08417352771001947 0.05026976192206956 -0.0012164191120053378 -0.012095021451110024
0.07118989269005488 -0.04667215465938109 0.02632830445641816 -0.08881687779667187 -0.1174728100348945 -0.23056359538637902 0.2789787157122666 0.4059075638411557
-0.0404612248713509 -0.23106132707753194 -0.12189363604371611 -0.18532783177294887 0.22559131012517802 -0.06990139798381442 0.20981656605624446 0.1706616155981094
-0.017839646969611017 -0.12383430928934508 0.27588191296539655 0.23975313549825875 -0.0020718631852304293 -0.019118622681615953 -0.09429582419930262 -0.013916859188504403
0.010867368680175815 0.27531948970707254 0.027690263512167954 0.18702879654609436 0.23409247225852894 0.0694741638014887 0.027302290115585243 0.04719907216779043
-0.07571869552257993 0.025984913782548347 0.011369251556298369 0.12112442175318326 0.03354833199404939 0.008642016992858721 -0.005697019889597074 -0.1818846304985411
-0.2832360365532069 -0.07479384236173292 -0.01794990451045648 0.017317990097522634 0.12042293738310465 0.007286938777667255 0.0011584497939589506 -0.03113427864783578
-0.2107416835545625 0.3331140441530726 -0.03781584634836243 0.2770705754032467 0.2501482212419756 0.09718268435949906 0.034763435138468066 0.0458515584187584
-0.11094172657437286 -0.053631201059551846 -0.020700912714369836 -0.047429676258156084 0.08425389325584808 0.2171722069167832 0.12973033555551408 0.1287222020684241
0.014071489018178757 0.025461735114643124 -0.22292941483999482 -0.04022778462007159 0.05035457754706861 0.3004490498431814 0.10973086464974245 0.09141782497072731
-0.1444528390313284 -0.12775741443559568 -0.16698284826828227 0.05700049996739663 0.19057900214587073 0.35899722719727767 -0.15185847847016876 -0.19156768793737558
00000000: c7b6 f58e d864 d53f 9191 4170 6899 da3f
00000010: 2ee3 c371 4339 9abf 64f3 2474 5851 a8bf
00000020: 9dae b609 cd09 c3bf d7e5 fd4a bb39 82bf
00000030: 3370 aa69 2f1e 90bf 353d f9d5 eb35 93bf
00000040: fade c5ce 0f2f c43f 0d78 b411 f272 b83f
00000050: 7133 0617 9c42 a8bf 8b7e c287 175f bbbf
00000060: 66e6 38c0 e9d6 cd3f 95b3 e76c ac76 ab3f
00000070: cfac 9f75 5625 a63f a259 f2a3 b4bb c73f
00000080: 8e3b ffe2 6b5a a9bf 4bb0 3bd8 c61d cc3f
00000090: c6ed 7fad 2129 693f 9cb4 5891 f72d a33f
000000a0: 0a04 8344 e651 90bf 7fd9 cb86 589c a83f
000000b0: 58f4 cfbe a4d5 533f 18ca 875e 8d28 a3bf
000000c0: 85cc 39fa be04 a43f 361c 9a97 fea5 c03f
000000d0: eb40 3729 0b23 d23f 0f22 1d39 7140 c53f
000000e0: cd15 87ea aff7 94bf 9fab 504e 5dec b8bf
000000f0: 616b 9b4c 2a71 c0bf 88a5 fad3 5f2a bfbf
00000100: a985 2ad5 725a ab3f 2142 a547 b74a c33f
00000110: 49e5 a6b2 fffb c63f 89a0 599f 099c be3f
00000120: 0e59 b56c c861 8fbf 77c2 b15d 13ca b0bf
00000130: ed50 72cc 0436 c93f ef2f 9297 ed29 b93f
00000140: 7c7b 7193 63ea 7bbf 9d7d 93e5 2080 84bf
00000150: 58da 016b b941 a0bf deba 5c56 d716 d13f
00000160: 0b2e 266f b591 ad3f 0b9d 73fd 4086 bebf
00000170: 0767 758a 0f17 96bf 9e3a 11d2 47fa 9fbf
00000180: 1f33 6cdc 4ba9 adbf fb9e 8943 eb61 a0bf
00000190: 756b 9139 9634 c5bf 6f7f a7d4 c257 acbf
000001a0: a1b6 d485 f227 97bf e35e bfca 3931 c2bf
000001b0: 891a 5781 f465 a23f d85e ec9d 915f 95bf
000001c0: 4065 ef83 8e09 c63f 76b5 e939 06b3 783f
000001d0: 9b10 df6b 829e c73f 34ea defb d9bc cebf
000001e0: 42aa 75ba d770 d33f 25cf d2ca 9f47 cd3f
000001f0: 2e9b f6e8 5fa1 b43f b0aa ebed 241d ca3f
00000200: 8843 8835 f4bd d1bf aa6b 8603 bf38 aebf
00000210: d48a 2840 e57c 9cbf e97e c383 1f17 aabf
00000220: c13d b174 6049 c8bf 804e cbed 5130 6ebf
00000230: 597a 8c06 7fa7 d03f 0419 1305 da6d ac3f
00000240: 6f0f 9f16 be8a cdbf 6e69 b2f6 18cb d0bf
00000250: 690d e001 edac 983f f533 3f76 5eeb ba3f
00000260: a767 724d 47b8 b43f 6d8b 7d0b 04db ae3f
00000270: 2223 812f 8f8a a03f 84cd 0449 01d6 c63f
00000280: 24f2 2097 7ba9 95bf 7551 9223 69bf cebf
00000290: 4f9b 441c 34db c2bf c8e1 7b5f 69b0 aebf
000002a0: 20e4 2736 b766 453f 624f d61b eed4 aabf
000002b0: 0768 0759 15a3 d4bf 95bb 27ee af4d cabf
000002c0: 7bf9 365e a1d5 a43f 90bb d97b 8406 b93f
000002d0: 7242 24b4 17c6 b73f 87c2 e1be 710d 543f
000002e0: 39fd 6a00 6534 d0bf b793 8d33 b5ac d13f
000002f0: d4bd 0932 7c68 c33f d51b 7b26 4cb8 c3bf
00000300: fb9a 4943 182b ca3f d580 bf88 085f c23f
00000310: 9d89 4a1b f305 b13f 3c24 d934 9939 a93f
00000320: ea8c fa3e dcd6 b3bf 0718 0598 64da 9bbf
00000330: 1b9f dd18 1c0f 9ebf 09e4 d449 36c4 babf
00000340: f94e dbfb b906 ad3f 7524 922d 4b8e c33f
00000350: b7d3 ae45 cc96 a83f 1761 2aab ede5 cc3f
00000360: 1967 cf2d 7550 6ebf 4ebc a4f4 3c06 92bf
00000370: 6d4d b051 fe36 d13f 2d45 605a 17f8 d03f
00000380: c4f5 5377 35e0 a33f 6b55 9a76 835a d13f
00000390: 2595 1c73 aec8 b9bf 3f7e 7d40 adb5 b03f
000003a0: b356 3e84 26e3 bebf bf39 49be c3e7 c1bf
000003b0: 9e35 d897 ab88 c93f 4fd0 c05c c378 d7bf
000003c0: 1200 f0a1 d8ba b1bf bd65 d366 ff8c cebf
000003d0: 6d3a bdde c5d6 d3bf 542c dc1e ace9 c5bf
000003e0: 7589 9cd5 8134 8ebf b8b3 e6c5 2ef1 d0bf
000003f0: 4a96 2856 a546 c43f e2ff 2cc6 e01d cc3f
00000400: 62b7 f2ac 442b c1bf 12aa 5a91 5b24 763f
00000410: eedc 8cc1 0725 d1bf 9b71 47df 9849 c3bf
00000420: 9c1f ed00 5c77 d23f 9b7d 535d 51c3 d53f
00000430: 0669 0f9d 28cc a8bf 2ac6 62bd ef79 c5bf
00000440: 2d79 3fd9 2b7d bbbf 50fc 3358 5811 acbf
00000450: a6e3 7623 c1e6 39bf 3bc8 27e8 0eff 8fbf
00000460: 0bc4 8b6a 3e81 c13f b60a 3d24 0311 c63f
00000470: fc0e 64f7 1723 b03f f373 16f6 0f4d abbf
00000480: 95a1 f14a 53ea 90bf a0ff 719a bcb6 afbf
00000490: 4e25 1209 bc70 d3bf b6c4 64de c480 c4bf
000004a0: d531 1c42 fc0b 68bf 4a95 3e37 cb7d 7c3f
000004b0: 11fd afaf b2f7 bb3f 39fd dd18 f204 703f
000004c0: e8ac 38a1 ae70 b53f 88c0 800e 399d c8bf
000004d0: 56b4 9d65 349e bfbf db00 29bf 8c53 babf
000004e0: 45da c00d ab5f d2bf d633 f92a bf14 d7bf
000004f0: dcb7 132b e8da 95bf e8cf 5c47 1d39 bdbf
00000500: 6362 d0c1 895c bf3f 8621 4f9e 88f2 ba3f
00000510: 84f1 9d06 c8f0 90bf 015d 7193 f8d4 b8bf
00000520: 6d4e 6713 fd91 c8bf 9512 d144 a77b a73f
00000530: 70dd f461 7df1 b33f 1c1a 8fb3 f58e ad3f
00000540: 7072 0059 d5e4 d0bf a0c7 0d44 4045 d3bf
00000550: 2998 264d f92c a9bf 92c1 ab8b a9d5 cabf
00000560: 7d17 b474 658c b53f 81b1 dd4e f5bc a93f
00000570: 5b86 7913 08ee 53bf a190 9d4c 46c5 88bf
00000580: 4cd7 e834 8039 b23f dbb2 caa3 69e5 a7bf
00000590: 73d5 659a cef5 9a3f 6533 78f1 b3bc b6bf
000005a0: 3fe3 44b5 b212 bebf 1395 ea9e 1b83 cdbf
000005b0: bee9 108b c9da d13f 1b65 f9b7 63fa d93f
000005c0: 3838 286b 55b7 a4bf c98c 95e5 6a93 cdbf
000005d0: 2cf6 65dc 6b34 bfbf 946f 4088 d2b8 c7bf
000005e0: 6eed 9f11 2de0 cc3f 7600 49da 0ee5 b1bf
000005f0: 9d6f afec 44db ca3f 6394 d664 3dd8 c53f
00000600: 5806 3a71 8e44 92bf 943e 85f4 9ab3 bfbf
00000610: 8ea2 6f9c 0ca8 d13f 910b 0a12 3bb0 ce3f
00000620: d24c ea13 03f9 60bf aefe a50c d593 93bf
00000630: d1da 1569 c523 b8bf 0c0e 9f38 7180 8cbf
00000640: cd74 9988 a141 863f fc91 0fa3 d59e d13f
00000650: 9c3d cf20 d65a 9c3f f7b0 4942 8ff0 c73f
00000660: a98a 4bfc bdf6 cd3f 55c0 710d 0fc9 b13f
00000670: b8ff 9bac 21f5 9b3f c472 b90e 7a2a a83f
00000680: 701b f7e8 4c62 b3bf cdac 8a0b ca9b 9a3f
00000690: 6215 ea1c c348 873f ef44 2d96 0202 bf3f
000006a0: d1e4 7f39 3f2d a13f 04b0 d8e2 e7b2 813f
000006b0: b087 c421 c255 77bf 9071 d1dd fe47 c7bf
000006c0: 1bdc 820a 8a20 d2bf 40c5 e272 b025 b3bf
000006d0: f2dc 5ab3 7561 92bf 38be 67a4 cebb 913f
000006e0: 2baa bfa1 09d4 be3f defd cebb e8d8 7d3f
000006f0: d5c3 a9fe e3fa 523f 9ada 4e12 aae1 9fbf
00000700: 75aa 625f 95f9 cabf a372 5e91 bd51 d53f
00000710: 1f6e ac3e 995c a3bf 3b9d 0239 86bb d13f
00000720: 47c2 58af 6d02 d03f 08c1 0fe3 f6e0 b83f
00000730: 665d 0852 83cc a13f 9b26 c2ff da79 a73f
00000740: 9111 664f ad66 bcbf bb23 317d 8c75 abbf
00000750: 4a1a 6cbc 9e32 95bf e0fc c6d8 b348 a8bf
00000760: ef33 18c4 a991 b53f a963 2783 4ccc cb3f
00000770: f548 41ee 009b c03f 0495 1318 f879 c03f
00000780: f0e0 1c49 83d1 8c3f 439c 771e a412 9a3f
00000790: dbef 0679 f388 ccbf dfdf aa76 bc98 a4bf
000007a0: 1e80 893f 13c8 a93f 0d35 cca6 8e3a d33f
000007b0: 674e 086b 5217 bc3f 4c4e 8598 2867 b73f
000007c0: a719 ba3d 6e7d c2bf 7644 69de 5a5a c0bf
000007d0: e110 27a8 b15f c5bf 6e65 6e66 2b2f ad3f
000007e0: 83aa c28a e464 c83f f4af 8a81 cff9 d63f
000007f0: 3429 533f 1970 c3bf 81a7 543d 4a85 c8bf

readout.0.bias f8 [64]
-0.20344165216591423 0.13901075162295629 0.03711935696249025 0.05207032166315966 0.0682546686263183 0.10823879867772555 -0.016532814965475977 -0.323528043085888
-0.07905563227786462 0.06765891412166516 0.06527859661803956 0.1622447762515972 0.07965065536405139 -0.11953996899575588 -0.009485445600335882 -0.11884498848481997
0.3092697608362507 0.27388881331830006 -0.12385010028181949 -0.0803015830048029 0.10924256745626093 -0.021091489708129386 0.017295281843915135 -0.2660932088528686
0.034974353548051985 0.18064449541607874 0.13025834841210446 -0.12401033644554006 0.04193070404792468 -0.012353768884356736 -0.036325727399614774 -0.0838789315502418
0.2771785171161933 -0.036862848886260485 0.2767652811216994 0.0639810257629294 -0.08762204651268429 -0.024437701440188205 -0.13725029329823796 -0.11054879235707694
0.011966765932788993 0.10770429846324843 -0.014770064762192716 0.01622868446470052 -0.14323772926389863 -0.11753495962839837 0.047587727056134184 -0.024198046067471633
-0.12552731615364465 -0.0629692138134611 -0.10216792663858647 -0.22829790115513435 -0.02512383565258037 -0.09948957667463011 0.14806540181270583 -0.22386441859986625
-0.1838515861646139 0.1437527611329298 -0.12767011624559552 0.06090192569777938 0.41080610864119343 0.29403446378831133 0.04187607053138527 0.05369840128355717
00000000: 0b31 5945 600a cabf 34a9 01b4 1acb c13f
00000010: f1a6 67f0 4e01 a33f 775c 4511 f6a8 aa3f
00000020: 7ca2 8c51 2379 b13f 2faa 7ab4 89b5 bb3f
00000030: bea3 596e faed 90bf 1c23 19f7 aeb4 d4bf
00000040: 21b2 326b fd3c b4bf fa77 6f37 1852 b13f
00000050: fe6e 9a1d 19b6 b03f f545 f9d3 6fc4 c43f
00000060: dac0 e43f fc63 b43f edd0 66e1 2b9a bebf
00000070: e5a5 21f5 1a6d 83bf e2f6 d50a a06c bebf
00000080: 74bd 1b65 13cb d33f 6e4f fcf1 6487 d13f
00000090: 8d15 51e2 a3b4 bfbf b599 d200 a58e b4bf
000000a0: 5043 8e26 52f7 bb3f 0ad3 14ea 0199 95bf
000000b0: fa30 94b7 dab5 913f 3a7d 6dcf ab07 d1bf
000000c0: 5d10 6091 28e8 a13f 7cda 01dc 5b1f c73f
000000d0: cf00 3b39 4eac c03f 0149 6633 24bf bfbf
000000e0: 040e 2bf5 f077 a53f 1da9 b9ca ee4c 89bf
000000f0: 6a98 5e26 4999 a2bf 05eb d4f3 1679 b5bf
00000100: abbd 8af6 4abd d13f 34c9 cef4 afdf a2bf
00000110: 2080 c5b9 85b6 d13f 6f60 377d 0f61 b03f
00000120: d439 2e00 666e b6bf c26b e661 3206 99bf
00000130: 1e8a 8ae8 6a91 c1bf 6133 c9f7 ec4c bcbf
00000140: 3acd 8f22 0882 883f 65cc 8947 8292 bb3f
00000150: 9b48 e888 c43f 8ebf a8c8 2194 409e 903f
00000160: 8ff1 5e29 9d55 c2bf 539b bd67 c516 bebf
00000170: d94c cb26 6b5d a83f d693 f261 5fc7 98bf
00000180: 2439 d172 4711 c0bf 48d0 fb19 c01e b0bf
00000190: 23e4 9c5f ad27 babf 8b76 9a99 dd38 cdbf
000001a0: a261 e911 10ba 99bf 8944 1c1e 2678 b9bf
000001b0: a632 3a9d cef3 c23f f3ee 4fda 96a7 ccbf
000001c0: ee86 f2e2 7288 c7bf f547 e38f 7d66 c23f
000001d0: dfc5 f98e 7e57 c0bf 1b51 4586 892e af3f
000001e0: c919 67b4 a54a da3f 4a88 77ed 75d1 d23f
000001f0: eaa6 d5c2 c770 a53f 6e81 b85a 5b7e ab3f

readout.2.weight f8 [2, 64]
-0.332364115245269 -0.2518529250225113 -0.13577249238925695 0.05164017339716771 0.17858264400129373 -0.19521951023169012 0.30999615929241997 0.08340326387528894
-0.21349050412132697 0.0378901744686438 0.031631540331273286 -0.2942837600737469 0.09906861038277759 0.29022094757105843 0.21611459842714253 0.32933944254409947
-0.02553466619965863 -0.3029074955794075 0.19551904993337355 -0.16441276609740244 -0.041567097019606515 -0.24179112120258936 -0.07118298090187222 0.07340096457735909
0.36117645514867375 0.3273267687590171 0.28317666447362 0.006583313115754072 0.09494300080973245 0.18256295717386264 0.00033195678998282504 -0.21881191943428868
0.002983478741183073 -0.204912720814981 -0.22821821806603945 0.03249907705886453 -0.016817897343103686 -0.2963407884255187 -0.13322443269547007 -0.2715767510848491
-0.04501703527901978 -0.26771156395723517 0.1101340024682083 -0.18047376039199647 -0.02762280325078465 -0.24152631209698708 0.05289489855551926 0.018490224261044252
-0.2086696955015719 0.18008575088015766 -0.31165057054867634 -0.22321481013488678 -0.23129711695000316 0.08654157089543839 -0.22310846305017565 -0.14864488559169364
-0.34268683055134475 -0.3614983356696602 0.27788456486402274 0.32937401964665963 -0.1510361239308089 0.28376620555792675 0.3172080249989102 0.4052301727353399
0.019365005482284925 -0.049394688811672915 -0.25722366238172806 -0.4275789466681341 0.27769713596223283 -0.03217743958019475 -0.039270000369167446 0.3027513916055345
-0.2264377484020835 -0.32483788600745367 0.1825080748220502 0.16771799074720103 0.2852359884167252 0.008647224306679715 0.05754801856019628 -0.2746897276101137
-0.181171972504823 -0.11295011804959602 0.047093964276069086 -0.08110510800446256 0.3039435255181272 0.35030947672917434 0.4057400280382745 -0.30098584561636665
-0.10772410592177933 0.09209247827342697 0.029442773383363013 -0.26319816662537243 0.24575710364718797 -0.05219066520325543 -0.18954491184112882 -0.040053279237658994
0.26551190058997937 0.3692998611411945 0.17169260353719545 0.30154901040562687 0.22980245815366676 -0.09710243749754248 -0.3538885164788914 0.22330432972210276
0.23840025182070881 -0.258882953746156 0.2131526017035288 0.3213080517753738 -0.22611334556546303 0.04755917225499934 0.2716187111502649 0.3146060392671164
0.192094763153238 -0.046818540223612294 0.05058751503086772 -0.18911676637586414 -0.03960606262582578 0.3078855233780748 -0.2540977657670176 -0.049545765051053
0.09631916402254873 -0.11126916246838392 0.030925289334813044 0.12485169915382777 0.052066329471129276 -0.2687686215366238 -0.16274192654263248 -0.021704780122653724
00000000: f8e9 5523 7445 d5bf 7de9 17bb 5b1e d0bf
00000010: e90e 4137 fe60 c1bf 0a1c cdaf 9470 aa3f
00000020: c333 cfcb cbdb c63f 533d fef1 f3fc c8bf
00000030: aefa 8221 fad6 d33f a759 b992 ea59 b53f
00000040: 5c94 9a26 a853 cbbf 6a78 5d48 5766 a33f
00000050: a666 7d5e 0232 a03f 8cae 508d 8bd5 d2bf
00000060: 6079 a779 8f5c b93f 0ca3 9be1 fa92 d23f
00000070: 5c64 37a6 a4a9 cb3f 35a0 c0bd e513 d53f
00000080: 279d f770 c225 9abf 3784 ce1e d662 d3bf
00000090: f4ba 9aaa c406 c93f 7174 b73e 7a0b c5bf
000000a0: a5e6 9354 4848 a5bf 1f9f 03ef 02f3 cebf
000000b0: 8e5d 013f 0c39 b2bf d6c7 5ad6 67ca b23f
000000c0: 8fb8 bcd9 831d d73f a838 bbf9 ebf2 d43f
000000d0: 5ce4 3904 911f d23f 56fd 80a8 1af7 7a3f
000000e0: 3c3f 763b 2f4e b83f bdea 4215 395e c73f
000000f0: 1c5c 818e 4fc1 353f 2cfe f86a 0702 ccbf
00000100: c5e7 e4f3 ce70 683f f7a4 377d 943a cabf
00000110: eff6 782b 4136 cdbf 6b6b 3c12 b8a3 a03f
00000120: 41f1 4dfc b538 91bf 948a b05a 3ff7 d2bf
00000130: e643 ba8a 7f0d c1bf e1da 1074 8361 d1bf
00000140: bf91 920c 790c a7bf 0445 fdae 2f22 d1bf
00000150: 434e c7f2 bd31 bc3f dcba 55a1 c319 c7bf
00000160: 9206 58f2 2649 9cbf 093f ca8d 55ea cebf
00000170: 97a6 d746 0a15 ab3f f3d0 fcf1 19ef 923f
00000180: 513a ec46 b0b5 cabf b0c0 40c5 0c0d c73f
00000190: d552 123c 15f2 d3bf 618f c18a 4d92 ccbf
000001a0: 02cc 7ad8 249b cdbf 1b89 bda0 9627 b63f
000001b0: 3973 2170 d18e ccbf 0cc0 2aad cb06 c3bf
000001c0: 123a 7fbe 94ee d5bf a19d 50ea c922 d7bf
000001d0: e5dd 8957 dcc8 d13f ab34 a2c4 7614 d53f
000001e0: 1812 66d6 2655 c3bf 2a34 25bb 3929 d23f
000001f0: 5c8a 59e3 224d d43f ba0b d088 4aef d93f
00000200: 80df ee84 6bd4 933f 789f 15ba 424a a9bf
00000210: a3f5 6b3c 5a76 d0bf f874 1916 745d dbbf
00000220: 57a4 4935 cac5 d13f b7f7 54b5 8f79 a0bf
00000230: b855 998e 321b a4bf a1e9 705f 4760 d33f
00000240: ebc0 fb81 e9fb ccbf b0d7 39d8 24ca d4bf
00000250: 9fed 4eb2 6c5c c73f 37e3 9a7a c877 c53f
00000260: ab17 7972 4e41 d23f ee73 c9cc a2b5 813f
00000270: 4bcf 5413 ef76 ad3f 4c7c 2839 8494 d1bf
00000280: 5515 6ea8 a430 c7bf e333 1a87 4cea bcbf
00000290: 0636 cf38 b31c a83f 57ef 6aea 4dc3 b4bf
000002a0: 629a 7b8b cf73 d33f 9cf6 8170 786b d63f
000002b0: 8f8f c605 a5f7 d93f facb de22 5a43 d3bf
000002c0: 14c5 ec97 ce93 bbbf 7357 6466 5f93 b73f
000002d0: e8ec 2313 3f26 9e3f 047b 811f 3dd8 d0bf
000002e0: 4151 7601 f874 cf3f efaf 6820 bcb8 aabf
000002f0: 8a8c bdf6 0143 c8bf efba d808 dd81 a4bf
00000300: 9de5 6ea0 25fe d03f 8e33 81e2 9ba2 d73f
00000310: fe23 94f2 05fa c53f 4c55 7538 944c d33f
00000320: 6dbb 27bd 2a6a cd3f b3f0 6991 b4db b8bf
00000330: 243c 2d05 1ca6 d6bf c316 9b7c 3c95 cc3f
00000340: 45cc 7642 e683 ce3f 4639 f5ce 8991 d0bf
00000350: 40de af9e 9548 cb3f e644 94a5 4f90 d43f
00000360: 9c47 3238 48f1 ccbf 088c eb02 ad59 a83f
00000370: cecf 5772 3362 d13f d4af 715e 8122 d43f
00000380: 53ee bcaa 8f96 c83f 5db8 3686 99f8 a7bf
00000390: e776 4955 9be6 a93f 77d4 5a6b fa34 c8bf
000003a0: 300a 67ef 3e47 a4bf ef85 747b 65b4 d33f
000003b0: 402f 7d46 2343 d0bf 8e61 1901 105e a9bf
000003c0: c274 746b 5fa8 b83f 90e2 dac5 227c bcbf
000003d0: 33db 3f09 e1aa 9f3f 8039 b7ec 47f6 bf3f
000003e0: e93e 9a1c 70a8 aa3f 1336 ec4d 8133 d1bf
000003f0: 6225 183a bad4 c4bf 77b7 2c23 c739 96bf

readout.2.bias f8 [2]
-0.060915733807013504 -0.05601625107648274
00000000: 4ba3 06d9 5830 afbf 7a06 d67c 29ae acbf
