experiments/flockingGNN-050-20221018101228/savedModels/DAGNN1LyG07Architbest.ckpt (torch, 9247 bytes, 4 tensors)

readout.0.weight f8 [64, 12]
-0.041914638083267966 -0.2807080148781944 -0.3349354012505369 -0.16307471704831386 0.014146682832117239 0.07603663526322751 0.08768132076033819 -0.22769997169970643
-0.08192883013453378 0.12826830653432547 -0.08677251658793655 0.21415024905048505 -0.33120380316788933 -0.2380345425389473 0.050709398334068664 0.10404676303423253
0.16664758179509737 0.17916821557686863 0.011467641222346035 0.1189815718840222 -0.2837756702055319 -0.09681705807943991 -0.02402734039268191 -0.08783778675024147
0.06997629430589979 0.19806554659851944 0.29164558669251084 0.33804566611764303 -0.010138194083418185 0.027014022614384906 -0.06467255458219756 0.062497074794428634
0.026566622494987147 0.093371574774693 -0.09681937717543254 -0.08558036160152374 -0.20230164689830976 -0.044854208061529066 0.008719128646360026 -0.015104328161990463
0.0735865035035909 0.10791783118887184 -0.00032706832891754166 0.04586837464441578 0.13992401189523979 -0.29272894259429966 0.09666764674247864 -0.24945585997018319
0.03852930001924707 0.07605079506083028 0.029762747608319866 -0.31839743525151226 0.0026555122805002203 -0.1318803244271544 -0.3703145707033425 -0.12112230371987301
0.0684661834333799 -0.15229733524182532 -0.339593630669703 0.2085636844442667 -0.110838452355095 -0.27501216569674936 0.2690491661755503 0.016658329014719503
0.09014145579538219 0.24165486095710254 -0.07190590818308264 0.12079469118958933 0.07221282885948671 0.16742820624611912 -0.15375288106758653 0.2791084877748098
-0.003721274551252602 0.041935129571707086 0.15551762746366737 0.010761888758427807 -0.011894833218735178 -0.09888868219380179 -0.06540431451920545 0.031609822616677004
0.013610000928951458 0.1073678248285427 0.0627863108370078 -0.1534302818098616 -0.2365896570939499 0.001860467667404259 0.030279624849040863 0.0667871034447892
0.1382604370005573 0.10102503810231325 -0.0668729724656993 0.03385378443576594 -0.007411181079318356 -0.22515721226985122 0.2682307264564276 -0.22820072075819373
0.2854474951961099 0.16276440611883325 0.05018050330401417 0.09776654498797567 -0.14635555079997428 -0.07438808186215298 -0.04166362192699933 -0.013012325764659563
0.21550565733083965 0.04628597543112669 0.10879888209727664 -0.2883593596620822 -0.32469856747681725 -0.416441312697032 0.03926612041221003 0.008372975660679656
0.1013791953624257 0.010876405235466095 -0.0125355241187732 -0.007832014137263345 -0.0747069863407379 -0.23821653144338842 0.050449904652338666 -0.09202928114295189
-0.09562162223152033 -0.25808040015870914 -0.33248179481239076 -0.18322385616489179 -0.09272285996672042 0.12755335877286167 0.2452018161563594 -0.034019012235742635
0.32611513187868596 0.13199265711721167 -0.15986952649228764 0.07944864510442934 0.30628103127405804 0.05626802063019192 0.1814373057533201 0.25260293247326876
-0.17325137275217548 0.164313054961895 0.03228020229570596 0.21829513423290087 -0.0756126866985852 -0.13657067163583317 0.02999970550035725 -0.20576537228678657
0.2900860955714686 0.3816880620747988 -0.02488243062888786 -0.06401628139372474 -0.3089435670623514 -0.006018887185228982 -0.1398259219845211 0.05537653754363106
0.09057946915005038 0.13392145831441324 0.2862063166040668 0.018553179107089732 -0.2302448861610012 -0.017771529563973924 0.10743278745524887 0.3580447997753778
0.05672102337870196 -0.019168452025026192 -0.0035555765534381898 -0.00832006614169723 0.1349787767835901 -0.2026243949007108 -0.025999014262042836 -0.04533919085219957
0.004892135666056614 -0.12663766116730957 -0.2609414077796608 -0.06223221806511869 0.00863483128885383 0.05150578294224255 0.12041803065324 0.14823382492293016
-0.07600085597701117 0.09626743279760536 -0.14447951041621193 -0.03424669043346931 -0.3220285070441585 -0.22255662109956922 0.08413419077007465 0.2379869885511425
0.08672646166690876 0.013399705138480525 -0.039657771046016595 -0.06252112983903664 -0.014634698774779912 0.15896385676740066 0.15494806471777667 -0.024246059380752426
-0.22573896245974318 -0.2644470943090534 -0.025443805194069746 -0.0591012047617974 0.09679461813929176 0.04927086103692355 0.012541701558298639 0.05558036839044984
-0.12560002076944743 -0.00208379856327207 -0.05146962351386252 -0.10838318843592142 0.0424949284577061 0.27037463613392354 -0.23821196461073293 -0.11405084634741676
0.15649354294510467 0.19616113386121292 0.29582614566397525 0.15417490207197704 -0.06698424609770857 -0.30392946542883265 -0.14483165478496174 -0.024417018394332347
-0.34801790050728615 0.06955858281563929 -0.06053272872164776 -0.045447175550250095 -0.03113401889940776 -0.32052890310934906 -0.06769756003137578 -0.19023600385681597
0.20459903554885736 0.2736919723064123 0.13746874198459877 -0.28260977873158155 -0.019682470343740963 -0.2607423618536455 -0.31299219175298787 -0.011726488442107812
-0.03530050952131907 0.15305814872761905 0.09039757215758837 0.05294395224170792 0.15615454345866575 0.08855029596000474 0.17130673676362745 -0.07305887304448416
-0.08686572443626642 -0.24920705722578898 0.21136723177423608 0.2570754459722799 -0.008919750449687564 -0.12643056919612083 -0.08466252787767771 -0.0208060956917843
0.016911904321871153 -0.04947434495981565 0.11405479801145399 -0.06291703401824124 0.03836389293737944 -0.13067729862211241 0.1847094209956613 0.07333453039423098
00000000: da26 95df d575 a5bf 901f e8bf 1ef7 d1bf
00000010: 4632 a9e4 946f d5bf 7b73 43e0 a1df c4bf
00000020: e5f9 e2a0 eff8 8c3f 9ce1 c00d 2377 b33f
00000030: c0bf 2275 4872 b63f f30b e0cd 4525 cdbf
00000040: 3001 07ae 49f9 b4bf 46d0 d68a 186b c03f
00000050: 74d2 ef40 b936 b6bf 3b11 0d7e 4669 cb3f
00000060: 96ae ba6f 7132 d5bf ecf4 c277 ea77 cebf
00000070: b6aa e30e 95f6 a93f bf97 7c04 cfa2 ba3f
00000080: 163b e23c b554 c53f 7252 31ed fbee c63f
00000090: 1210 19c0 587c 873f 648c 1188 9375 be3f
000000a0: 39ba bb6d 6129 d2bf 9468 25b2 00c9 b8bf
000000b0: 9424 c984 9f9a 98bf c9ff 7185 897c b6bf
000000c0: 2703 8a67 f7e9 b13f ce70 8d3a 365a c93f
000000d0: 067e 3740 52aa d23f 71e8 214a 8aa2 d53f
000000e0: f4f1 3a60 55c3 84bf 8114 a65e 90a9 9b3f
000000f0: b01a e16a 618e b0bf daeb acd8 9dff af3f
00000100: 30e5 1fdb 4734 9b3f fd87 0814 33e7 b73f
00000110: 186b 969a 27c9 b8bf 6a26 4236 98e8 b5bf
00000120: 8c76 ad36 05e5 c9bf a0ab 6c79 21f7 a6bf
00000130: 37fb 15a3 55db 813f f8d2 de9b 04ef 8ebf
00000140: db93 f9a9 90d6 b23f 3588 9cc3 80a0 bb3f
00000150: b4db b8c6 4b6f 35bf 2771 0942 0f7c a73f
00000160: 16f1 81af 07e9 c13f 5d40 c22c 12bc d2bf
00000170: 1919 57fd 35bf b83f fd09 2f6c 2bee cfbf
00000180: e576 0ac7 1cba a33f 13fe 9e9d 1078 b33f
00000190: dea3 772e 207a 9e3f 0146 e2a2 9f60 d4bf
000001a0: 2395 c34c 03c1 653f 8543 3358 74e1 c0bf
000001b0: facc 99e2 3bb3 d7bf 4204 4b0d df01 bfbf
000001c0: 1c72 baf2 ff86 b13f e0d7 10a5 7a7e c3bf
000001d0: 7100 6aec e6bb d5bf 4a23 e9fd 36b2 ca3f
000001e0: 851f 01a8 e85f bcbf e6db 6aa0 cc99 d1bf
000001f0: 1c5d 6ffe 1938 d13f 7802 4c89 e10e 913f
00000200: d4ad a7ac 8213 b73f a076 5de6 8bee ce3f
00000210: c117 09f4 6c68 b2bf 8a90 30a0 66ec be3f
00000220: 9c9a 4d3a 8a7c b23f a5a4 2097 496e c53f
00000230: 97ef eca5 2cae c3bf 40d8 c1d8 e9dc d13f
00000240: 0ef9 e70f 147c 6ebf 30c5 2074 8578 a53f
00000250: 2038 f469 00e8 c33f 1ac9 1542 540a 863f
00000260: f9a4 537d 515c 88bf d287 f7c7 c450 b9bf
00000270: c695 e04f 56be b0bf 41f2 bda4 292f a03f
00000280: f264 1b67 8fdf 8b3f d9ff 4730 757c bb3f
00000290: c772 ae7f c312 b03f 1772 4b7d 9aa3 c3bf
000002a0: d22a e5e3 9148 cebf b562 5af2 5d7b 5e3f
000002b0: b6dc d839 9f01 9f3f 3706 17a9 f518 b13f
000002c0: 7ec0 9f9b 84b2 c13f c201 bae2 c6dc b93f
000002d0: 0dfb b94d 961e b1bf 93b1 fe81 4855 a13f
000002e0: 6b39 c4c5 2f5b 7ebf 4d2a 9497 f3d1 ccbf
000002f0: 5369 7a35 b12a d13f bf3f 4a64 ae35 cdbf
00000300: 08ea 2592 c544 d23f 2cdb 9dcc 76d5 c43f
00000310: c5d4 2c49 42b1 a93f c1c3 5d71 3a07 b93f
00000320: ff10 2358 c7bb c2bf e263 cfea 180b b3bf
00000330: 6dff 372b ef54 a5bf 2838 d5cc 34a6 8abf
00000340: 5a62 2b7b b095 cb3f c3f4 7a9d cbb2 a73f
00000350: 5afc 7258 3eda bb3f 11a0 cfd0 7a74 d2bf
00000360: 20be 1780 dcc7 d4bf 062c af76 f9a6 dabf
00000370: 44c1 055e b01a a43f 9105 10c5 d925 813f
00000380: d28f 93a8 fcf3 b93f cf63 4666 5e46 863f
00000390: 6ddc 0691 39ac 89bf d49d a624 3b0a 80bf
000003a0: 7fbe 1d3f ff1f b3bf 813c f519 e17d cebf
000003b0: afdf 22e5 91d4 a93f cc8a c820 3b8f b7bf
000003c0: 555c 469c a87a b8bf 5ce5 9aa7 6384 d0bf
000003d0: b303 cfb8 6147 d5bf c0a0 091b e173 c7bf
000003e0: 0c0e 2673 afbc b7bf 9852 3620 ab53 c03f
000003f0: e8da a7ea c562 cf3f 5c4e fda1 f06a a1bf
00000400: 6994 8900 12df d43f 61b6 d0a8 22e5 c03f
00000410: 22a8 f4c9 9a76 c4bf 6c5e 6f14 bf56 b43f
00000420: 4c43 2dc1 1b9a d33f f7ab d578 29cf ac3f
00000430: f90f 3e6f 5639 c73f 2f2b 767d a52a d03f
00000440: e395 fad9 192d c6bf 1100 afce 3508 c53f
00000450: 332e 56da 0787 a03f a6ff 334f 18f1 cb3f
00000460: 667a 8860 5a5b b3bf 6563 22d4 257b c1bf
00000470: 62fe 0d28 3eb8 9e3f 5b7d 4f0c 8556 cabf
00000480: 103e 6045 c590 d23f daa1 f8c3 936d d83f
00000490: e52a 2fa7 c77a 99bf 7961 fffa 5e63 b0bf
000004a0: 96e9 353d bbc5 d3bf 4ce6 e6b9 42a7 78bf
000004b0: 8a3d 07d9 d0e5 c1bf a464 6e43 505a ac3f
000004c0: 0442 b051 3730 b73f 47b5 d89d 5624 c13f
000004d0: 1647 6e4c 3451 d23f d9d2 01c6 9aff 923f
000004e0: bafd 1018 aa78 cdbf 2ed1 1b29 b332 92bf
000004f0: 086f a314 b780 bb3f 7d70 62bc 34ea d63f
00000500: 6b79 d0b8 890a ad3f 4cee 3f0a e5a0 93bf
00000510: 027f 7ea0 9520 6dbf c34a d55f 1c0a 81bf
00000520: ee44 f80b fc46 c13f 2b34 bc9e 98ef c9bf
00000530: 1552 ef4f 7c9f 9abf b9e5 dfcb b236 a7bf
00000540: 7bca 17ab c609 743f 34e8 93b2 a935 c0bf
00000550: 747e 2597 43b3 d0bf 7fc7 b1ba e6dc afbf
00000560: 9bd4 ef6f 23af 813f a667 954a f75e aa3f
00000570: ca1f 814f b7d3 be3f 9d3c 1a73 53f9 c23f
00000580: 24a7 e3c6 ca74 b3bf 9c1c 8983 fba4 b83f
00000590: 1e01 17fa 4d7e c2bf a4e3 d03e c888 a1bf
000005a0: 7599 8874 1d9c d4bf c5c1 9040 bc7c ccbf
000005b0: a738 d57d d189 b53f ffaf 598e 5b76 ce3f
000005c0: bea2 8e94 b433 b63f b53b c4fa 4d71 8b3f
000005d0: 198c 59fb 054e a4bf bdb6 f77f 6201 b0bf
000005e0: 22f5 fe04 ccf8 8dbf 14f0 077b ed58 c43f
000005f0: b44a 4593 56d5 c33f e389 6380 f5d3 98bf
00000600: ee49 99aa 03e5 ccbf 5d18 6581 b3ec d0bf
00000610: 00fd c6dc f00d 9abf 4555 365b 8342 aebf
00000620: fd49 5637 88c7 b83f 0c44 99c1 073a a93f
00000630: dc90 3bb0 76af 893f 19bf 12b1 0775 ac3f
00000640: 1075 ca56 a913 c0bf 8a56 c8d5 0a12 61bf
00000650: 5f7d 75fb 395a aabf 9fbb c429 00bf bbbf
00000660: a383 f12f e5c1 a53f 0e3d f76a d14d d13f
00000670: d56e c2ca ba7d cebf bdad 24af 6f32 bdbf
00000680: b100 7efc fa07 c43f 6410 57db ce1b c93f
00000690: a46c 3bc9 d0ee d23f b4ae 21d1 00bc c33f
000006a0: 5f3d 562a e125 b1bf b3af 9392 9473 d3bf
000006b0: 700d 5dfa d789 c2bf 6dc1 e05d c600 99bf
000006c0: f17c 46df ec45 d6bf 4e6a 595e 97ce b13f
000006d0: 86ec 6454 25fe aebf 7b27 5e29 da44 a7bf
000006e0: b12f dda3 98e1 9fbf 09c1 11a9 8b83 d4bf
000006f0: bc8f 5a96 a054 b1bf c51a 8b43 a759 c8bf
00000700: a7dc 3c1b 4d30 ca3f 3af6 8e55 2b84 d13f
00000710: 0fe7 8563 9398 c13f e4a4 4b53 4716 d2bf
00000720: a932 b939 a427 94bf 14f7 35bb 00b0 d0bf
00000730: 5ce0 de66 1008 d4bf 96a0 d8a2 0e04 88bf
00000740: 2737 da8b e812 a2bf 59f1 95cf 6897 c33f
00000750: 08fd 0d98 4b24 b73f a459 cc3e 781b ab3f
00000760: 886d a340 dffc c33f 0808 3371 3bab b63f
00000770: 42fc fd0f 61ed c53f f49e 687e fcb3 b2bf
00000780: 5adc 9805 d53c b6bf 09cc 5b50 04e6 cfbf
00000790: 774c f5d9 140e cb3f 3f8e 4392 ec73 d03f
000007a0: 5d55 c2a3 8444 82bf 8cbc f47b e02e c0bf
000007b0: 996a 6e84 71ac b5bf aaf2 3672 314e 95bf
000007c0: 1aee e6af 5a51 913f 24d6 2f8b b354 a9bf
000007d0: 963c 69fb b132 bd3f 013c 78ab 541b b0bf
000007e0: f5cd 06a3 6ea4 a33f 44af f4a1 08ba c0bf
000007f0: 4240 38ed 8ea4 c73f 0ff3 b541 0dc6 b23f

readout.0.bias f8 [64]
0.2637112872915642 -0.07902232175896597 0.051393161699018475 0.16017891395616018 -0.2143257736195487 -0.06463653107511573 0.00701921081078457 0.10226900145191005
-0.11363356858880293 -0.014007023561219693 -0.31914820219080003 0.17416237307382332 0.0904031971720804 0.24737900504805505 -0.05544001466717862 -0.12017931243906174
0.038148257271842116 0.19113809300472273 0.3230385600195346 0.10244401294810367 0.044852448378573655 0.20519940213720825 -0.09361977447288862 -0.12204380967432164
-0.16059941066533348 -0.005288183045655663 -0.19821227228855887 -0.013435340645274371 -0.06923897314138339 0.07760199452300802 -0.13981519164234524 -0.30758111711111824
-0.12025596413257011 0.14382447739011595 -0.04408466911355405 0.09402466521160895 0.034631152271336424 -0.2152734050116376 0.05901089718703817 -0.12116295555364966
0.025038574199370205 -0.008740401768487975 -0.044708136869475425 -0.07304112735477966 0.0017167896171397812 -0.13527840274931932 0.3369509455953665 -0.018178500504235185
0.006020879722711294 0.37276880810210644 0.010509519513794157 -0.01570010050538732 -0.03061525425025916 -0.2488121153711892 -0.14012931037526227 0.017233855353467272
-0.012795317702808432 0.17089996746124717 -0.18418800743320163 0.09176099534124767 -0.28684963047426687 -0.19845217466259316 0.0839987121669883 0.21889732405598272
00000000: 8936 a04e a5e0 d03f e9d6 9b8f ce3a b4bf
00000010: 687c 7859 3450 aa3f 2eaa 791e be80 c43f
00000020: e663 31e6 066f cbbf cb31 180b 058c b0bf
00000030: 594c 040e 2dc0 7c3f 6d6a a120 4d2e ba3f
00000040: 0912 d1ec 1617 bdbf 62bf e0e0 b6af 8cbf
00000050: cb25 bf94 ec6c d4bf 80dd 45e0 f34a c63f
00000060: 2cd4 4ef7 a924 b73f 46ff 3280 1daa cf3f
00000070: 0f45 c533 a262 acbf 8edf 9448 12c4 bebf
00000080: bf8f c31a 2b88 a33f c4cf 3c89 3677 c83f
00000090: 975f a8ec a9ac d43f 9f79 4855 c539 ba3f
000000a0: d7ed dc6d e6f6 a63f 9d45 ab58 f943 ca3f
000000b0: 31b5 9e2d 77f7 b7bf 6bff 3a5b 433e bfbf
000000c0: e940 4880 858e c4bf d219 c8d3 0fa9 75bf
000000d0: 2896 920d 055f c9bf abe2 74e5 fc83 8bbf
000000e0: a038 4035 a5b9 b1bf 23a8 946c b9dd b33f
000000f0: 843e cbd5 76e5 c1bf 6400 b7b5 68af d3bf
00000100: a82c 1949 18c9 bebf 949e 6029 d768 c23f
00000110: 3405 3208 4492 a6bf dbe8 191e 0012 b83f
00000120: 343b dba4 2cbb a13f 289d 1c35 148e cbbf
00000130: f848 0d23 ad36 ae3f c9f1 9613 8904 bfbf
00000140: 0b8f 4c45 b6a3 993f 6f17 ffdd 7ce6 81bf
00000150: d560 7023 fce3 a6bf aa72 40c5 d2b2 b2bf
00000160: 0561 9fd0 bc20 5c3f b3eb d47d cd50 c1bf
00000170: 530e ecb2 9a90 d53f fdc0 9f84 629d 92bf
00000180: 29fd 0898 59a9 783f da1d f1b3 71db d73f
00000190: 290b ded4 0386 853f 6bb3 dbe8 af13 90bf
000001a0: 09ea 0def 9a59 9fbf 4415 2f4d 13d9 cfbf
000001b0: 9eea a2da c1ef c1bf 0f30 8274 c0a5 913f
000001c0: 959b 9a78 6e34 8abf 3517 91d5 0ce0 c53f
000001d0: 48d9 1efe 7893 c7bf 4d00 0a0a a67d b73f
000001e0: 236d 708d be5b d2bf 397a ff7f e166 c9bf
000001f0: 21d0 a989 f080 b53f 544d 00d8 d304 cc3f

readout.2.weight f8 [2, 64]
-0.02267416993006617 0.19939026975381705 -0.1749446844718376 0.31787531740373043 -0.007472149423666202 0.13784348812210018 0.007376532115585752 0.19666758509156565
-0.21288327802664456 0.24789527620298407 0.006599106177991368 -0.2516759190808997 -0.15454971785164734 0.3269101731170285 -0.057680528772175735 0.2180827487455059
0.3232712209451537 0.046126372871817665 0.14236941253749166 -0.056857827526377566 0.16732661434544346 -0.0155207000038821 -0.22181769879781524 -0.028824803486549158
0.17234125625130975 -0.30887735462063726 -0.13562292063293782 -0.36268263185631966 0.030567977533870878 -0.06308683710956207 0.2571909435942948 0.2351155033484543
-0.003933414839389645 0.007171641779624032 0.008035701267410704 -0.2311423145764009 0.020410715266660155 -0.03485048416331357 0.20767422117368922 0.21979319733067817
-0.10174956276456976 -0.2581848895071591 -0.0024459125762015207 -0.05164141446490514 -0.2757290331388102 0.35768330898139733 0.1277467209802255 -0.2866655706664354
-0.2578849691794211 0.1391976215115603 0.09978419308894275 -0.23407394384393218 -0.35521997275765405 0.017160985124213376 0.08280561573444332 0.17063137776922294
0.3444943365894631 -0.09032651521878206 0.07262720736964128 -0.2342539488360055 0.20972455527487374 -0.002269572058018364 0.31559051581245123 -0.0341516398867017
0.1831857117320724 -0.09962464198181344 -0.2780882486034738 -0.018275528304604872 -0.13653184233891588 -0.25485596916471687 -0.3011966719332501 -0.04332353441253634
-0.13005195717541718 -0.1694334370974111 0.19437842197634658 -0.2532218726508084 0.012654850434565032 -0.10416061076395045 0.27463020168787394 -0.12461059157509125
0.11417229405422988 0.1424924310691646 0.025400450186903154 0.16125474666301456 -0.27309538193268307 -0.07241585941777487 -0.022273692644701873 -0.35467164857447786
0.06129424943120791 0.012288498010405368 -0.009609005311615813 0.01215751111067364 -0.29294185462289213 -0.27498249879380215 0.19374992860210363 0.27775078642076106
-0.31650019298548476 0.24587401946257126 0.2677161574258864 0.2084982278970289 0.27057456680225017 -0.18306589728755598 0.027034327113305282 -0.2110488627863121
-0.2921046521566893 0.004074132912693644 0.2101181636323205 0.26146947081812133 -0.030082752994074004 0.03553966225158916 -0.023462974575423567 -0.19527796260654237
0.0646863887391189 -0.020539188118628482 0.28441843962354674 -0.3154926153935891 0.20992752434112022 -0.24593053589582098 -0.2459547016714164 -0.23421874465193618
-0.0765932005637776 -0.22809179528550222 -0.2331052412637879 0.11618994753056835 0.24237733716490442 -0.1780742815232891 0.027986492461946663 -0.22353591622301933
00000000: 541b 41c9 e537 97bf 89db ddcf 9e85 c93f
00000010: c731 3561 9664 c6bf da18 1db7 1158 d43f
00000020: c6cf 7cd6 1d9b 7ebf deb9 b9fc daa4 c13f
00000030: 7dfe 1bc3 da36 7e3f b366 1347 672c c93f
00000040: f1ae 7e5e c23f cbbf 4af6 0f4c 08bb cf3f
00000050: 4314 7a13 aa07 7b3f 4c2a 6950 751b d0bf
00000060: 72b1 e3ff 48c8 c3bf 081c 91a5 18ec d43f
00000070: fa8c 6261 4d88 adbf 8f84 d7b0 22ea cb3f
00000080: 9ea2 6cc6 79b0 d43f d363 ef3d e09d a73f
00000090: 1f4e 6631 2939 c23f 3eab 7e1b 781c adbf
000000a0: 4f9a 2e60 f56a c53f 57ee 6b17 51c9 8fbf
000000b0: 2d5b 01b9 8564 ccbf a446 27d1 3f84 9dbf
000000c0: 4eeb ac3d 470f c63f 3a85 2486 a5c4 d3bf
000000d0: a96d 5a84 175c c1bf 409b a936 3136 d7bf
000000e0: a558 403f 364d 9f3f ef92 317e 7526 b0bf
000000f0: f126 e400 d175 d03f 2b04 d5ca 4318 ce3f
00000100: c968 8c01 7c1c 70bf 790d 6fee 0260 7d3f
00000110: bcd1 2691 0575 803f c8e7 e944 1296 cdbf
00000120: feab 3bea 8be6 943f 8c5f 7633 ecd7 a1bf
00000130: e6e5 14a2 1195 ca3f a192 35f9 2e22 cc3f
00000140: b4c4 7464 420c babf ba4b 30ea 1986 d0bf
00000150: f5d3 c150 7309 64bf 04ed 7d54 be70 aabf
00000160: 93e3 f862 8ba5 d1bf 4c9c 9988 48e4 d63f
00000170: d201 642a 015a c03f 74b2 b98c ba58 d2bf
00000180: 735b 30f5 2f81 d0bf 925c 0948 3ad1 c13f
00000190: c389 f9f5 748b b93f 1be5 d38e 22f6 cdbf
000001a0: 2254 788d ecbb d6bf 7fa7 8037 a692 913f
000001b0: f72b 81b3 bf32 b53f 9659 98bd 3fd7 c53f
000001c0: 01c6 53f9 310c d63f 6589 d374 a31f b7bf
000001d0: c3d1 7358 b297 b23f edd0 9a8c 08fc cdbf
000001e0: e36f 0915 41d8 ca3f fdbb 7b38 a397 62bf
000001f0: 68e7 1590 a232 d43f 2518 d6e0 527c a1bf
00000200: 03eb 7d20 a172 c73f 6106 3023 0081 b9bf
00000210: 7ad8 49a7 32cc d1bf 5da6 8af1 d1b6 92bf
00000220: a7a8 da1a e079 c1bf 962e 3069 8f4f d0bf
00000230: ab82 e767 ce46 d3bf f1df e596 802e a6bf
00000240: e4b2 6ce3 8aa5 c0bf 1854 97af feaf c5bf
00000250: 1cdf b762 64e1 c83f c0b1 6a83 c934 d0bf
00000260: 3890 0446 c9ea 893f a836 c310 45aa babf
00000270: 4592 af8d 8a93 d13f e0db 8ccf 7ae6 bfbf
00000280: 867c 123d 653a bd3f ee4e af25 313d c23f
00000290: f9fa 6c5b 9302 9a3f 6107 9fdb fea3 c43f
000002a0: 6bba 850d 657a d1bf 523c e983 d889 b2bf
000002b0: 146f e135 eace 96bf c887 dcb6 f0b2 d6bf
000002c0: c6d4 7ab9 f561 af3f 59be 9248 b62a 893f
000002d0: 0cdd 7bdc e2ad 83bf 3c03 f884 09e6 883f
000002e0: bc08 4f31 8fbf d2bf ddab d231 5099 d1bf
000002f0: 3164 7933 cccc c83f 8763 073c abc6 d13f
00000300: dd38 8306 8a41 d4bf 508f 43c4 cc78 cf3f
00000310: 6c51 30f3 4222 d13f a1bc 0be7 11b0 ca3f
00000320: cde1 e2fc 1751 d13f 1575 ee0c b46e c7bf
00000330: 71b7 48fb e2ae 9b3f d139 c32d a603 cbbf
00000340: 996f 01b6 d7b1 d2bf f8c8 e9b9 09b0 703f
00000350: 9c56 8ce8 26e5 ca3f 903d 8472 eabb d03f
00000360: 97fd 2161 03ce 9ebf 47b5 292e 4132 a23f
00000370: 4090 df91 ad06 98bf 6f26 8347 defe c8bf
00000380: ef7f 2184 498f b03f f00a 0695 3908 95bf
00000390: bcff 2366 e933 d23f 9cad 4ff0 0731 d4bf
000003a0: 3ea5 c9b5 e7de ca3f ae51 61dc a67a cfbf
000003b0: 23f3 fc93 717b cfbf 69f3 313c e1fa cdbf
000003c0: e773 84ab 9c9b b3bf 3a5b 9ea8 1c32 cdbf
000003d0: 4688 e07d 64d6 cdbf 128b c4d8 9fbe bd3f
000003e0: 2519 3578 3806 cf3f 4d5b b357 23cb c6bf
000003f0: 8c4d 6ab7 7da8 9c3f c262 d42c d39c ccbf

readout.2.bias f8 [2]
0.024192736300426045 -0.03795989489447313
00000000: da25 d80c fbc5 983f 8c41 43b6 7a6f a3bf
