experiments/flockingGNN-050-20221018101228/savedModels/DAGNN1LyG06Architbest.ckpt (torch, 9247 bytes, 4 tensors)

readout.0.weight f8 [64, 12]
000000 6b 6f 03 85 8a 9c c7 3f 1d e0 8c 33 93 b6 c6 3f
       0.18446475500865786 0.17744674698929055
000010 44 d3 d9 bd 82 1e ce 3f 8b 0f ef 2e 47 89 82 bf
       0.23530611295759674 -0.009050899619871952
000020 c2 e7 29 56 e9 7b b5 bf ca 77 93 05 eb f5 c9 3f
       -0.08392198899846817 0.20281732342021846
000030 f4 a0 29 a8 98 1d 94 bf 7d 45 73 15 ac b1 ab 3f
       -0.0196441509855569 0.05408990632862307
000040 59 cb 57 e6 f5 60 d1 3f 9e c9 53 a3 4c bb d1 bf
       0.27154300207546594 -0.2770568461411588
000050 12 c4 a7 1e fa 88 cb bf 17 39 c5 6d ee fc c9 3f
       -0.2151177072223907 0.20303135261423996
000060 46 28 64 fd ec 12 cc 3f ac d9 03 11 94 2e 92 bf
       0.21932756779307477 -0.017755807436481127
000070 f5 18 ed b3 66 ad c0 3f b2 71 3e 6c d6 05 b2 3f
       0.13029178414780743 0.07040157454179655
000080 9f 49 14 e0 09 b0 a4 bf f5 a4 f6 5f ac fb 9d 3f
       -0.0404055677446593 0.02928037009920544
000090 21 c8 b5 ff 76 06 a6 bf 86 09 bc fc 9c c1 a7 bf
       -0.043018072809801085 -0.04639902672899425
0000a0 ce f5 35 fd e6 77 c7 bf 9f 6a 75 b4 c3 7e 73 bf
       -0.18334662784393035 -0.004759563896494483
0000b0 1f 69 9a 10 0f 0f cb bf 2e 15 40 c7 24 9f cc 3f
       -0.21139705954267016 0.22360667923946081
0000c0 d6 74 cf 70 25 23 a5 bf a6 8b 3d 16 68 3d c6 bf
       -0.04128376962737838 -0.17374898038823722
0000d0 36 7e 0e fb 91 9a c7 3f 34 a8 e1 3b fb e2 8a 3f
       0.1844046092855806 0.013128245129525686
0000e0 42 d0 58 64 97 5c c9 3f 37 65 bd d9 72 52 b2 bf
       0.19813816451790173 -0.07157056632913315
0000f0 7c ee 5d 0d 86 4d 93 bf 58 72 c6 96 1c 49 b0 bf
       -0.01885041672311026 -0.06361559563669894
000100 a6 05 22 f4 f9 c6 7b 3f 56 c3 19 bc 35 76 c6 bf
       0.006781555539534001 -0.17548247990228089
000110 af fc 3a a0 7e a7 88 bf b4 37 4b 69 7d 5e cb 3f
       -0.012038220658153824 0.21382110253619901
000120 bb b6 60 2e 29 a4 cb 3f 87 eb 10 1e da bb c4 3f
       0.21594729198971216 0.16198278873511304
000130 ce 38 57 b8 e4 53 b7 3f d0 56 68 38 2f 0b d6 3f
       0.09112386227136257 0.3444326449256154
000140 0b 92 58 65 7f 3d b2 bf 75 47 49 46 c7 72 cd 3f
       -0.07125087951914837 0.23006525928445468
000150 e7 29 5d 8d 3a 18 a5 bf 36 b0 2d e7 58 06 cb bf
       -0.0412004754603748 -0.21113120353709441
000160 80 c4 16 90 1c e7 ab bf 6b 10 c9 75 0a 04 c9 3f
       -0.054497616375905444 0.19543581725349965
000170 ef bb 26 26 82 7e c4 3f 90 07 dd 5a ec d3 c9 3f
       0.16011072981697747 0.20177988468827524
000180 b2 aa 9c 52 d5 4f d0 bf 95 1e ad aa db dc a6 bf
       -0.25487263743950017 -0.04465376337480823
000190 71 7c c7 8e c0 04 b1 3f 2b c7 c1 51 1f 41 c6 3f
       0.06647876249142982 0.17386237613714547
0001a0 60 5d 95 d9 ee bf bb 3f 09 cc 40 6e 5c 17 82 3f
       0.10839741527649016 0.008833620180757522
0001b0 a7 fe 38 1e 34 d9 ad bf db 77 5d 68 d1 d5 c7 bf
       -0.05829775685242327 -0.18621270748093263
0001c0 5e a6 83 40 28 18 b2 bf 1d f1 65 15 af 8a af bf
       -0.07068111014418707 -0.06160494934280989
0001d0 df 43 4f 5d 8b ef c8 3f 0b 67 1f a0 9b ae c1 3f
       0.1948103147138047 0.13814111059655718
0001e0 1b 45 71 47 30 d9 67 3f 51 4b cc f0 29 a1 c8 bf
       0.0029111807776095572 -0.19241832978931453
0001f0 5d 34 d5 5b de f3 c5 3f 32 28 e5 89 fb b7 d6 3f
       0.17150477870964922 0.35497940508196557
000200 95 a8 6d 89 1e 06 d1 bf ea d7 bb c7 3f 62 c1 bf
       -0.26599849148500115 -0.13581082584977305
000210 c4 a0 44 88 e4 75 be bf 85 10 c2 a9 14 4d a8 3f
       -0.11898639990670562 0.04746307918779372
000220 88 16 ad a7 74 06 83 bf 44 84 b9 de b8 49 cd 3f
       -0.009289656989163633 0.22881232142666097
000230 e7 f7 81 82 53 29 98 bf 7b 73 70 25 49 62 b0 3f
       -0.02359514698081702 0.0639997211842011
000240 d5 e0 73 6e 85 22 d0 bf 4d 98 df 4a 9b 5c bb bf
       -0.25210700785056633 -0.10688181474651622
000250 c9 05 62 01 1a e1 97 bf e4 ed de 86 36 69 b7 bf
       -0.023319631895452084 -0.0914491729044396
000260 94 75 66 00 8f f7 94 3f 27 3b 0b d0 8c 07 c2 bf
       0.02047561111395664 -0.14085540922538906
000270 c5 d4 52 2d 73 c1 70 bf 57 87 52 4e 6c 73 bb bf
       -0.004090738210995319 -0.10722996627967284
000280 c6 13 9a b0 b1 bd c7 3f 68 13 d9 a2 06 f2 c0 3f
       0.18547650454652692 0.13238604499397444
000290 d8 39 c1 bd 0e 82 b9 bf a6 16 27 2c b7 3c 92 3f
       -0.09964077122388149 0.017809736318460744
0002a0 06 0f 3e ec 6e c6 d6 3f c1 e8 63 12 15 75 d1 3f
       0.35586140699909696 0.272771137198685
0002b0 e2 05 39 54 b5 e4 b3 bf c0 c8 45 c7 df 2f cd bf
       -0.07770856195659051 -0.22802350263697768
0002c0 ad e6 86 b3 0b ab be bf 8c 5b 58 7d 57 d2 c1 3f
       -0.11979745038015706 0.13923162098282338
0002d0 75 af 8f 5a 98 bf a1 bf a3 0f ed 15 0e 3d d6 bf
       -0.03466487985119119 -0.3474765028115547
0002e0 de 96 0a 76 a5 10 c2 3f 04 23 25 67 07 21 6b 3f
       0.14113300575006965 0.0033116478527158728
0002f0 54 9b 76 70 ec e8 b8 3f 97 d8 de a1 38 6f cb 3f
       0.09730413194357129 0.2143317022689117
000300 90 25 ee a5 f0 22 d3 bf 16 bb 84 e8 fd b9 d1 bf
       -0.29900757030608194 -0.27697704035647186
000310 b4 d4 07 fe af a1 b1 3f 1f 99 9e 33 00 3f c8 3f
       0.06887340499800382 0.18942263145908897
000320 55 b9 dc 64 55 59 b9 3f 05 8b 6f ad 30 1b b3 3f
       0.09901937210518004 0.07463363870878588
000330 c0 3c e4 71 a9 15 9a bf 04 e3 64 6a 57 9d c1 3f
       -0.025473258568180723 0.13761418051742436
000340 50 cf f6 7b 85 fe a4 3f c5 bd 6c 91 28 86 b0 3f
       0.04100434435113576 0.06454709577950897
000350 58 8b a5 5c d5 68 c6 3f af 09 0a 98 69 be d4 bf
       0.1750742628456361 -0.3241218552358544
000360 c5 dd 71 60 26 2c b6 bf 13 d6 ea de 9e 3f cc bf
       -0.08661117415055404 -0.22069154629359441
000370 d0 19 75 09 8b 97 d2 3f af de 8f 23 07 43 c5 3f
       0.2904994575841586 0.16610802875924466
000380 78 9d ec 32 3a d4 a0 3f 15 ed a8 bd be 35 c2 3f
       0.03286916610368967 0.14226516972289774
000390 1b 0d 04 d2 83 45 ca bf 92 c0 f1 05 b5 32 ca bf
       -0.20524642710379556 -0.20467245855570987
0003a0 54 e9 68 c5 ab ed bc 3f 08 cb 48 f1 05 71 d4 bf
       0.11300157136512229 -0.3193983894627057
0003b0 bf bd 94 00 60 e2 d3 3f f6 fe 5f 77 db 86 c0 bf
       0.31069183403721107 -0.1291155178914704
0003c0 b9 78 73 99 fd ed c8 bf 69 b8 b4 67 63 2f b4 bf
       -0.19476289742209987 -0.07884808809169076
0003d0 b3 3e a9 83 fd 29 a9 3f 54 70 8e 8f 2e f9 c6 bf
       0.049148485490716175 -0.17947942742910306
0003e0 1e 4b 0e 8d 80 71 9e 3f 1e 7f a2 8a 4c 9e bd bf
       0.029729851350178575 -0.1156967009032965
0003f0 b7 0e 38 ee 02 09 d3 bf b3 83 bd a3 bb 83 c7 bf
       -0.2974250151021169 -0.1837076711190356
000400 b7 ff c5 24 b5 10 79 bf a0 e6 0e 6d 84 dd b4 bf
       -0.0061194492267304034 -0.08150508558801528
000410 93 46 60 d9 50 6f d2 3f 5f 61 15 35 7f 4c bf bf
       0.2880441782773257 -0.12226100011810591
000420 94 50 8f e0 96 a0 d1 bf 0c a3 a8 8f b7 13 d0 bf
       -0.275426596924498 -0.25120343236135123
000430 4a b6 90 e4 d7 ef a2 bf c1 8c cf 3b 0a a4 ce bf
       -0.03698610940078291 -0.23938110275694238
000440 a1 a2 48 94 45 ff c9 3f 3f 30 16 da ca 2f a7 3f
       0.2031027769128473 0.04528650200072137
000450 d1 c0 6c a0 1a 99 95 3f b9 0a 81 af 81 fa 8a bf
       0.021091857949785024 -0.013173115890940822
000460 ec 50 cc 67 cb a6 cb bf 7c 67 eb fd 0f 51 62 3f
       -0.21602766578929022 0.0022359192219995588
000470 08 59 ca 79 7f bc cd bf 6b 9e 5d 9d 36 06 b9 3f
       -0.23231500098035718 0.09775105802474975
000480 6a 2e 02 59 c1 46 7d bf de 15 35 c3 61 af 91 bf
       -0.007147555603420489 -0.017270591296684283
000490 6d b7 ac 85 66 6e c5 bf 1d 20 1e b1 a6 e3 c1 bf
       -0.1674316551884049 -0.13975986145328614
0004a0 b6 e9 69 85 7c 7e 69 3f 6b 71 ed 9e 0a 1d 7a bf
       0.0031120712331446877 -0.006375352370778446
0004b0 7c 28 19 e3 50 fb cc 3f 82 49 dd 4c bf 25 6b 3f
       0.22641955460341368 0.003313897736839156
0004c0 2a 14 e6 24 2d 70 af bf 1e b5 10 49 3d 1c 61 bf
       -0.06140271258758674 -0.002088660905903552
0004d0 c8 72 bc 84 14 a2 a1 3f 10 a1 bd 6c a0 9d 86 bf
       0.03443969841302913 -0.011042836493019098
0004e0 c5 13 95 b8 b6 c3 c8 3f fb 69 55 70 41 3f b7 bf
       0.19347270977792 -0.09080895416756356
0004f0 1e 08 bc 44 86 70 7d bf ec d8 68 33 01 9c b5 bf
       -0.0071873898375560945 -0.08441169266811571
000500 16 76 41 01 fd 48 b2 bf 57 d3 c4 6b 9f a3 b3 bf
       -0.0714262130799955 -0.07671543484759745
000510 98 3f 2e 4f 13 4e a5 bf 51 f8 f3 84 22 14 c7 bf
       -0.041611293235404634 -0.18030196658941347
000520 8d d2 a5 1e 8d a9 bf bf 5c be f3 9c 87 ea c0 bf
       -0.12368089674220979 -0.13215727962186719
000530 23 35 47 c8 2d 57 c5 3f 70 6b 41 c2 71 f6 b4 bf
       0.16672298697668805 -0.08188544266287834
000540 6f 10 21 51 d8 9b d3 bf 34 b9 51 77 33 7a c2 bf
       -0.3063870231892513 -0.14435427976736437
000550 e3 b7 4f f2 24 f9 b7 3f 3e e2 69 4b ef b4 c2 3f
       0.09364539066129356 0.14614669019990062
000560 c6 e3 05 a2 53 04 c2 3f 9b 75 ab 3e 71 1f ac bf
       0.14075704013137463 -0.05492738618861922
000570 2e 9e 6d a7 0c 96 87 bf de 77 5b 89 0b 51 a7 3f
       -0.011516665324690836 0.04554019977307154
000580 09 1d 53 2e 11 d1 d2 bf e5 22 74 a3 8f 9e cf 3f
       -0.294010443915298 0.2470264003861963
000590 07 fe 1c 10 8a 89 b8 bf dc 26 bf d0 ea fe d4 3f
       -0.09584868329420014 0.32805891404551146
0005a0 9c 0a 2c ee 90 2e ba bf 08 73 47 ca a3 82 6a bf
       -0.1022730428194713 -0.0032361220384998814
0005b0 fb 48 59 e3 6f 23 d6 3f b2 1d 14 dd db 9f c2 3f
       0.34591290666607194 0.1455035047040219
0005c0 f5 d4 33 9c 0b 38 b6 3f 52 30 84 69 18 36 b9 3f
       0.08679268420731374 0.09848167968829216
0005d0 05 45 54 38 54 d4 c3 bf 5d 09 be 2d 3f 1a a1 3f
       -0.15491726637313988 0.033403372129231036
0005e0 6c 9f 74 bb fa bb ce bf b0 12 d6 a5 b8 e2 ce 3f
       -0.24011167672255895 0.24129398438903626
0005f0 38 3d f6 e3 1a 30 cd 3f 10 31 2e 06 b6 ad c8 bf
       0.22803054934454692 -0.1928012399843131
000600 5f 21 a9 d1 53 6a c9 3f 25 bf bf 70 4c 90 c8 3f
       0.1985573552831381 0.19190364365885518
000610 93 92 26 30 38 93 d0 3f ad ab d1 65 92 80 b5 3f
       0.2589855642529894 0.08399310098472652
000620 01 c8 b7 97 c8 9f ca bf 85 2b 37 4f ac af be bf
       -0.2080012074289357 -0.11986805852863654
000630 f9 77 31 6c 23 3b b0 3f 69 15 05 f8 df 77 db 3f
       0.06340237990795562 0.4291915819233823
000640 5e 5a 40 94 22 d4 c1 3f f3 95 bf 98 78 87 a4 bf
       0.13928634871327267 -0.0400960623226573
000650 4e c8 63 bc 2f 82 c2 3f 37 5e 8c 31 58 44 d4 bf
       0.1445979757186841 -0.316671417605423
000660 41 7b 87 01 16 1e 9e bf 75 08 75 aa 3d 34 a6 3f
       -0.029411643832527593 0.04336731630111582
000670 10 88 bf f0 e8 73 d3 bf d7 5e cc 29 d4 a6 9b 3f
       -0.303949580293307 0.027003588725249408
000680 17 a2 ae b1 72 a9 ae 3f 95 f3 8a a0 31 77 7a 3f
       0.05988653582545938 0.006461328369081883
000690 f6 c7 d5 c8 4b 15 a3 3f f2 3a 02 d7 34 24 90 bf
       0.03727185083961608 -0.015763116477098778
0006a0 db ab 36 95 03 c3 d0 bf 53 66 cf db ab b7 d0 bf
       -0.261902709690444 -0.26121040788493594
0006b0 2f 42 5f 57 5b ea cc 3f ee b7 cf 48 d5 b3 a9 3f
       0.22590200201240537 0.05020014299212493
0006c0 15 d0 55 e0 9e 77 c5 3f 3e 37 ce 88 36 bb d7 3f
       0.167713031328845 0.3708015762321003
0006d0 56 35 6d 67 4d 5a d4 3f c3 c2 c4 88 57 b7 9e 3f
       0.31801161861661364 0.029996268961613348
0006e0 d7 ae b9 b4 98 54 b9 bf 84 23 b7 97 00 44 6e bf
       -0.09894709026564939 -0.003694535405632528
0006f0 0e 78 58 56 d7 19 c8 bf 9f fa 4e 03 f3 d0 c1 bf
       -0.18828860965817323 -0.13918912564800665
000700 13 5e 39 b3 80 9e cf 3f ec 1c fe 31 00 91 c6 bf
       0.24702461959053376 -0.1763000721077569
000710 94 99 c1 40 0f 49 d2 3f 70 f8 bc 11 4f aa a2 3f
       0.2857092029938937 0.036455603518775415
000720 5a 25 85 04 6f a8 d4 bf 79 ec 1d 3c f6 53 c2 3f
       -0.32278037492195255 0.14318731246371266
000730 37 a0 9b 12 8f b0 a0 bf c0 48 c6 ec da 75 cb bf
       -0.03259703733584767 -0.2145341545224877
000740 a5 22 16 61 9d 02 c0 3f c2 5f c8 87 cb bb b0 bf
       0.12507979622411827 -0.06536552491195294
000750 72 c7 d0 34 23 75 9e 3f 9c 23 25 86 ce 3d d3 3f
       0.029743719194989145 0.3006473836908812
000760 d9 1c 4e 0f c4 b1 95 bf bd a1 f8 1a 43 de c5 bf
       -0.0211859354344853 -0.17084540192560196
000770 80 ce 9a 05 92 ce b8 3f 0f fb 38 31 0d 25 cb bf
       0.09690201412996124 -0.21206822303243952
000780 97 c4 69 60 07 cf b3 bf c3 1f 41 9f d2 cf 82 bf
       -0.07737775901638809 -0.009185452923830334
000790 27 d6 99 70 32 5d cf bf 43 48 e3 14 8e cf d1 bf
       -0.24503164766399374 -0.278293152235282
0007a0 9f 41 36 7c ae 7f 83 3f 7c 04 d1 63 5d b1 b8 3f
       0.00952087704243426 0.09645637213636066
0007b0 37 f6 d2 73 e6 55 bf 3f b5 7e f0 10 02 95 7f 3f
       0.12240448310600348 0.007710464545226327
0007c0 42 8d bf da ca 92 c6 3f 2a 3b d7 21 43 ab c1 3f
       0.17635474854533056 0.1380390086401005
0007d0 b5 a8 5b 9e 34 7c b3 bf e2 6a 21 1b ad 0d c6 bf
       -0.0761139761558834 -0.17229236435635814
0007e0 c4 ed da 88 10 96 d1 bf be 18 06 4b b3 b9 d4 bf
       -0.274784215591094 -0.32383425070328176
0007f0 43 bf 4b 4c f4 86 c8 3f 66 0f 2f 63 cd 25 d3 3f
       0.19161847806344143 0.29918226896210454

readout.0.bias f8 [64]
000000 45 8e 6c 1e 44 43 72 3f cf 28 6b 94 1d f2 ab bf
       0.00445868119166765 -0.05458157002210983
000010 15 1b d2 fe 5d 82 c3 3f fc 19 9b 09 c7 2d 9e 3f
       0.1524159902803254 0.029471502267165647
000020 84 92 6d 41 2d 17 bf 3f d8 5e 58 37 04 d7 a3 bf
       0.12144739959109968 -0.038749820476537244
000030 e1 59 5e 3f b3 d3 ad 3f 00 5e 16 46 d6 19 c9 bf
       0.05825576923887233 -0.19610098287806466
000040 4b 32 bd be d9 93 c0 bf f4 fd f9 62 0d 0f 31 bf
       -0.12951204121999846 -0.00026029660055112915
000050 a8 f3 f5 e7 f3 57 c6 bf bc cd 50 a4 45 8f c9 bf
       -0.1745591051693769 -0.1996848156282861
000060 6d 5f 66 e6 d8 83 b2 bf 62 a7 ff f3 5f 74 a0 bf
       -0.0723243296146145 -0.03213786939143294
000070 51 57 1e 03 3d 47 c8 bf 42 79 d4 7a e4 8c 76 bf
       -0.18967402126571156 -0.005505459307896312
000080 25 ff 95 f5 ec da cb 3f cb dc a5 a8 58 97 cf bf
       0.2176185797834417 -0.24680622324715382
000090 8a ef b1 75 ca 05 c2 3f bc a0 81 cd 3a 0b d3 bf
       0.14080172297314802 -0.2975604063890491
0000a0 c4 f0 6e 39 be d1 c4 3f 2f 9e 59 c0 ca 98 78 bf
       0.1626508503376326 -0.006005088803795951
0000b0 cb 36 c9 0b 99 aa bb 3f f6 34 f8 d4 d2 df b3 3f
       0.10807186639541581 0.07763402652217963
0000c0 13 54 9f e8 19 9e bc bf a7 dc e9 48 7f 3a ad bf
       -0.11178743294961206 -0.057086923266007
0000d0 ee 55 3b 81 aa f4 ad bf c0 31 49 ed e8 a7 c1 3f
       -0.05850727870499016 0.1379367025969156
0000e0 60 40 89 fd c6 61 c3 3f f8 2d c5 8a 96 d1 c0 3f
       0.1514214265794207 0.1313961198414828
0000f0 bc 16 50 06 9b c7 d0 bf bc 56 23 fb ef 81 9c bf
       -0.26218295685280757 -0.027839421942948958
000100 9e 70 85 68 85 87 9f bf e2 5d 13 7f 95 61 c6 3f
       -0.030790409569235615 0.17485302643647943
000110 1b c2 64 b4 1e c0 9b 3f 9c 21 85 60 79 47 83 3f
       0.027100066910124548 0.009413669832284914
000120 8d fb 10 5d 77 d1 77 3f 65 bb 93 94 e5 47 b4 3f
       0.00581499697096789 0.0792220580803878
000130 b5 96 af d2 c4 46 cb bf 3c 1b 1b b4 99 10 cc 3f
       -0.21309719359776627 0.2192566041396392
000140 8f 14 2a 21 7e 0e 90 bf 2d b4 70 a1 fd 92 5b bf
       -0.01568028523844994 -0.0016829945432264113
000150 e6 39 cb 3d 7f 1b c6 3f 37 db e1 84 f9 c2 bf 3f
       0.17271414296415272 0.12406882757373415
000160 46 35 82 3b b3 df bc 3f cb f2 6b 19 57 1a c9 bf
       0.11278839304778385 -0.19611634007733011
000170 df b1 25 21 cf 7a a7 3f c2 b6 79 6d de 42 a6 bf
       0.04585883407239399 -0.04347891889925172
000180 15 5a 1f 8d 4c 4a c1 3f 49 b1 da a6 4d 49 ad 3f
       0.1350799264025261 0.05719988500399837
000190 88 07 77 40 ea 12 8d bf c7 37 d3 9e 31 5e b9 bf
       -0.014196233837427533 -0.09909353377881223
0001a0 84 08 58 6f ae 69 ca 3f 88 9b c1 1e 9d 6e bc bf
       0.2063501399680413 -0.11106283188710908
0001b0 25 59 87 bc a9 ee b4 3f 31 0a f9 d1 0b da be bf
       0.08176670887710154 -0.12051462055482244
0001c0 e3 5c 50 d4 21 de 9c bf 4e 49 b2 54 66 1d 98 3f
       -0.028191116889584655 0.023549651069126036
0001d0 a1 d6 b8 9b 5c c5 c1 3f 47 fc 05 98 15 fc c1 3f
       0.13883550265898228 0.14050550387398372
0001e0 8b 48 7c c3 de de 92 bf 19 c0 bb 5e da be b9 3f
       -0.01842830722950643 0.10056843579127452
0001f0 02 85 61 6f 2a bd c8 bf dd 7a 9f ea f0 d9 a4 3f
       -0.19327288092157607 0.04072525848436268

readout.2.weight f8 [2, 64]
000000 c9 3c 29 27 e9 8a c6 bf 5f 7d cb ad 26 95 c7 bf
       -0.176114219781516 -0.1842392300231763
000010 89 a2 d5 2e f8 9b 8f 3f 4c 59 af e7 b1 8f c3 bf
       0.015434206895137652 -0.1528227216028405
000020 ff 7d 1b d5 8d 7f c3 3f 72 ca a8 95 7e d2 ac bf
       0.15233014016756383 -0.05629344536682347
000030 63 d3 e1 75 65 58 d1 3f aa 0d 4c ba c5 a3 ca bf
       0.2710202838127797 -0.20812293621575623
000040 82 02 0f 90 2b d9 cc 3f 38 a4 29 06 3f d8 c6 3f
       0.22537750753510372 0.17847430992995483
000050 95 da 87 9d 1b b9 c0 3f d8 10 dc 61 98 d9 c1 3f
       0.13064904395988167 0.13945297983457894
000060 89 a6 2e b6 4c 2e 76 3f db 70 8f b0 73 05 cd bf
       0.005415248541717718 -0.22672887917622728
000070 1d ab e6 57 4d 9b d1 3f f3 dc 15 d6 f0 e9 c6 3f
       0.2751038893135716 0.1790143056239014
000080 29 25 1e 3e 1a 59 cb bf 7e 5f 34 db 72 08 c0 3f
       -0.21365669282048685 0.12525783255909667
000090 39 ad d9 05 f1 a8 be bf 41 34 38 9a ac 02 b4 3f
       -0.11976534264401985 0.07816580548406284
0000a0 bf ad 80 9c 63 0e c8 3f eb b8 1e 3e f4 c4 c6 3f
       0.18793912069064153 0.1778855613060338
0000b0 40 aa 74 82 0b 25 d1 bf d0 e6 3f 7d f8 cd cd 3f
       -0.26788604488197976 0.23284822574333086
0000c0 49 fe 0a dc 94 84 cc 3f 59 62 c0 ad 36 36 9d 3f
       0.22279606575283342 0.028527120928716652
0000d0 23 1e 9e 22 ec 90 a3 bf e7 d5 0f 4e b0 9d ce 3f
       -0.03821504519060805 0.23918727695097106
0000e0 1d 1e 24 15 e1 d4 b9 3f e1 5d 77 16 5f 18 d4 3f
       0.10090452924861677 0.31398751443836487
0000f0 de 90 70 04 04 32 aa 3f 51 94 76 aa 06 89 c6 3f
       0.05116283945270238 0.17605670283697575
000100 98 af b5 73 35 3b b5 3f e3 b3 e4 a0 9f bb ca bf
       0.08293470454162699 -0.2088508163082273
000110 fa ba 66 c2 e6 8f d0 bf b0 0f 65 71 e2 a8 be bf
       -0.25878304466725377 -0.11976447361399667
000120 21 f8 90 b9 55 25 c5 bf 7e 54 20 75 84 6e b5 bf
       -0.1652018695912725 -0.08371761188057467
000130 9d 44 51 84 10 57 c1 bf 90 43 81 f3 13 57 ac bf
       -0.1354694982606234 -0.055351851916049744
000140 b9 a3 82 5a 0e 1d bf 3f b0 09 d2 20 0e 7b c9 bf
       0.12153711042141326 -0.1990678463226465
000150 bc f7 ef 16 f2 d7 d3 3f 68 b8 0a b6 3c 87 b0 3f
       0.31005527725198667 0.06456355518705126
000160 7c f6 f8 2d 8e 8a d2 3f 41 08 7a 26 48 f4 c9 bf
       0.2897067498159698 -0.20276739004845193
000170 70 8e 94 68 9b 9f 90 3f f2 d4 70 b6 b9 6c cb 3f
       0.01623385263259397 0.21425553711166107
000180 7e cb 2e 8c 46 b0 b4 3f 43 c8 15 36 bc d1 d0 3f
       0.0808147518389841 0.26280122071978357
000190 a8 5c 3d b6 f2 f1 75 bf ee 3a 5f 6a e6 cf c4 3f
       -0.005357692807442728 0.16259460634179085
0001a0 b5 29 cf fb e7 8a 83 3f 7f e1 3c d2 de 59 c9 3f
       0.009542286274059156 0.19805512681501722
0001b0 b9 75 e5 44 04 cd 94 3f 53 16 1c a6 f4 b3 9b bf
       0.020313326554391973 -0.027053663862736176
0001c0 b0 46 bd 1a 25 57 d2 3f 20 b5 56 af eb bb cf 3f
       0.2865689049841462 0.24792238294086477
0001d0 5d 95 5e 13 67 df c1 3f fb 4a da 95 89 6f b1 3f
       0.13963020749830948 0.06810817631257386
0001e0 14 d3 64 2f 2c 83 cc 3f 22 45 1c e4 5b b9 cf bf
       0.22275307001259448 -0.24784420622067055
0001f0 63 e1 29 31 d6 e0 c3 bf 6f d1 3b 39 2c 79 c8 3f
       -0.15529897118154698 0.1911978988133671
000200 06 b4 f4 db 3d 1b c7 bf 79 65 c7 af d3 05 d1 bf
       -0.18051884880097208 -0.2659806458082908
000210 5a 32 47 fb f2 7e d4 bf 0f f7 4a 70 97 7c a5 bf
       -0.32024836100462084 -0.041966183145161755
000220 45 03 66 07 e0 0e b5 bf 6c a9 01 ef aa 68 99 bf
       -0.08225822620989927 -0.024813338125036763
000230 fd e9 5a 4a ce a7 a3 3f f9 4a 3a 1f 1f d6 c0 3f
       0.03838963182120734 0.13153447174826008
000240 f8 62 4a 20 6e 0f c1 bf a3 51 f0 24 07 6c d0 bf
       -0.1332833917301952 -0.25659350020694144
000250 9b 45 e8 b8 df 5f c1 bf cc ae 10 f2 42 3f 73 bf
       -0.1357383396976218 -0.004699002748605085
000260 89 44 b6 46 f4 da d3 3f 34 71 41 ce a7 ba 97 bf
       0.3102389040514671 -0.023172971690983604
000270 48 35 37 cb 08 15 cb bf 31 b7 70 33 98 40 cb bf
       -0.21157941744460573 -0.21290876876576584
000280 b9 a7 33 41 a0 d2 cb bf 46 3d 61 60 9b de d0 3f
       -0.217365295254522 0.2635868493279826
000290 25 29 40 36 07 8c c4 bf e8 96 18 c6 05 6b 75 3f
       -0.16052332066494404 0.005229017785983926
0002a0 26 43 1c 2b 72 31 d2 3f fd 96 d6 15 30 c3 c1 bf
       0.28426794252395593 -0.13876915994949704
0002b0 ba 90 eb 4d c8 33 b1 3f a7 78 a3 bd 4d 09 b5 bf
       0.06719638731334757 -0.08217321281287814
0002c0 70 1d 0d a6 8c d6 85 3f be 16 06 1a d9 b2 cf 3f
       0.010663126771432302 0.24764550944035152
0002d0 dd c7 69 e2 9a c4 b1 bf c0 23 cd 28 b4 fa ce 3f
       -0.06940620448747788 0.24202587120296748
0002e0 af 3c d8 5e e0 ea ca 3f 5f b2 45 f6 e9 6d c3 3f
       0.21029286032760328 0.15179180645954468
0002f0 49 f7 4b 0b ed 44 d1 3f 49 a4 5c 4c 5e 14 c8 bf
       0.26983190634915794 -0.18812159279448995
000300 6f 67 4f 00 ff ae cc bf c8 78 06 3d 48 79 ba 3f
       -0.22409045710702055 0.10341311921954166
000310 27 c7 9e 42 5f 58 c8 3f 75 a6 45 8f 0b 9e d0 bf
       0.19019690277996767 -0.2596463107243843
000320 ac b0 2f 29 8b 5a cb 3f 50 91 ec e5 97 ef d1 3f
       0.21370067130135817 0.28024861768269194
000330 22 be 01 09 c5 01 cf bf 32 a0 3e f4 3d b9 8b 3f
       -0.24224150600228805 0.013536914840941081
000340 b1 0a 7d 2d 61 44 ce bf 4c 2d 9d 25 c8 da b1 bf
       -0.236461779795794 -0.06974459570226549
000350 90 f6 f0 6d 42 37 c2 3f b0 5e ab d2 b1 86 d3 3f
       0.14231138580537506 0.3050961072271816
000360 c4 39 2c ee 9a 36 8d 3f f1 31 00 05 56 43 ce 3f
       0.014264307397323324 0.23642993206193766
000370 00 fc 1a 8b c0 f3 cf 3f 39 b9 0c 7d 35 f4 c8 bf
       0.24962622444397198 -0.19495266538565106
000380 b0 a4 f3 8c 42 34 cd 3f 37 c3 8e 6e bc ef cf 3f
       0.22815734751137517 0.24950366400073573
000390 af d5 0b dd 4f 92 76 bf 35 5f 5f 92 94 d0 d3 3f
       -0.005510627714774881 0.3096057347697639
0003a0 79 ba c0 8f 82 4b d6 3f 0e c4 b8 28 c5 d2 c8 3f
       0.34835876501430324 0.1939321945988301
0003b0 13 47 37 9e 39 0b d3 bf aa 3c a3 7f ba 69 80 3f
       -0.29756012392782444 0.008014161129180703
0003c0 07 ce 30 96 f9 ed d0 bf 7e c3 5d 19 5b 80 cb 3f
       -0.2645248381333833 0.21485460985743637
0003d0 94 3e 86 98 9e 10 c2 bf ef ed 1b 29 ce 1b 78 3f
       -0.14113218734245392 0.0058858922145605804
0003e0 ab ed 32 e8 37 2a b3 3f 29 53 fc 94 9b 04 96 3f
       0.07486295145911608 0.02150195214115339
0003f0 a8 ad c0 a5 51 cd 84 bf a5 a1 31 73 80 7a c7 bf
       -0.01015723979079193 -0.18342595696163957

readout.2.bias f8 [2]
000000 74 4d b2 62 c5 3a 8f bf 31 6f 5e 0a a6 82 b8 bf
       -0.015248815607526757 -0.09574353936335168
