experiments/flockingGNN-050-20221018080023/savedModels/DAGNN1LyG00Architlast.ckpt (torch, 9247 bytes, 4 tensors)

readout.0.weight f8 [64, 12]
00000000: 8b69 e261 9b9a d2bf 8fec 1955 2f40 c6bf
00000010: e558 956d bf08 aebf 2efa 13ae 5b83 d2bf
00000020: d0ca f965 023a bf3f cb3f 239c 2206 70bf
00000030: bdf6 ec44 7cc1 9bbf 6b79 1b74 103c c2bf
00000040: 2935 a641 387b cabf dd5e 480a 35b9 cebf
00000050: 43eb 3e2a 7dc4 bf3f c5f7 0915 494f d0bf
00000060: f6d3 41d5 91fd b7bf 3dc2 5970 d1e6 b8bf
00000070: 3007 fe2f 9323 cd3f 19e5 6f0e c36c d33f
00000080: 76e0 c30a 923a b53f 6e64 98f4 defd c03f
00000090: 6324 c077 e9bf b2bf b774 c069 5ee8 b9bf
000000a0: 9bc3 cd52 8157 cebf 2866 02bc 5867 aa3f
000000b0: d4dd 8d41 4660 ba3f e6e7 85dc 24f8 973f
000000c0: 16d9 7c18 ab36 a2bf bb39 248e 4750 c6bf
000000d0: 3ff3 baba 26fb d0bf 894b a611 6a2f d4bf
000000e0: d1b1 f4c2 4de7 973f 0c2c 3bd1 66cc c23f
000000f0: 27a8 a86b 13fe bb3f c8d6 6c70 06ad c63f
00000100: 4fe8 814d a2bb bbbf 97d4 f698 3a73 c8bf
00000110: 5675 4661 c058 b5bf a384 2675 88a7 d0bf
00000120: 37e6 c6b1 c704 acbf 5969 7007 6b8a cabf
00000130: 3f81 3864 7be4 d13f bf52 d166 c4b1 d13f
00000140: 555d 40b2 a8ae 923f 35d5 531c 2aa1 5dbf
00000150: 53ba 00c1 47e0 b3bf c497 84de a9ad 9a3f
00000160: 8072 33a8 be06 c5bf b66f e3fd 557c cb3f
00000170: f30b b8e0 fd98 a63f e553 5041 714a b1bf
00000180: 42b4 ede1 3de9 bd3f dcc1 8683 873d d33f
00000190: e082 5019 0e21 cbbf 88a4 df67 adc6 b8bf
000001a0: 1ea1 d7f7 061b a6bf 7109 e019 8b7d b3bf
000001b0: ac5c 6fdb 3675 923f aa84 45e0 82c9 cbbf
000001c0: 1714 59a4 ab7e b03f 7ba4 183e b572 a0bf
000001d0: 3960 5b0a ec0f b23f 9d29 164c eed2 c9bf
000001e0: 0c7c a8c5 3d0c d0bf d17c bdc6 4ad1 94bf
000001f0: c690 25fd 3ade a1bf d5a3 02ae 8b45 c7bf
00000200: 7b97 ae51 f360 b33f 982e 79f7 f1df 9bbf
00000210: 5e9d 67f4 d5e1 46bf 3c35 96aa cb26 ac3f
00000220: cf28 28c9 a41d d23f 3723 04c3 bd1b cebf
00000230: 70f4 55f9 36a0 c43f 5832 ddf2 ea50 aa3f
00000240: 711b 3f26 537e cf3f 9f11 38a4 7117 d13f
00000250: 9595 94f6 c1a9 9b3f 1326 e034 2942 c23f
00000260: 865a e350 aa55 a5bf cf1f 9a8b e7a9 d03f
00000270: c2c6 1292 64eb 6f3f e451 f1b1 69ac 93bf
00000280: e39a 1618 5d13 78bf e50f 225a c0de 993f
00000290: b2a5 29bf 2f03 b6bf e04c d966 3948 b93f
000002a0: 4635 4569 ac64 42bf b8e7 b237 3111 893f
000002b0: 1eba fa5b 525e cbbf 27e2 581a 6ce0 8c3f
000002c0: f26b 39cf 0b76 6fbf 21f4 d637 325f 94bf
000002d0: 404d 3b49 f40a b53f 8cf6 6014 c34b 983f
000002e0: 6725 61ab 550e ad3f c59d b0e3 4e72 c23f
000002f0: 0b01 88c2 954d 84bf a042 b387 ae89 b83f
00000300: 9526 7b23 4295 cc3f 0514 d6a9 e7f4 aa3f
00000310: 8756 f494 455f a0bf 7bf9 c686 3c0f babf
00000320: 1b4b 7f6d cf80 babf e406 4d7f 5428 b3bf
00000330: eed4 661b 0274 51bf d1db e09a 93f3 713f
00000340: fac8 6296 c3c4 bf3f a81f ed6a 53cb b9bf
00000350: 6c5b ff43 4f10 a03f 8475 a7b5 9965 cbbf
00000360: 82c4 fd05 f794 d5bf 5a67 e811 fc02 d2bf
00000370: 6a1b 1a3b 6149 b73f 0ab9 a722 f46b d23f
00000380: e8ba f625 3855 da3f d29e 6076 d2e6 ce3f
00000390: fced e652 0907 c3bf 6a59 99dc d965 873f
000003a0: 4124 0198 a7bf b73f 4100 d891 329b c2bf
000003b0: b693 b797 5ebb 7fbf c313 1cdf 9cc6 c43f
000003c0: 917f 3332 de30 d03f 1828 ecae 6025 bf3f
000003d0: 2feb 0305 ff71 a33f 242b f2cd e6e4 cb3f
000003e0: ca8b c9fb 1dbd b2bf 55b2 16ea 3dbb ca3f
000003f0: eb52 07ae 0e5b a1bf f7b3 0da6 bbfe c6bf
00000400: 56f0 dcda 2607 b73f 9457 a9cd dd2c c3bf
00000410: 1ce9 a20e 376d c03f d1d6 f52f 800d 973f
00000420: 63c6 835a 092c ad3f d0ce dd27 fa7e cc3f
00000430: bc91 4f15 a611 d23f 9e5e e377 126a d63f
00000440: 4298 fcf0 3446 883f 700a 5132 e1f5 973f
00000450: 12dd bc41 909c bcbf cddb 5c60 45d1 a9bf
00000460: 5433 8201 5c40 c3bf b326 43de 127f 8abf
00000470: 413f 0bf3 487e c33f 541a 919d a64c c23f
00000480: c155 cc1b b41c a1bf bb6e 0162 db92 90bf
00000490: a03c 5715 ccbf d33f 9b46 337c 5039 d93f
000004a0: 1a79 045c be32 a23f df5e 66e5 4be4 c73f
000004b0: a235 65fb 7f77 bcbf 2e46 c3b9 8a55 a7bf
000004c0: 1a97 7e2d ea49 9cbf d4ef 4af0 eb18 babf
000004d0: b80e aa12 c59e b93f 2115 cc10 0922 9abf
000004e0: 907b d30b 5f79 d2bf f1c9 8286 b8ad ddbf
000004f0: c806 9c58 b918 ba3f c0d6 f6b9 510d aa3f
00000500: 9ea2 f902 7d8a 7b3f 2f88 52e1 0cbe c5bf
00000510: 806c 24df a58a b5bf 1940 6e00 b1ed 98bf
00000520: d712 6e90 b5f2 9c3f 8896 0454 d2b5 d1bf
00000530: 672c 0808 33c3 d03f b68c 008c 4116 d4bf
00000540: 01f9 18a0 d59d d13f df0d d7c7 efc5 d43f
00000550: 0acd 8cab ec8e b0bf 509d 83ef 54f8 b9bf
00000560: b59e f58a 5524 b1bf e212 7f62 1ac4 bb3f
00000570: f07a 4fa4 69df 8b3f 9084 b48a c470 c23f
00000580: a4ac 4f26 7cb3 b2bf 406a e159 7998 b2bf
00000590: fe71 f64c 2c5f c13f 4d63 a9dd bc04 c6bf
000005a0: f119 86a6 7b0b acbf a9e3 b27b f399 cdbf
000005b0: 59b6 d440 c2c4 d1bf ae80 4834 9030 a13f
000005c0: e63f d8de 9b6b 95bf e31c f290 cd5c b9bf
000005d0: 96b9 0ed6 5a3f bd3f 966d 39d1 465b b13f
000005e0: 82c5 7c62 6dff b83f 5fda 2106 1111 c8bf
000005f0: 3fcd 0196 2ba1 c0bf 7678 dcfb 1ad2 ca3f
00000600: fc19 5a1e 44c9 b3bf 75a0 493d b11f d33f
00000610: 4634 57ce 4da1 a0bf 39e2 0d62 e31e cdbf
00000620: 6b57 77b4 bc9a d23f 2604 6dfb 7a5c d2bf
00000630: 2e93 f2e4 2596 cbbf 6500 151c 7a72 b3bf
00000640: eff5 8a90 5a96 aabf 8452 9284 1043 b8bf
00000650: cd31 5583 edf9 c33f 28d9 e31a ba3c 9d3f
00000660: b470 f2ad 5424 cd3f 426e 025e 1138 a63f
00000670: c97b 86b5 d698 82bf 7bb1 abd7 b7b4 b1bf
00000680: 90fd 974e 6fff b6bf 4a6e e4ae 7d08 99bf
00000690: 4eb4 39be 3e74 763f 31de 76c7 ccd0 813f
000006a0: 19a8 a577 f1ce 8abf 07af 5f7d 6a2c b6bf
000006b0: 100b b128 9a6d b7bf 76ee fb30 69f1 b73f
000006c0: cf5c 8d95 a42c 8fbf 9780 c5c8 21a8 a8bf
000006d0: 5c3b 06a5 2374 d23f 8014 d92b 2c1d d43f
000006e0: 0b84 df88 2eed 82bf bd3e 2c93 e330 8dbf
000006f0: a409 14ef 0c90 bfbf 1459 3d96 ca7e bebf
00000700: 4cfa f48d e3c6 c13f a714 2d65 0148 c33f
00000710: 84a5 0f4c c16d c73f ee3d 94f9 2df5 cb3f
00000720: 4700 2627 650b 843f 679d 1093 59c9 9c3f
00000730: 1236 e889 24ea c6bf bd7e ece6 5107 aa3f
00000740: e53c 75d3 1eba a4bf 3852 1cb5 b833 cdbf
00000750: e03e b8e5 279b b43f 4185 a166 b36e c1bf
00000760: 2dce fb33 3c91 b93f 637d 5708 300c a23f
00000770: e5e3 b3a7 4838 c2bf 076e a59f 53ba b3bf
00000780: ecb0 3443 092e d0bf f6d0 44fb 9350 d3bf
00000790: 7ff2 f866 6be4 b6bf 3800 6bb4 3439 c0bf
000007a0: 0977 417e f94d bf3f 0f2d 83d5 2ac3 b73f
000007b0: eeb6 9938 0f57 933f db71 526f 8cd0 973f
000007c0: 5bf2 6cc8 6c30 d2bf adf8 8301 32dd bb3f
000007d0: 248d 3a45 90fd aabf 5bb0 132c a572 783f
000007e0: 67ef bbf4 fc0d c93f 5d87 150a dadb a43f
000007f0: 84b8 347a 18d6 c03f 57a5 a581 a983 c03f
-0.29068646010423355 -0.1738337674649739 -0.05866049015701139 -0.2892674636822531 0.12197890271799428 -0.003912100977871045 -0.02710527582825394 -0.14245801610281758
-0.20688536839990349 -0.24002707483372535 0.12409193307295845 -0.2548392014940613 -0.09371291595910222 -0.09727200501380025 0.22764816134809385 0.30351330194351217
0.08292496455021756 0.13274752562645936 -0.07324084447476902 -0.10120191652136411 -0.2370454458537353 0.05156972212826033 0.10303153133815296 0.023407531699810046
-0.03557333635255781 -0.17432493629935472 -0.26532905803087553 -0.31539394115059644 0.023343291305694628 0.14686284271587657 0.10934563997639711 0.17715530862340345
-0.10833181755325082 -0.19101650685266655 -0.0833854901779508 -0.2602254051253771 -0.054723968936241034 -0.2073491846393363 0.27957043444805046 0.27647504845417
0.01824439609489777 -0.0018084441410882283 -0.07764099561675523 0.026053098875443728 -0.16426833355844295 0.21473193070312185 0.044135984117040915 -0.06754215092253409
0.11684023633797927 0.30063045353293005 -0.21194626079615997 -0.09678157602287929 -0.04317495131891945 -0.07613438970296273 0.01802526201558112 -0.21708713484534786
0.06443283808137355 -0.03212515242587074 0.0705554509435168 -0.20174959864773437 -0.25074714949181565 -0.020329635982645314 -0.03489860859079523 -0.18180986401173863
0.0756980966967528 -0.027221470574927936 -0.0006983084393227636 0.05498348672254358 0.28305930752015923 -0.2352215959765773 0.16113936590764721 0.051398603579035196
0.24604262702470295 0.26705590283406794 0.027014761614869782 0.14264407235923268 -0.041669199346576355 0.2603701461125611 0.0038964237470161265 -0.019212390409238625
-0.005877841614540388 0.025263791562352273 -0.08598612229402283 0.09875830422361132 -0.0005613176204321356 0.012239822876256898 -0.2138159703367401 0.014099926523258933
-0.003840468469019858 -0.019894394548590214 0.08219839847452182 0.023726509207554744 0.05674998967203742 0.14411340825721033 -0.009913606642840486 0.09585085690492656
0.22330500347589025 0.05264972637363744 -0.03197686618129319 -0.10179498949489656 -0.10352798865578132 -0.07483413799220845 -0.0010652561737576854 0.004382683355337273
0.12409613057642224 -0.1007587562609148 0.03137443261191816 -0.2140380990012255 -0.33721709809385214 -0.28143216847239716 0.09096343701285795 0.28783896812719034
0.41145137507821383 0.24141913204333904 -0.14865223453476506 0.01142473415818009 0.09276816807791112 -0.14536125298764271 -0.007747048857230368 0.1623111810114591
0.252982663178039 0.12166408796852612 0.037979096758098733 0.21792302185016255 -0.07319819829130761 0.20883916788206372 -0.0338978373944537 -0.17964883430559528
0.08995287745796196 -0.1498067144590861 0.12833297934214094 0.022512438704743346 0.05697659711757976 0.22262503573039405 0.28232719498762626 0.350224129751476
0.011852658848123924 0.023398894020156324 -0.1117639694683599 -0.0504247360353741 -0.1504015929571333 -0.012937686355502498 0.1522914110887488 0.14296419805232807
-0.033422115701039264 -0.016185214859759194 0.3085813721090265 0.39412319306311766 0.03554339288005988 0.18665455533186212 -0.11119842422086504 -0.04557450788128069
-0.027625712420238015 -0.10194277397653134 0.10007888513251373 -0.025520459795207565 -0.2886579146851824 -0.4637280763228367 0.10193975842778535 0.05088286776610351
0.00672386963524532 -0.16986237527913903 -0.08414684961137375 -0.02434422078255247 0.028269612255388345 -0.2767225094306487 0.2619140222965996 -0.31385840103230167
0.2752584517910606 0.3245810939372102 -0.06468085468513976 -0.10144549224388766 -0.06696066515507478 0.10846104530999015 0.013609719588143915 0.1440663983603696
-0.07305122313816753 -0.07263906902645889 0.13571695096915443 -0.17201958487819483 -0.054775108411423086 -0.23126071491222192 -0.2776342042078333 0.03357363355849095
-0.02091830775867711 -0.09907231129374199 0.11424796796811729 0.06779902084365683 0.09764751104810013 -0.18802082824159336 -0.12991852593004613 0.20953690812979503
-0.07728982678427337 0.2988093470107807 -0.032480651319567275 -0.22750513351253845 0.2906944048275963 -0.28689455560021526 -0.2155196540744781 -0.07596553025814641
-0.051928358215700736 -0.09477332340822825 0.15606469071134513 0.028551967517125437 0.2276712273932212 0.043396513677376194 -0.009080579199517562 -0.06916378989598641
-0.08983512562553231 -0.024446452903346384 0.005481953706845634 0.008699035489242753 -0.013090025390472037 -0.08661523400195047 -0.09151614659735352 0.09352738805676516
-0.015221868337603443 -0.04815774513076681 0.2883385764661648 0.3142805507853339 -0.009241450836215767 -0.014253404549463661 -0.12329178654548528 -0.11912218254051182
0.13888210708133142 0.15063493194808084 0.18303695882722704 0.2184197872779658 0.009787359482970838 0.028111838914040812 -0.17902046903365992 0.05083709663290168
-0.04048248606943065 -0.22814091532986125 0.08049249037162154 -0.13619081984783502 0.0998723627961275 0.035249234216957935 -0.14234264553650103 -0.07706186912167122
-0.2528098255450135 -0.30179309404344623 -0.08942290557838282 -0.12674578484984678 0.12228354771056273 0.09282176697449905 0.01888679297410694 0.023256487173613265
-0.2842056233674037 0.10884392296790919 -0.05271578641011335 0.0059687091863730125 0.19573938321979797 0.040739835482567634 0.13153367964827478 0.1290180094759232

readout.0.bias f8 [64]
00000000: 5f04 8afc 2e2b c5bf a72d 35c5 26e7 b43f
00000010: 9a3c ed7c ef06 a33f cd73 5813 ded9 c33f
00000020: 9cba 176c 4a0e cc3f fb45 27a5 3761 b33f
00000030: 957f 27e1 2e2e 96bf afaf 3114 ba15 c63f
00000040: a0a7 a1f7 618a c1bf 0dcf 4124 f51d bcbf
00000050: 3c61 ab76 0648 cd3f 34f9 cbbd a579 cf3f
00000060: e1c5 703d 004e 8b3f 48ae 3306 56bd c03f
00000070: 6ec7 add8 40ae d7bf 62ef 6a8a 520e c2bf
00000080: 743c 20b2 1298 85bf 3b73 02af a7b6 c13f
00000090: b66b 3de7 4d25 bdbf 5600 f514 af71 09bf
000000a0: 846b 9c8b 9b86 b4bf c332 a97f b82b d3bf
000000b0: d05e fd39 41e2 af3f 76f6 8406 ebc9 b43f
000000c0: c327 8dd4 3c8a bb3f 706d e3e2 1287 7cbf
000000d0: b40c eaba ee81 c43f b640 f37a 9bb5 c33f
000000e0: 440a f650 fc38 bb3f ec23 7461 14fa d73f
000000f0: f17b 599a 6ca1 c0bf 2f8c 35aa f9c2 903f
00000100: fbc0 b51d ac1a c4bf 230c 2524 e89c b53f
00000110: ab6b fd8a bfba b0bf 30d0 7ee7 1244 8dbf
00000120: b71d c137 4996 aebf 45a6 c701 f791 c33f
00000130: f6ba b25b d7cd cd3f 7beb 27bc 9f46 b7bf
00000140: 212d 5080 2ae2 d23f ed24 b8fe 4d2d bebf
00000150: 58a1 31f3 a092 d23f 3d62 91fa b987 c73f
00000160: 57cd 0062 67a8 b7bf 425a f7dc 8036 aabf
00000170: 27f1 dc91 c8fc c8bf acdc 0479 b170 bf3f
00000180: 5b21 e2ca b91e c73f de32 fa76 433e c63f
00000190: 086e f0a9 e934 acbf 7141 75d3 046e c0bf
000001a0: 308f a777 f3c1 c7bf 6125 93a8 030f d3bf
000001b0: 5ad4 7647 8876 ab3f cddd 2f0a 041e b7bf
000001c0: 115d 7615 93ec b23f 1b7f 4697 6e67 d2bf
000001d0: 3981 f469 8059 b83f 3b9a 5aa5 a3a2 87bf
000001e0: ae77 fb68 a945 803f 1a7e 2f32 5f51 b33f
000001f0: 9bae 0870 44fc 79bf 3cdc 7950 38cf b1bf
-0.16538035708439033 0.08165209116594117 0.03716228866562084 0.1550862879238636 0.21918611791575848 0.07570216924730026 -0.02166054963333826 0.17253805147208598
-0.13703560439472273 -0.10983211646253839 0.2287605361405073 0.24589988486690972 0.013332368731513835 0.1307780771525009 -0.370010577774443 -0.1410620857112646
-0.010543962536784891 0.138386688665287 -0.11385046859270073 -4.8530726980634015e-05 -0.0801789489600378 -0.29954349963081145 0.062273062065910545 0.08120602521099748
0.10757808865778799 -0.006964753889600814 0.1602152264277713 0.15397971633365665 0.10633828140820706 0.3746386481948878 -0.12992627655600544 0.016368771566146186
-0.15706397486383836 0.08442545778693548 -0.0653495516138906 -0.014289996804883826 -0.059740341239883525 0.15289199435146564 0.23284427621316411 -0.09092138618136218
0.29505407839379144 -0.1178787943719219 0.2901995062770957 0.1838295434452152 -0.09241338865904446 -0.05119707772580685 -0.19521433946818798 0.12281331257405509
0.18062517553722554 0.1737751322692906 -0.05509119224026554 -0.12835750889872657 -0.18560641615396767 -0.2977913995969939 0.053638704990057476 -0.09030175446229478
0.07392234109862651 -0.28756298802362473 0.09511568629068713 -0.011540678485585256 0.007945369259171855 0.0754603860400426 -0.0063440965027826935 -0.0695681759333277

readout.2.weight f8 [2, 64]
00000000: 3954 9a38 0911 d33f f126 5683 19d1 ce3f
00000010: 1806 e75a c339 853f d59c fdfd 9319 bd3f
00000020: 877a 5124 c4ef d0bf f812 d1aa 97c0 cb3f
00000030: 148d e0bb 9dbd d9bf 0b33 8a62 e642 983f
00000040: bdeb 1dfb bae7 d2bf dfa8 980e 7073 c03f
00000050: 629d d5cf 90f5 d1bf de52 cd3b 7b57 c8bf
00000060: ebcf c382 7d82 ca3f 0eb7 5700 d2cd d23f
00000070: bf99 c638 dcec d1bf b81e 8971 8744 86bf
00000080: ef61 b5a5 3cc9 c83f 56b0 6a6a 47dc d1bf
00000090: 9cde f806 79c3 ad3f 007c 28ae 9763 a7bf
000000a0: 1aa0 cb0b 3fc0 ce3f 7e8e 01b1 86b5 d7bf
000000b0: 9cd7 5512 babb d73f 6dd8 eda3 e0d8 d33f
000000c0: b842 c377 056d b6bf 0cf2 a119 9950 babf
000000d0: ce82 ccd1 2f52 cb3f 0c36 686e cc44 9e3f
000000e0: f234 7606 eeda c1bf 5b71 9a57 66e7 cabf
000000f0: c7ae 2580 26e2 d33f d0f5 2c5d eadb d1bf
00000100: 4578 c265 2815 c9bf 03d6 e952 7bcc b1bf
00000110: a3a2 014e 5411 bebf 5dd8 c110 9187 d9bf
00000120: e349 8541 bef3 a8bf 1afd e27f 6a60 d0bf
00000130: c548 c580 3b0c d5bf ba02 75c3 df8e cabf
00000140: e431 f15e 2cd6 cabf c9f9 8cd1 8470 d43f
00000150: 02c3 afa8 0d51 a73f 897a 065c 889e c63f
00000160: db7d cda3 816a cdbf e1be 8773 36a4 d1bf
00000170: 2f00 7e37 62b9 b53f 81d3 406d 4779 a4bf
00000180: dc90 dab8 21f8 ccbf bd6a 8c5e bb80 c5bf
00000190: 7532 a25b a92b d0bf 7777 8515 d3d5 b4bf
000001a0: 3d94 e7e2 1ed3 963f 3cea 423b 7a8f 9d3f
000001b0: 61c6 7d27 52f4 cf3f 1c29 bd22 7af3 843f
000001c0: 589a f057 3068 d3bf 2bb1 330e 81a8 d1bf
000001d0: d290 08ef 79e1 acbf 4359 57bf 7788 ccbf
000001e0: e4e9 6f92 02a4 c7bf 91a9 7e42 80d1 d0bf
000001f0: 89be 3237 9ad8 d43f dd63 a8db 7447 b1bf
00000200: 78ff 8707 2a06 78bf 47b3 b5fe c5bd cbbf
00000210: 8c36 7442 4a48 d23f 2aaf 3b92 3437 d5bf
00000220: 45c4 8d2b 1eca d53f 819f eb1d f6ef a13f
00000230: 2d94 eaca 838d b4bf 1fba 84cd 7656 d63f
00000240: aa07 18f5 65e3 b53f ecd4 6053 5682 9fbf
00000250: 9df3 dff9 69bb 52bf 71b6 5b69 56c1 d1bf
00000260: e095 082f 6470 d0bf 4365 9184 7300 d1bf
00000270: ddb4 0891 a74a c93f 2314 a459 2889 cf3f
00000280: 3204 9496 f622 99bf 32ab cc75 2278 a0bf
00000290: e5bd f109 3135 cfbf d95b f4f5 4cf6 d73f
000002a0: ec41 741c ae54 ca3f 508d 20dc cf5b d0bf
000002b0: 5185 8940 466d bf3f 4644 00a9 9d4f c2bf
000002c0: 7f10 97c2 9d52 c23f a95b 6232 9ec4 d33f
000002d0: 8dfc f34d bf0d cd3f 4749 888f 5635 d23f
000002e0: 92ce 4a33 68da d23f 00e9 7c4b 6349 d1bf
000002f0: 6fed 0b48 84d8 ce3f 2693 90bb b857 9e3f
00000300: d381 e098 a90d b53f 1872 21e1 ac70 ce3f
00000310: 7b34 c255 b05f cbbf ab89 a7c5 ec2d afbf
00000320: 8993 92ed 110c cd3f be8f 90c2 3057 c6bf
00000330: 6c2c f6ea 6f31 953f 04fd 720b a44a 903f
00000340: 11a5 cdce a14a a83f d26b b5b7 ce18 a8bf
00000350: 98de cb1d 080d bd3f 4794 2f77 4f75 d23f
00000360: d47e 723e 0622 afbf 4d06 7fa8 70ec b83f
00000370: 6734 8213 0725 d3bf 5d25 4ec0 34ef d3bf
00000380: 11b5 1a46 c542 d0bf b605 fef1 0f0c c3bf
00000390: b630 e360 3d6e cf3f 3139 0498 2450 d53f
000003a0: 3754 6480 7ede c83f 2b3f 4d44 04fd c6bf
000003b0: 3638 b31a 1d0e cc3f b8ea 49f7 16cf d3bf
000003c0: f9dc 0d7f 3a8d c2bf e4b2 0068 29e5 aebf
000003d0: 9adb 918b 8630 cfbf 8f06 b19f 5019 cb3f
000003e0: 33a9 2b73 a9da d4bf 27b4 ff4c 1615 ca3f
000003f0: 14a6 ebaf bbd7 a4bf 77ac 7662 fd98 d03f
0.2979147961389717 0.2407562152187022 0.01036408063089582 0.11367154074615667 -0.2646341662092841 0.21681495514544458 -0.4021982512224025 0.023692703022379507
-0.29539370082028055 0.128522879721749 -0.2806131391175396 -0.19016971988698733 0.20710724720959148 0.29381227525196685 -0.2800818018389712 -0.010872896339733415
0.1936412629245434 -0.27906976120244076 0.05813196382626737 -0.04568170548395045 0.2402418906779083 -0.37045447622060823 0.3708329371505614 0.310112152182575
-0.08760103391547147 -0.1027923286037053 0.2134456419380712 0.02955932067748361 -0.13949370685114776 -0.21018676068787098 0.31067812456488436 -0.2790475759428235
-0.19595818489773556 -0.06952639364484274 -0.11745192436650113 -0.39889933239408554 -0.04873461293995598 -0.25588476647313174 -0.3288716084981725 -0.20748517078211198
-0.20966105113838218 0.3193676039117262 0.04554026302492355 0.17671303265975194 -0.22981281755617897 -0.27564774782420726 0.08485998015203287 -0.03998778542192039
-0.22632237936080102 -0.16799108616472394 -0.25266488979904206 -0.08138770366119084 0.022289736365469038 0.028867635600116723 0.2496435826138166 0.010230020699641566
-0.30323418224216914 -0.2759096754732748 -0.05640774767769731 -0.22291466563064874 -0.18469268942119677 -0.26278692716245994 0.32572036161852985 -0.0674965893052923
-0.0058652536176849665 -0.2167289251041444 0.28566223611492414 -0.33149446755008916 0.3404612946824879 0.03503388514746942 -0.08028434471141628 0.3490273482338199
0.08550107225167261 -0.030770634497646762 -0.0011433157847015936 -0.2774253872765718 -0.25685982316130485 -0.26565254160012247 0.19759077626932867 0.24637321831701894
-0.024547436657489104 -0.0321665543363764 -0.2438107775264903 0.37440799731251456 0.20570923222886905 -0.25560375687401393 0.12276114535918238 -0.14305468322757714
0.14314624787778382 0.30887560768445127 0.22698203378965723 0.28450550095398736 0.29458050736432384 -0.27010424014919465 0.24098256605052934 0.029631506393474137
0.08223972303722542 0.2378135775824297 -0.2138576906913022 -0.0608972541119955 0.2269308481237682 -0.174535841944019 0.020696400371474175 0.015909732054521633
0.04744439744428964 -0.04706426613366656 0.1134800980324776 0.28841005934947755 -0.06080646049781327 0.09735778917004119 -0.29913498788011456 -0.3114749792080909
-0.2540753540623238 -0.1488056117632774 0.24555175047715289 0.33301653714524365 0.1942899825013755 -0.17959645590826176 0.21918071559633895 -0.30951475285807417
-0.1449349518186194 -0.06034211535038539 -0.24366838278703257 0.21171005055844147 -0.3258460640633018 0.2037685276003753 -0.04070841333834721 0.2593377553518574

readout.2.bias f8 [2]
00000000: de31 56a7 bf08 ba3f b21f 7f07 40a6 ac3f
0.1016959937607633 0.05595588771353678
