experiments/flockingGNN-050-20221018080023/savedModels/DAGNN1LyG00Architbest.ckpt (torch, 9247 bytes, 4 tensors)

readout.0.weight f8 [64, 12]
00000000: ee41 b30c 3684 d2bf 10ce d240 3498 bebf
00000010: 6f0d c0c0 861d b3bf 5634 d07e 9eb0 d4bf
00000020: 31b6 b6c4 7ced c03f 1865 4637 0637 b0bf
00000030: 811a 9dbf 332a 9ebf 1d8a eb31 d0af c3bf
00000040: ee09 3e37 4843 cabf 64e0 9dd4 d828 cdbf
00000050: 202a cf45 6c47 c23f a72b 94de c5c2 ccbf
00000060: d74f 77e4 a238 babf 6131 85d7 f1cd b5bf
00000070: e009 4593 bbf1 cc3f 7175 3ac0 1b07 d23f
00000080: 819b cb16 b383 bb3f d247 e53b 2212 b83f
00000090: fa0c ce79 02ae b4bf 0daf 40a2 b556 b9bf
000000a0: 6111 3b97 e63a cfbf 8dd6 6eb3 3d9f a13f
000000b0: ffd3 149b 5006 bb3f c36b 0548 5e27 933f
000000c0: 5185 f9f8 efcc aabf c311 c6b4 b12a ccbf
000000d0: 1a00 8596 0c85 d0bf c4fb 14d5 1acd d2bf
000000e0: 9767 1dbe 5dd8 9a3f 89bf 4e5a 46c7 c53f
000000f0: 7aaf 5e4b d688 bc3f 4945 af84 0156 c63f
00000100: 9d89 9762 b8a0 bebf 316d 80d0 960f c8bf
00000110: a988 80e6 c817 b4bf d74b bafd f060 cebf
00000120: 49e3 bdbb 933c b6bf e4e7 5252 226d cfbf
00000130: 64b4 2933 b117 d23f 58f6 bca1 6581 cd3f
00000140: e9a7 3b9b b3d0 aa3f 6926 a3e7 6a57 a4bf
00000150: 0a63 8727 5e08 adbf b7c4 1d06 93c5 af3f
00000160: 32e0 9691 7367 c5bf 4da3 be84 d2a0 c83f
00000170: 35cf a930 67e4 a33f 566c 8ef0 6a40 b3bf
00000180: b4aa 84a8 21d3 c33f fbfd 710b 0b04 d53f
00000190: c367 51d6 93ea cabf d2ef 6b57 6c86 aabf
000001a0: 939c f575 e07a a8bf 62ff 8e9d 5bd2 adbf
000001b0: f380 4986 cb71 903f 1c08 f9de 6386 d0bf
000001c0: aabd cb89 cb1c ae3f c44a 20fd a85f a3bf
000001d0: ac87 1682 7ad2 b33f d72a b53b 6dbc c6bf
000001e0: 6161 d0bd c8ac d0bf ba91 2a33 7f19 b13f
000001f0: 84cf bc11 f437 b0bf 844b 0994 2695 d0bf
00000200: f1a9 5485 deb5 af3f c5c1 ba94 fbc1 bdbf
00000210: d9b2 c8af af67 6ebf b409 420d 9462 b63f
00000220: 26a3 ab0c d4e1 d03f f98f 8c94 6725 cebf
00000230: e39d 5a69 efe0 c33f c0b2 76a1 aee7 a93f
00000240: 193c 3d62 792f ce3f f4cc 9e9f c82f cc3f
00000250: a680 eaaf ce5a a63f fc81 b296 de08 cc3f
00000260: fa1c a60e 318c a1bf 17d0 ada6 fb68 d43f
00000270: e123 bc99 673b 713f 6060 6eb0 5cf9 99bf
00000280: 47a1 5115 35d2 7cbf 06b0 58a8 28eb 773f
00000290: e4f2 48c8 371b bdbf 647b 6fcc 6f1f b43f
000002a0: 2550 1db8 c100 64bf 4053 9bd5 5001 8b3f
000002b0: 6326 dfc4 5875 cabf 8671 a38c 893c b33f
000002c0: 00b1 31dd fc47 59bf e227 0704 21f0 94bf
000002d0: a456 4320 558b b33f 370b b052 6d02 a13f
000002e0: fdb5 454f 905f b23f b928 4d7f d021 c33f
000002f0: 8192 8252 8fd8 623f 18af 3b78 d195 bd3f
00000300: e72e 9364 8fd5 cb3f 1b0e 6a87 34fa 64bf
00000310: 6315 6daf fe0f a5bf 40d5 3c04 51b6 bfbf
00000320: 8ff3 960c df71 bebf e839 400d feb6 acbf
00000330: c68a 1ef1 afa6 62bf f1b6 6b0d 37c8 7abf
00000340: 623d b9b0 e449 bb3f 6533 8eba bb52 bcbf
00000350: 6f82 6475 e0da 963f f043 3ec7 ff48 c9bf
00000360: 0740 8872 cf14 d8bf da67 3344 1a42 ccbf
00000370: 4fe0 ddaf cf6b c03f bf93 0aa5 cefe d03f
00000380: 3bd3 93c8 5cc6 d53f dc3b 4303 585b cd3f
00000390: 8c36 0afb 845e c5bf cefe 6949 492b 9f3f
000003a0: 28b8 dec8 e3b5 af3f a42a a660 2088 c7bf
000003b0: 0d05 eace 7566 61bf 7898 3647 09c4 c53f
000003c0: c35a e008 95af cf3f 69cb fb8a 5cf9 af3f
000003d0: be2a d203 244c ab3f 8ada 32fe 854c d13f
000003e0: f405 9926 ce7a b1bf 2b99 7e83 a55d d13f
000003f0: 20c0 c497 2f71 a2bf a36e 070c a9ad cabf
00000400: 8803 c7af 3131 b63f a2d9 f041 f03c c3bf
00000410: 0ca3 c021 1759 c13f d354 983a adb0 9e3f
00000420: f563 dfb7 ce41 ba3f 86dd d6d0 0ea3 d03f
00000430: 2e13 2b32 2660 d03f 3f4c 8b85 838b d53f
00000440: e539 cd80 1314 933f 10d9 8344 6bda 963f
00000450: 167a 1085 9553 c3bf b8bc 9a46 3d1b 9ebf
00000460: f99e f78c c049 c7bf 3b90 617c 9c7a a1bf
00000470: 0dd9 aebf ed1c c33f dc37 2a62 1d03 c13f
00000480: 060d 5a18 2372 b1bf 6e94 b117 6ead 343f
00000490: 62a1 d3a0 c681 d53f 96e3 c007 3e54 d73f
000004a0: 8681 6cc5 def2 bd3f 7e02 0312 fe6c c43f
000004b0: 9fc9 1715 bfa9 c2bf f682 c8ab 9671 85bf
000004c0: 5b1c efd8 c9d6 78bf 3462 7104 7716 b6bf
000004d0: fa83 ebe8 22a0 b43f 5883 7286 7167 9cbf
000004e0: da52 89e1 7bee d3bf c0a2 0d5c c567 ddbf
000004f0: aba2 73c2 8112 c53f b42c 8ce7 6e0e 833f
00000500: 99d6 bc24 9451 87bf 6ff1 1b10 e62e c8bf
00000510: c7c3 9c0b 0930 bdbf 6bdf 4077 33b5 993f
00000520: 4d09 f4c5 4b8c 923f 8ea7 73dc 152d cdbf
00000530: 894a 5fb2 9609 d03f a1dd f439 9da3 d1bf
00000540: 32de f302 c152 d03f 9e25 47b2 795f d33f
00000550: f1c5 d0c9 32de c2bf bf3c c30b 3a7f b1bf
00000560: 1fb3 a610 89ea afbf f57f 057d 7359 c53f
00000570: 29f2 f1d8 369b a23f 4ff2 8340 77a2 c53f
00000580: eba0 a8c7 83c5 b5bf 0d3c 458f c736 b7bf
00000590: b70d a5b9 95f2 c23f 5a67 c159 e015 c3bf
000005a0: 2330 0119 1b41 b2bf 574d 4c01 071f cfbf
000005b0: 2251 d6a5 61ec d1bf c53e ce5c 645b b83f
000005c0: 43a4 ce82 edaf 9dbf e9cd d9c2 7376 babf
000005d0: a1aa 62bb a372 bf3f 0c71 4e2d 520a a83f
000005e0: 3be6 8180 71ae b93f 9fa9 1aeb fed9 c4bf
000005f0: 6952 d746 f9e2 b9bf b083 7a7d 6dc7 c83f
00000600: 08a3 c0f9 41b5 a8bf fe12 f82b 5a54 d43f
00000610: 3b0d 6e37 e517 a8bf 7076 0bdf 6c70 d0bf
00000620: 4fdc efbf 34d9 d03f 3f87 1c1a 6995 d3bf
00000630: d44a 4eb7 6080 cebf 57f3 ae18 7eb0 b1bf
00000640: 0e49 4963 c981 adbf 36d2 7197 53cd bebf
00000650: 7e5a 9a93 31d6 c33f d005 fa79 22f4 a23f
00000660: 6874 92bd afb7 cc3f 5591 9f00 6255 94bf
00000670: d5a0 6d95 af1e 80bf 1c2d ff85 2873 b4bf
00000680: 09ae b072 f302 b8bf 314a 347e 3ac9 91bf
00000690: 9461 64f8 278e 733f 1b55 d743 a74c 6d3f
000006a0: b631 ec5d 2f75 a0bf 34a6 5bb2 4af4 bbbf
000006b0: 3556 7288 8844 bbbf 9e5c 8523 801a b73f
000006c0: bc99 b757 e882 9abf b945 a4c7 b690 abbf
000006d0: e028 357a b786 d23f e142 204f 7a4c d13f
000006e0: 145b 186d c37a 86bf c76d 96cd ef51 7cbf
000006f0: 0623 9aa7 bb92 c1bf 25f5 81f0 3fea babf
00000700: 25e8 05fb d7c1 c83f ad52 1fcd 79ec c63f
00000710: 67ed c54e 3b2c c93f 4977 5ec4 93f6 ca3f
00000720: 74fc 18b9 f14e 903f 5c40 9f02 759e 9c3f
00000730: afa0 1a71 4bc4 c4bf e2b1 8b9b d41c bc3f
00000740: 60d9 bde3 c637 a8bf f636 5dfb ac1a d1bf
00000750: 6313 2da9 fbc0 bb3f b280 699e 2f43 cabf
00000760: 46d8 36d7 d431 bb3f ea9d 7499 e875 a13f
00000770: 816e 6ebb bfe3 c3bf b758 e5f7 8845 b4bf
00000780: 6bab f634 aa21 ccbf 3608 2bcd 7d3a d2bf
00000790: f370 3b26 741e c7bf a0cc a41d 62f0 b7bf
000007a0: 8bfd c730 2239 c23f d7e3 0e27 d2d3 af3f
000007b0: c430 a08f 9710 953f 8bc4 25d9 cc45 923f
000007c0: 3dd0 842b 3981 d2bf ffa2 26eb b04b b43f
000007d0: 3ea5 5000 e412 aebf 34fb a6c6 9c1c 803f
000007e0: a1df 124b 900a c73f 2477 5432 1cea 6abf
000007f0: fa92 e426 e457 c83f 43bf e881 569b b63f
-0.2893195270562775 -0.11950995047191548 -0.07466928678336669 -0.3232799757395858 0.13224753956949223 -0.06333960389601534 -0.029457863397761578 -0.1538028949499485
-0.20517828652744136 -0.2278090513389116 0.14280465515760543 -0.2246939980326179 -0.10242670133385388 -0.08517371665692998 0.22612709704306067 0.2816838624219918
0.10747832590605634 0.09402669870658478 -0.08078017686607444 -0.09897933207747318 -0.24398500809014492 0.034418037560880334 0.10556510721364985 0.018704865594695762
-0.05234479822389438 -0.2200529225048183 -0.25812067698643804 -0.2937686043623524 0.026215996483507444 0.17014388474990152 0.11146296825489613 0.17449969271414492
-0.11963989645986435 -0.18797574215646187 -0.07848792674534145 -0.23733341588066878 -0.08686183293856432 -0.2455180074665001 0.2826960563314229 0.23051138303155727
0.05237351674971064 -0.039729443336523236 -0.056704466176318816 0.06205424737607628 -0.1672195874105014 0.1924079082648639 0.038851952257486756 -0.0752016866012338
0.15488072136334596 0.3283717738886193 -0.21028373684640486 -0.05180681769522234 -0.04781247558531123 -0.05824552820513308 0.016059093543277347 -0.2582025220364146
0.058813438959869416 -0.03783920373839103 0.07743039775826216 -0.17762532630361846 -0.26054590736887034 0.0667953014295283 -0.06335378106160588 -0.25910343605681185
0.061934427047464775 -0.1162411916836908 -0.0037115508441928177 0.08744168590241125 0.2637834666953033 -0.23551649812100076 0.1553019775794687 0.050595719537658734
0.23582379624210217 0.22020824235878644 0.04366155526554509 0.21902067526117708 -0.034272702253526036 0.31890765454522935 0.00420704335170627 -0.025365303295615482
-0.0070364068570614785 0.0058394993007304715 -0.11369656219262542 0.07860468617535116 -0.00244176708012313 0.013186103361854884 -0.20670613873362517 0.07514247592502529
-0.0015430421233544878 -0.02044726931652708 0.07634479558631796 0.033221641868314604 0.07177068648680769 0.1494694348896866 0.002300529409767827 0.11556729493503004
0.2174548379028842 -0.0025607133823670864 -0.041137656130141996 -0.12387567857225168 -0.11892503793110464 -0.05608362113717985 -0.0022767483105366774 -0.00653859619954543
0.10659627260723917 -0.11063741020752856 0.022319323697163215 -0.1975402567736917 -0.37627016243732253 -0.22076729135625223 0.12829013907662776 0.2655521976214991
0.3402320822490769 0.22935009154613695 -0.1669470048695313 0.03043856154044882 0.06193458392168366 -0.18384175032800443 -0.002124052137617688 0.17004505135736614
0.2475458424894069 0.062449352231758244 0.05331528231279979 0.270295618286959 -0.06828010980918703 0.271340731060621 -0.03601978995936883 -0.20842469298701358
0.08668814221802112 -0.1502971956230797 0.13553132198401163 0.029970843030317006 0.10256664265706646 0.25995226282562844 0.25586848162884024 0.3366402439252773
0.018631272064618804 0.022317577416253676 -0.15098828313144058 -0.029400784906724126 -0.18193823702971892 -0.034138574774971585 0.1493203340484758 0.1329075555153726
-0.06814784378552838 0.00031551301771621284 0.33604589181643096 0.36451674229788844 0.11698715515058752 0.15957618598442375 -0.1458052494995856 -0.010470559232147885
-0.006064213243866491 -0.08628028734654763 0.08056848703883182 -0.027738355475438098 -0.31143090271988927 -0.4594586752851164 0.1646272849532314 0.009304872933645882
-0.01138606774439248 -0.18893123423175548 -0.11401421102051677 0.02510528960576101 0.018113311726673676 -0.2279383970665631 0.2505852453152007 -0.27561121616187206
0.2550509003480982 0.30270235452607064 -0.14740595678590254 -0.06834757601903883 -0.06233623817693101 0.1667923317390884 0.036340440733486475 0.16902056360403825
-0.08504508614044297 -0.09067961929143582 0.14802810253796192 -0.14910511381713826 -0.07130593643631804 -0.24313437999135587 -0.2800525779250781 0.09514453187716317
-0.028991423710668107 -0.10336993701076093 0.12284301113929043 0.04695374301010888 0.10031804454219977 -0.16290270309157237 -0.10111959437865327 0.19358605028994935
-0.04825788663612768 0.3176484517464785 -0.04705730725893394 -0.256861894433178 0.26325720542758274 -0.305994296550228 -0.2382927794502253 -0.06909931280729374
-0.057630818719774365 -0.12032053420427577 0.15497417170691458 0.037018849744537285 0.22435566669892926 -0.019856959617656617 -0.007871028659522864 -0.07988217612653553
-0.09379502821018816 -0.01736918826379447 0.004774242528832313 0.0035765902418726354 -0.03214405080334208 -0.10919634680217244 -0.10651448565689565 0.09024811618052062
-0.02588999781974065 -0.05383845507652602 0.28947245535222343 0.2702928326334995 -0.010976340071505976 -0.006914078455703749 -0.1372904365892042 -0.10513686773079607
0.19341563946710597 0.17909166827907566 0.19666234346719166 0.21064993942575885 0.015926148340664928 0.02794821575645333 -0.16224043867737722 0.10981491849424388
-0.04730054407166295 -0.26725315615918477 0.10841343765521354 -0.2051753543373756 0.10622911695722434 0.03410269616352564 -0.15538784648821394 -0.0791860203947604
-0.21977737032042496 -0.28482003246256526 -0.18061687342458974 -0.09351170753216076 0.14236857778449194 0.062162940280763905 0.020571106091708882 0.01784439158786148
-0.28913716554530194 0.0792799543475091 -0.05873787406774021 0.007867073833833872 0.18000987687787265 -0.0032854605402822413 0.1901822271257954 0.08830776855097348

readout.0.bias f8 [64]
00000000: 1b05 e459 18aa c3bf ce3b 83d0 b662 b33f
00000010: ad67 0be0 913b a63f cbf8 f8df 62e0 c13f
00000020: 9ebe d6b7 b645 ca3f d369 6bb2 ff79 b03f
00000030: 6403 6aae f74c 91bf 6221 5de1 87b0 c53f
00000040: 65b5 902e 25a3 c0bf f74d e4f7 730f bbbf
00000050: a2d2 e13e a3a4 ca3f ebb7 09b9 7fa6 cd3f
00000060: 4421 3fbd de7a 7c3f 2c7b 0bee cb59 bf3f
00000070: d9bd f865 501c d5bf 4e79 56a1 253a c0bf
00000080: 31f9 784e f4e8 87bf cdf2 ee89 cbfa c03f
00000090: b9e8 8004 7208 bebf 1081 ca42 b52b 233f
000000a0: 50c3 f4ed 50ce b3bf 7b36 e912 35b1 d0bf
000000b0: 2ff6 b3fe ec26 b13f a278 52ad 6018 b23f
000000c0: f5ff 8385 f5f5 bc3f 1cd7 8317 9422 8ebf
000000d0: 7c40 0d29 8a82 c23f e340 e9b3 c483 c33f
000000e0: 3ea9 c54d 4210 b93f 481a f179 9cc7 d53f
000000f0: 94f2 574e 9a25 c0bf 2591 a5e9 b756 923f
00000100: 8e26 ced9 f95f c2bf 29b7 b4d9 726d b53f
00000110: 92e5 5feb 6b82 aebf f10a c12a 8809 8cbf
00000120: 9e19 c2be a47f a7bf 852f 5f9b bc82 c23f
00000130: fd33 a8a4 3d06 c93f a804 a9ce b39c b2bf
00000140: 493f a1f0 bfd3 d03f 9d14 f94b 94e8 bebf
00000150: 4064 7275 5d6c d13f 6203 cbee 5fd8 c63f
00000160: e032 c8e5 cba8 b5bf ea5f 5654 6218 abbf
00000170: 7c40 4ebb 4ea3 c7bf 6038 9834 2c4a bd3f
00000180: ed4f 10f9 f4b2 c43f 6116 3a59 d36c c53f
00000190: 94d3 a084 ec0b abbf c5b9 8399 199e bfbf
000001a0: e21c daee 66ee c3bf 44aa 11a1 30e4 d0bf
000001b0: d20b 4ec2 8d7a a83f 9242 9ee2 c1ea b7bf
000001c0: 0ca4 3386 d8a0 b13f 3361 a3d8 ac11 d0bf
000001d0: 22ed d6bd 7f09 b93f 0ac2 f0f7 b27c 78bf
000001e0: c0d4 e28e 21a0 923f 7e64 f0c4 9449 ac3f
000001f0: 7796 9473 5855 79bf 4d8e 5b5b 0db2 b5bf
-0.15362839116281965 0.07572500792160428 0.04342323169630844 0.1396602243057202 0.20525249458795697 0.06436155420252669 -0.01689517023124 0.1694497919472822
-0.12997879766173095 -0.10570454408689743 0.20814934320846584 0.23164364371353882 0.006953115534948321 0.12246393739358713 -0.3298531528298248 -0.12677450540372565
-0.011674793858330009 0.13265365824726985 -0.11731636629056909 0.00014626109750271636 -0.07736688432193017 -0.260815876453172 0.06700020998319965 0.07068447333810693
0.11312803754481122 -0.014714390723820574 0.14460875515442584 0.15245875153278296 0.09790434263928646 0.34030830295924774 -0.12614754510277193 0.017908929477372788
-0.14355395445845825 0.08370130362592633 -0.05958878753876741 -0.013690055660963792 -0.04589571789351797 0.14461476885332672 0.19550295390982333 -0.07270358844199853
0.26292418002139023 -0.12073637823876245 0.2722390791837519 0.1784782329541726 -0.08460687980568649 -0.05292041091450968 -0.18467125077996005 0.11441303524063207
0.16171133195223267 0.16738359314711018 -0.05282534712788514 -0.12350616453088666 -0.15571295416541547 -0.26392760972399665 0.04781001088033289 -0.09342586310072878
0.06886056209954478 -0.2510788074119034 0.09780119309191496 -0.0059782973249160685 0.018188976617882657 0.05524887947121558 -0.006184907449357283 -0.08474811058436522

readout.2.weight f8 [2, 64]
00000000: 4304 02a7 2b67 d13f c3b6 4e35 b28d cb3f
00000010: 2f79 ef97 a004 813f 48ce 900f 5d81 bc3f
00000020: 737e 289a 3716 d0bf fb85 b3be 409f c53f
00000030: 6ec6 ddca 74a4 d6bf ace6 13cd c8f7 953f
00000040: d7f2 77e7 5239 d1bf 5e6e 86e0 73ce ba3f
00000050: 3968 ede7 e457 cfbf 6330 3c72 68e1 c7bf
00000060: eb98 945c 94e3 c93f 05e7 806c d202 d13f
00000070: a84d 0f3b 32dc cebf 0f2c 7d86 04a0 8cbf
00000080: d0ed f36e 60c5 c23f 690d 0de3 d3a5 cfbf
00000090: a844 e3a6 3319 ad3f f628 e1ab 20d7 a6bf
000000a0: 64ab cd70 81b6 ca3f 26e0 4731 3635 d4bf
000000b0: 47f3 ee7b d3f3 d43f cbe9 0103 9ccc d13f
000000c0: d4e8 c624 3777 b3bf 5c28 cf73 14a1 b8bf
000000d0: d3d0 f4d1 f02e ca3f e67a 0d0a 6ea2 9e3f
000000e0: 7725 2963 b78b c1bf 8226 bcc8 7775 c9bf
000000f0: cbbe e881 1398 d13f 6fea 804b cba9 cfbf
00000100: 0eec 5ca6 de07 c6bf 2231 6373 ebba b0bf
00000110: ec6f c99f 7d2b bbbf 50e2 ea6d 061c d7bf
00000120: d188 0a71 3dfc a6bf 686e 932e 3624 cdbf
00000130: 1dd7 7b52 af09 d3bf fb17 34a1 16fa c6bf
00000140: b171 29df d505 c8bf 2fdd 7d40 a549 d23f
00000150: 1ef6 48e2 0daa 9a3f 0c4f 7867 e02d c63f
00000160: 9f2b 498b 89c0 c9bf c8be a6ac eae9 cfbf
00000170: f1c2 c75c 9d87 b53f 8326 df07 2d60 a3bf
00000180: 0c40 5457 bed4 cbbf 8bb0 90c7 245c c2bf
00000190: 08ac 3121 0891 cdbf f79b dbe1 1278 b4bf
000001a0: 1e0f 90f9 d592 973f d632 e7c7 444e a03f
000001b0: 47f0 1820 a560 cc3f d5ff 2dfd 6b7e 853f
000001c0: d045 5b20 097e d1bf 85c7 8502 9d23 cfbf
000001d0: a027 2fbf bed1 aabf b724 f1ca 56d4 c9bf
000001e0: 0797 f140 ec03 c6bf f34a 584f f155 cebf
000001f0: b3af 64c1 3e10 d23f fa5f 545c 072e b1bf
00000200: 63d5 c6b9 7e7f 80bf fa6d 5d15 fd9b c8bf
00000210: efbe 129d 6832 d03f 5cb4 a8d1 b9ca d2bf
00000220: cedb fbe1 5b9f d33f 7a77 5859 d470 a03f
00000230: e436 9ab3 ae36 b4bf 6605 0f88 76db d33f
00000240: 5a23 6547 aea2 b33f 5e0c 1bb8 443c 97bf
00000250: 392c d6ac f346 193f 97d3 20c2 38cb cebf
00000260: 747e 0a22 30c4 cdbf 43ba ad1e 1a46 d0bf
00000270: 69f4 6626 3c81 c83f 5ff4 0434 0a54 cc3f
00000280: 8cb0 8f6b be42 90bf d2ea 5dbe 8109 a1bf
00000290: 47c9 5440 0cc7 cabf 760e 796e a95a d53f
000002a0: 8151 a514 c1f4 c83f ad2a 0f4b 63ab cebf
000002b0: 66db 0f06 71b0 be3f 62cf 62ce 4abf c1bf
000002c0: a528 1b1b acd4 be3f 3476 b85a 150b d03f
000002d0: 2d45 f765 25da c93f 9d47 1e56 3e7d cf3f
000002e0: 2e5c 73cc dae2 d03f 3da5 53e1 c686 cebf
000002f0: b21b e355 7017 ce3f 814f aa23 1e4d 9b3f
00000300: 0a84 9591 4fb1 b33f 26fd 1e6f 6409 cb3f
00000310: f5a0 69a5 3f44 c7bf 7094 4001 c7f3 afbf
00000320: 63db bc8e 2ed9 c83f d1b5 559f 0ee1 c3bf
00000330: bb34 7a80 2f9f 973f fefd b968 4f38 863f
00000340: 292e 5a97 face a13f c613 be3e 345d a4bf
00000350: a499 c1d4 b5aa b53f d4da a334 b394 d03f
00000360: 994d f923 d67e aebf 561e c56e 7704 b83f
00000370: edfe c0f8 a40d d1bf 0980 53ae 5c3a d2bf
00000380: 1831 0463 686b cdbf 65a6 3b1b b9e4 c1bf
00000390: 7c30 758f bacb cc3f fcd1 b33e b4ba d23f
000003a0: 4f91 c8da dab8 c53f fc25 c815 76e3 c3bf
000003b0: 71a1 f8b7 50a6 ca3f 0c3b 7322 001a d2bf
000003c0: 20de 1c21 ac21 c2bf e4fa 4e46 3d3e acbf
000003d0: 76de e4a2 c0a1 cbbf ffdf b4c4 2778 c83f
000003e0: f9c6 d95a 9c44 d2bf 75ce 731d d6fd c73f
000003f0: 418d 9c1b dcca a3bf c3f4 aed1 5dcd cb3f
0.27192202863085785 0.21526172259239304 0.008309607159330127 0.11134893064518636 -0.2513560300303432 0.16892251311860193 -0.353787611114149 0.02145303489394361
-0.2691237698016215 0.10471271735735274 -0.24486981701449098 -0.1865664060391082 0.20225767632036393 0.26579723926589366 -0.2410948551538301 -0.01397708449771609
0.14664845864886766 -0.24724815927957458 0.05683289921001605 -0.044610043507946104 0.20869462974527686 -0.3157477837808095 0.32738196471091324 0.27811336797426794
-0.07603783271671044 -0.09620788409589082 0.20455751659176843 0.029916495669904196 -0.137076304834675 -0.19889733602058263 0.27490699469033747 -0.24736920534799675
-0.17211516497795326 -0.06535216872288577 -0.10613236571356283 -0.3610855172551384 -0.044893188523262524 -0.22766759180273088 -0.29746611647657223 -0.17950709220184521
-0.18767808338715278 0.2857449655343371 0.026039330421772637 0.17327504207843736 -0.20118827153268357 -0.24932607107392912 0.08410056605476847 -0.03784313889589177
-0.21742991699329683 -0.1434370016517089 -0.23098851795961672 -0.07995718015773422 0.023021071774578343 0.03184714260314585 0.2216993719793001 0.010495036758356871
-0.27331760558908247 -0.2432743322675003 -0.052381478155054895 -0.20179257306361872 -0.17199471636848093 -0.23699776052725205 0.2822415245634559 -0.06710859302654618
-0.008055677456335791 -0.19226039450846583 0.2530766996305677 -0.2936234042597954 0.3066014963982838 0.032110820681039834 -0.07895938763450833 0.31026995932560053
0.07670106165927618 -0.022690843331258363 9.64246966842921e-05 -0.24057683447759068 -0.2325496832099706 -0.25427868839225115 0.19144393801790052 0.22131469287879477
-0.01587960750104904 -0.03327565621198904 -0.20919945851489727 0.3336585596882523 0.19496930606932142 -0.23960534253122515 0.11987978361126536 -0.13865027501526145
0.1204326215912795 0.2506764779990107 0.2019697902565353 0.24600962834352638 0.2638461109722269 -0.2384880638340209 0.2350902957316215 0.02666136830028121
0.0769242983274269 0.21122413087685138 -0.18177028252399166 -0.06240674867903173 0.19412786454787598 -0.15530569820422938 0.023068182198177505 0.010849590667247885
0.03478224847375728 -0.039773590716357485 0.08463608211750412 0.25907592907553334 -0.05956143559583466 0.0938181538996273 -0.2664577893483358 -0.28481213592567706
-0.22984032473358051 -0.13979257421242433 0.2249673080899618 0.29264551280292017 0.16970382387911306 -0.1553790670734968 0.20820054038018612 -0.2828369461466742
-0.1416525994952602 -0.05516234858759164 -0.21587379411515756 0.19116685013591447 -0.28543766853464053 0.18743397176841695 -0.038657072420642986 0.21720478762100556

readout.2.bias f8 [2]
00000000: 2c3a c7b3 a01f bd3f d7de f21a d674 ae3f
0.11376385106198289 0.059485140599859036
