experiments/flockingGNN-050-20221018124015/savedModels/DAGNN1LyG03Architbest.ckpt (torch, 9247 bytes, 4 tensors)

readout.0.weight f8 [64, 12]
00000000: e666 6493 8257 d63f 50bc 5db9 4353 d53f
00000010: c0f3 ee60 78dc 4e3f 6876 d51d a8a9 863f
00000020: ea86 52b8 cafa b1bf f913 7c5e 9fec b2bf
00000030: f5bf 4ec5 43ee 63bf 8906 f3ff d9a9 afbf
00000040: 2d1b 367a d650 b83f caf1 28a8 9897 c63f
00000050: ecf0 d622 7f94 b3bf ffa1 b983 7cbc d23f
00000060: 8c54 37ed e4df cfbf aa3d a97e 00fa c5bf
00000070: 69e2 5f09 3f7f b7bf 0704 05d5 37e4 c9bf
00000080: 0b06 6162 ff92 b5bf d23f dac8 dcad b1bf
00000090: 297f 6972 13b1 d33f 0803 5f60 7567 a5bf
000000a0: 0e18 1ac8 87b7 d33f d41e 37e6 f634 b5bf
000000b0: be91 daf9 b59f cabf 5d12 26c4 1a92 ca3f
000000c0: b8a7 67f4 2143 8e3f cf84 f83b 5745 7ebf
000000d0: b053 5ef6 9aec c6bf 2488 c712 2e8c a73f
000000e0: 51d2 bc3d d151 6f3f 8a1b 1743 0cd5 b33f
000000f0: 72c6 bc64 e9d1 ab3f c7ce 1635 26b7 b3bf
00000100: ad6d 1d80 5102 b43f 5676 74f0 6eee b53f
00000110: 5156 6159 db01 b93f e1d4 27ca ff17 d1bf
00000120: d2a3 e913 f0f2 b8bf 648a 3d67 6d73 cfbf
00000130: 62ba 4e1b cbad d2bf 7dfb bf1f 3eaa 923f
00000140: 8470 1796 4adc a03f 3dcd 42fb 7af8 b83f
00000150: 30e7 8efd 1452 ab3f da2a b93b 6d45 c8bf
00000160: af9c 4aa0 9121 c3bf 5eb0 6ea8 7038 c43f
00000170: 5c68 dd6a b59c a0bf 7614 9b00 d16f c83f
00000180: 3600 24eb 0b09 d0bf 54c0 e7ac e8a2 d0bf
00000190: 843d 044e b65d c7bf 8b6a 7ab2 d65e d2bf
000001a0: 31ba f4eb 26b2 8e3f b50a 1ae8 acf3 85bf
000001b0: 801f afda aaa7 bc3f 1624 0f15 abf9 ba3f
000001c0: dab1 6ec8 a61d c33f 0cbe 94b7 5b6f d2bf
000001d0: 0d4f 66c0 8648 c6bf 45f6 2c24 5096 c5bf
000001e0: 318f 428a 7742 b6bf 6934 80e8 eab2 bebf
000001f0: 27a4 6c90 1270 d0bf e2e2 a1e9 775d b8bf
00000200: 1987 3676 a422 b63f 0479 0496 7885 bebf
00000210: 021c 7c89 b4b2 63bf a011 cb7a 2bea cbbf
00000220: 59dd da5d 61f7 cfbf dc0e afa9 b6af ca3f
00000230: 6602 77d6 eea6 a23f 19dd 88b4 60f3 c2bf
00000240: b9eb 5032 40fa c6bf 323b f5f7 ef55 acbf
00000250: c0e8 ae19 50d0 c33f b09e 93ef 006c d43f
00000260: 5db8 a3e5 10c3 da3f fb80 e35c 4c3b 8dbf
00000270: c38d 95d8 422e cabf d269 f900 7bf8 b03f
00000280: 0ad6 42d9 1f51 d2bf 43ff 1779 c9e6 b2bf
00000290: 4166 7fea d532 b43f 42e6 c2e2 1dd1 b0bf
000002a0: 16e0 f96b dae1 cabf 28cc 5e5b 0944 bdbf
000002b0: 909f f700 d315 c23f 87ae 0d0e beaa d73f
000002c0: 7aad 50b5 c1f0 3cbf db75 9cc3 1a7a d5bf
000002d0: 7df5 e0e2 8d1b b3bf af79 cde3 f236 6d3f
000002e0: 4c92 36d2 2e9b bb3f 3baf 7398 d0b7 d3bf
000002f0: 4713 7578 4934 cf3f 4fa0 1373 b9b8 cabf
00000300: 9de6 bf38 f650 cd3f 016f 3a67 ce38 a13f
00000310: b38b fa65 4c27 c43f 06dd 6d54 a36c c93f
00000320: ca00 8c47 3ae2 c0bf cf93 d42f 6a5c b8bf
00000330: d628 32b8 f1c7 bcbf cee3 4915 66d8 babf
00000340: b601 d663 453b d03f 9b1e 4a9d 3a46 c03f
00000350: dd77 15d5 6c28 cf3f 9937 cbb2 a79d 9b3f
00000360: 8146 275d 3d0b d83f ae99 9494 74c1 d63f
00000370: 202a dd6f afec b63f a137 f139 9c96 d03f
00000380: f1e7 b676 0e14 aabf 01ed 9603 a38c d73f
00000390: 8cac 70c7 c612 943f 2045 b467 cb9f c23f
000003a0: 71a1 00f1 dedd aabf efc2 e9e3 e45d c33f
000003b0: 5386 76da c03c bdbf 182c c136 4035 cbbf
000003c0: 17a4 3ce5 19ad c33f 3cb7 dec1 2fff c3bf
000003d0: bc47 2e83 99c4 a03f 29df b202 01ff 943f
000003e0: 21c3 ee90 f749 b5bf af31 9e72 d63a a03f
000003f0: b8f9 788c b624 9abf 4b9f 642f b49a b8bf
00000400: 90d8 a329 1633 bf3f 9133 22b2 5d15 a6bf
00000410: 1a8b 6535 57b4 b83f de65 03b8 78e2 a1bf
00000420: 2997 8dc0 6844 d2bf 9857 6f3b e5b9 a5bf
00000430: ad98 f53f 1d22 a1bf 96f7 cc10 9383 7abf
00000440: 54ca a135 0d61 a43f 2c8e 73d7 a6af d4bf
00000450: 57c5 bd89 e6e5 95bf 3d04 341f 517e d1bf
00000460: bd1d 8b4d 4832 b3bf b00d f9b7 d585 94bf
00000470: 39c1 f1e5 98d9 87bf 6bd3 00b4 f2a0 c9bf
00000480: b5da 376b 720b d53f af26 8e37 0b33 dc3f
00000490: ce2c 950d 2290 893f b011 05ee 0c0b 923f
000004a0: ccf3 ebe3 83db bbbf 87ec c4d8 7252 b0bf
000004b0: 123e b2f1 de6e 9cbf b28e 1027 9255 c2bf
000004c0: 80ec f1a6 2378 a1bf 1e14 c2f6 b7fc c33f
000004d0: 5f80 9c83 4c23 ba3f 8937 d764 61e7 c0bf
000004e0: 2e0a 08bb ab7d 7bbf 8c9c 3c65 b4e0 b2bf
000004f0: c562 de10 0d11 cebf 47a0 047d abed cdbf
00000500: 5725 1ea0 aaf3 503f fe1f 1603 a0fe 8e3f
00000510: 6d56 d2ce a15e b23f 7be9 b0c4 c3f8 903f
00000520: d3ea d2a3 1823 94bf f3c4 0d6d 0f16 bcbf
00000530: 7fdc 4cc6 ac86 b43f ce63 289f 6668 82bf
00000540: f41b 60a3 bf65 cbbf 49a8 5e87 bc06 73bf
00000550: 63f8 db77 f063 c63f fda9 ce14 5045 c13f
00000560: 6969 5da1 d7a7 573f bca1 2b03 e5c0 c7bf
00000570: ef9b dee2 0418 c0bf 7e39 e1d9 9dcb b9bf
00000580: f2be 9761 9d42 bc3f 774f f2db 1a8d cb3f
00000590: e6c1 8507 e639 c83f 920d f246 e6fe bfbf
000005a0: 0c39 ae10 e3d5 a63f b4af a734 bc94 cc3f
000005b0: b3e8 c1da bc53 c2bf 2ce1 23a2 1c36 bc3f
000005c0: dec2 2bb0 bbbf b13f f72f d3fb ae5f b5bf
000005d0: 5d2b 9148 511f b33f 447d 9ecf 157d cebf
000005e0: 0ebe 5cb0 40ce b03f c581 680b 60c8 bbbf
000005f0: 9557 d4cb 79f3 ac3f b94a 1ade 1be0 c23f
00000600: 0ee2 0fc6 d215 d83f 944d 3bb3 9113 d73f
00000610: 7906 d8ea 4fd6 b03f 1b8f 454a d934 c23f
00000620: 82bb 0e2c ef15 bbbf 4d87 7f0c f11a 9f3f
00000630: 2010 b2c7 b5e5 963f 7195 55a3 56af a63f
00000640: 6de8 5dbb b897 a6bf 0699 ee3c 0ca8 bdbf
00000650: 03a0 37c8 d1b4 d1bf 18a6 c96b b718 b2bf
00000660: 302d 93fc 7df9 a03f 40bd cace f284 c3bf
00000670: 7f0d a61f c3a0 98bf 6915 37b2 9557 9cbf
00000680: afce e888 3676 d7bf e900 d9ad 57c9 c3bf
00000690: 36e2 8bc2 a5b5 b2bf abd8 c97c 0d89 d4bf
000006a0: 1f5b 8db5 6bc9 c0bf 6aa0 d3ef e46f c4bf
000006b0: 7ccd 152c e43e 6ebf d621 96b1 29c3 a93f
000006c0: 6c6d fe4e f2bd 983f b900 83bf 3cb7 99bf
000006d0: aea3 7248 8241 c9bf c279 4741 1fa4 7abf
000006e0: 755b eac8 48d9 8abf fc49 852f e81e c1bf
000006f0: 181c b923 15d1 b63f 04c5 57a0 315e b63f
00000700: 244c 5c2b 08b3 aebf a912 d04f 3976 c8bf
00000710: c2ed 7246 e370 b53f 2048 cea7 93ef bdbf
00000720: 2cc0 8f6e ba95 a83f 18f4 b99b 8a86 c43f
00000730: 30b4 3368 42fe cf3f a005 8468 2799 ca3f
00000740: e9c7 7174 09f3 55bf 1e8f 8175 77a8 99bf
00000750: a1c9 d4d0 ead6 b2bf 1d45 71d0 0b12 a7bf
00000760: 7feb 68dd 7879 afbf a8d2 0b5d ab95 c43f
00000770: df32 a4a6 6762 b3bf fa62 714e baf1 a6bf
00000780: 6ea5 bc42 8f5f d7bf 3f23 1571 8861 dbbf
00000790: 4164 ae27 9bdf 983f 51d5 79a3 ba59 cb3f
000007a0: 5c6b ac88 6470 c43f 7917 af15 33de c4bf
000007b0: b499 865c b9e4 c43f f6e1 2c81 36de c8bf
000007c0: c82f 3a11 ef9d c8bf aabc a685 71f8 b5bf
000007d0: e268 5702 59bc a7bf 0623 d33f 7828 c5bf
000007e0: 845b 0b4d 214f 8c3f bc57 b98b 4333 a63f
000007f0: f58a f7f8 9a58 d0bf fb80 a1da e707 bcbf
0.3490911902787118 0.3332070646492342 0.0009418094431264887 0.011065781984764558 -0.07023303031976594 -0.07392307335619809 -0.002432949413979197 -0.06184273957616166
0.09498348697352972 0.17650135241446058 -0.07648462868286615 0.29275429595739405 -0.24902021010226283 -0.17169195351241956 -0.09178537348624051 -0.20227716351840305
-0.08427425529318826 -0.0690591802942884 0.30768285916382127 -0.04180495072751539 0.3080768064613729 -0.08283942337504452 -0.20799898815051948 0.2075837571866427
0.014776482840676994 -0.007390347250777653 -0.17909562139234714 0.045991363327417184 0.003823193239350688 0.07746960294671915 0.05433587412552478 -0.07701338573570658
0.07816037538343919 0.08566945429307657 0.09768458301672324 -0.26708979360348734 -0.0974569367041476 -0.2457100633719903 -0.29185750643492814 0.018227549255239495
0.03293068964168902 0.09754150995540996 0.05336061091607147 -0.1896187345140195 -0.14946194006663435 0.15797241424786795 -0.03244559220793583 0.19091236619547985
-0.2505521580023954 -0.25994316945344065 -0.1825473671856167 -0.2870384924841935 0.01498823554592574 -0.010718680222685387 0.11193340147940312 0.10537213577403323
0.14934239184130044 -0.288046769407601 -0.17408832926286558 -0.1686496903075058 -0.08695170522201746 -0.11991756607331329 -0.25684036354010903 -0.09517621473231544
0.08646610151347679 -0.11922410643135001 -0.0024045492281206124 -0.21808379646075782 -0.2497369488025736 0.20848735127775953 0.03642984741191384 -0.14805229964415714
-0.17951204735603968 -0.05534315015630965 0.1547947049528542 0.3190920199981333 0.4181558840344957 -0.014273258766877897 -0.2045367772617351 0.0662915112856475
-0.2862014409723491 -0.07383403021230799 0.07890068984070188 -0.06569086824574646 -0.2100174929835254 -0.11431940537185936 0.14129102275114436 0.36979628918081925
-0.00044159630971548453 -0.3355776701226582 -0.07463919438392526 0.003566240686651421 0.1078366530624148 -0.3080941666400922 0.24378317243295042 -0.2087623416803148
0.22903325816132716 0.03363652238951254 0.15744929294041085 0.19862786886708522 -0.13190392011165947 -0.09516013782247444 -0.11242590662928661 -0.10486448306791304
0.2536176180801947 0.12714321785118873 0.24342117695317614 0.026968593871792377 0.37568601700795773 0.3555575800877716 0.08954903107693513 0.25919252069877
-0.05093426894332243 0.3679587874464261 0.019602876589641258 0.14550154269867566 -0.052473990363355656 0.15130292061396441 -0.11420827230042478 -0.21256258653224402
0.15372012799460386 -0.15622517553622994 0.03274993635490328 0.02050401286098161 -0.08315989769358768 0.03169889592308849 -0.025530674289478944 -0.09611059338624021
0.12187326923944597 -0.0431317596386186 0.09650178006772273 -0.034930965864713434 -0.285425365486264 -0.042433894639244574 -0.033463396127261326 -0.006473135447604769
0.03980294494330808 -0.32322093048262235 -0.021384813458501153 -0.27333477065264217 -0.0749859990420338 -0.020041789392292564 -0.011645502583832556 -0.20022424496860522
0.3288236662914799 0.44061546731300444 0.012481943168174327 0.017620279338432077 -0.10881828608030658 -0.0637580661031497 -0.027766688825577708 -0.14323641688780736
-0.03411971485999121 0.15614985989319136 0.10210111821334199 -0.13206117080556748 -0.006711645910856974 -0.07374122115708043 -0.2348953564039872 -0.2338156090202139
0.0010346571220643719 0.015134096235456692 0.07175647067409736 0.01657396209723448 -0.019665131567971294 -0.10971161282010992 0.08017997590364877 -0.008988191349134225
-0.21404262044254063 -0.004645096245363752 0.17492490627768395 0.13492775932293447 0.0014438253178555521 -0.18557417540365673 -0.12573300435653276 -0.10076319283800747
0.11039146072993924 0.2152436803777353 0.189266923592654 -0.12498320800846432 0.04460057810421078 0.22328903742834216 -0.14318047219768956 0.11020068129062527
0.06933186579750436 -0.08349126480169376 0.07469661733300144 -0.23819229734088243 0.06564716630668263 -0.108526232514584 0.05654507268097501 0.14746425957544831
0.3763319906425132 0.3605694055852038 0.06577014430515672 0.14223781706379487 -0.10580344033836123 0.030376211536242526 0.02236064940781557 0.044306476057310536
-0.04412629401390764 -0.11584545600507931 -0.2766613440749099 -0.07068964368377129 0.03315347393216894 -0.15249476525557704 -0.024050759131126306 -0.02767785930861547
-0.36659015054758987 -0.1545819853654458 -0.07308422088306873 -0.32086503206609035 -0.1311468731389249 -0.15966474256788682 -0.0036920982826644227 0.050317099502595816
0.024162088462259687 -0.025113057316730834 -0.1973116735219071 -0.006504175271827286 -0.013109749442532717 -0.13375570602745757 0.08912784692903164 0.08737478413219796
-0.0599596550875037 -0.19110790631397848 0.08375378103203615 -0.11693690153904912 0.048017335888176 0.16035587886645497 0.249946881179683 0.20779888728433793
-0.0013396828014973167 -0.025056711718561712 -0.07359187696855553 -0.045059556193004925 -0.06147363379246595 0.1608175472571436 -0.07572028940576157 -0.04481298644595273
-0.36520749585414236 -0.4278279403993572 0.02429048947997026 0.2136758135053847 0.15967995332251916 -0.16303099211489405 0.16323010461674203 -0.1942813997973329
-0.1923197588079104 -0.08582219613048161 -0.04635885385114748 -0.16529753796046281 0.013822803653438027 0.04335986214270757 -0.2554080420797356 -0.10949563110034781

readout.0.bias f8 [64]
00000000: 1e7c e4ec f35c ccbf 9616 c182 10cd a3bf
00000010: 6265 7b90 4e26 ad3f 8de2 b516 5117 9dbf
00000020: b4c1 1c63 34cc d13f b5a5 cc34 67f8 c6bf
00000030: 1915 e969 15d6 c0bf 5848 4b99 20c9 b2bf
00000040: 340c 8ce7 1ae7 9f3f 947c d8a3 1317 d13f
00000050: 84d5 3c52 3b2d c03f 6a3a eb68 1b6b 933f
00000060: ea7d 2bd1 cba9 b33f 809b 0a78 c74e c0bf
00000070: 6e74 24d3 9da9 d03f 092f 6b92 8624 803f
00000080: e9de 33c9 c8fa d6bf d5f2 8c57 b397 a7bf
00000090: a9ad 7686 24a5 aabf 2c7a 5ee1 2521 c3bf
000000a0: 6c18 1932 6799 b93f 2431 deb1 d137 c9bf
000000b0: 4246 0662 9fab bcbf da07 b4a9 12a0 ca3f
000000c0: 09f3 e842 8318 bd3f 7343 4e5c c5e4 a03f
000000d0: 89fc 24f5 58ec c3bf 306b ec28 414e cd3f
000000e0: c05c aa85 36f5 c73f ee29 85ce 1c88 c73f
000000f0: c1e1 eb66 4b4b cc3f 4e36 e8ba 9f7b cf3f
00000100: 2ff3 8d08 f030 c83f 25ec 0b0b 5773 c33f
00000110: 72c7 118a 3c92 d0bf 05ab 6a12 a30c c33f
00000120: 9c66 f4eb 4236 c4bf bf8a a55f c725 c63f
00000130: 97b5 4725 8161 9fbf 4917 de7d 114f b4bf
00000140: ddbd 7879 7c7a b33f 05e2 1e00 5a22 a8bf
00000150: ff5e 7b91 f45b c3bf 6e58 dc02 a728 c13f
00000160: fdd4 ea65 ddcc c03f 229d 1339 e05a c1bf
00000170: 22d2 019a bf7e c73f beee cb03 84a6 94bf
00000180: 646d 564a 70af c6bf b457 19a2 92b5 cf3f
00000190: 1991 b1d1 5eb5 bc3f 4fc1 17d8 858b c43f
000001a0: 56f4 a69e 0121 b5bf 6dba 3a35 2f11 bd3f
000001b0: 877a fa2a f388 a23f 1146 71eb 4865 ab3f
000001c0: 16f2 1529 7de7 c73f 2744 8e01 793f b93f
000001d0: 3c91 865a 2406 a33f 76c9 e8c8 5fc8 b33f
000001e0: 8923 0179 a594 b33f 814f 2f8e 66e0 c0bf
000001f0: 3454 bb7d 172c bb3f 0df5 2711 abcb c83f
-0.22158669535653613 -0.03867389293786265 0.0569328833932541 -0.02840925885309047 0.27808866194666426 -0.17945566251846193 -0.13153331443224017 -0.07338145964175291
0.03115503347636324 0.2670334911399064 0.12638036265859054 0.01896326854585554 0.07680963379561204 -0.12740414964101987 0.260352569764854 0.007882167189925864
-0.3590566601628625 -0.04607925838215513 -0.052041188634884 -0.1494490957674811 0.09999699566933068 -0.19701596436460378 -0.11199375289131644 0.20801003729144335
0.11365528472465426 0.03299538375643509 -0.15565025300927385 0.2289506387540654 0.18717080618509918 0.18384132465355613 0.2210478069826092 0.2459602034218044
0.18899345796298792 0.15195739783652687 -0.2589255665144413 0.148823150627628 -0.15790592690682537 0.173027917578187 -0.0306453875545479 -0.07933148692071969
0.07608774152389892 -0.047137081637121304 -0.15124375442132273 0.13405311240848355 0.13125197864943763 -0.13558581149048005 0.18355555553320452 -0.020166456920363222
-0.1772289622284503 0.24772866168012586 0.11214249248002196 0.1605078988209336 -0.08253488658279315 0.11354346322580407 0.03620109462393822 0.05350711702397971
0.18675198084010053 0.09862476623517634 0.037156234789366555 0.0772762170316009 0.07648691372118156 -0.1318481630574944 0.10614153689978495 0.19371546113681185

readout.2.weight f8 [2, 64]
00000000: 00dd c34e d631 d1bf 4630 8779 992f ce3f
00000010: 26c8 6ce1 1306 a0bf 005e 0fe8 e689 87bf
00000020: cb92 9a3a dd9f cb3f 2d80 8f85 5662 ce3f
00000030: f417 edd8 0bf3 cb3f 296f 2c2f ca51 d23f
00000040: c16e 9adb 9674 c4bf 51ce 2325 16ac c7bf
00000050: f8e9 c795 16cc d7bf eef3 7e94 7694 d23f
00000060: a979 ba7a 8bf5 c6bf fe30 adbb a13c 9dbf
00000070: f92b 7e10 356e cc3f b4b0 a28a 7722 9e3f
00000080: 433c f4fc 4e05 c5bf d75c feaa bc4a b3bf
00000090: aab8 10ef bb26 8ebf 83aa 3ad4 b6d9 c1bf
000000a0: 1901 3194 1025 be3f d2fe 7eed 1ff1 6cbf
000000b0: 2090 43cc cec6 c5bf 22ad 46e8 24e9 c7bf
000000c0: 4bc9 ce29 4838 bcbf 08ea 7052 684c 893f
000000d0: 311b 6ada cde3 b1bf b955 66d0 0536 c43f
000000e0: ef95 c002 0269 c9bf 1a5c 4075 a131 c93f
000000f0: 03e8 a4e5 6fd7 a53f cfc2 4edc de21 c9bf
00000100: 0247 e558 2cff c3bf 927a f209 5e7b cc3f
00000110: e658 fb43 ac9f d1bf 5097 e484 5ec2 cf3f
00000120: d3fe 501b 734b d0bf f766 2d2d 2857 b03f
00000130: 0e21 b597 b463 c03f 0fe9 5163 3caf d5bf
00000140: 61b2 bc3b 6694 d0bf ed45 9e82 c9db cd3f
00000150: 2624 245c 4c3a d2bf 5acd 1d76 d0ac c1bf
00000160: cc6c 3f16 27f3 c2bf dccd 0a04 08f3 cd3f
00000170: 9ff7 7059 7565 cebf 12a3 54d4 6621 c4bf
00000180: 903c fc9e aa9c a4bf 8c8e 867b 224c babf
00000190: ec55 3cae b56f c3bf 6c5c 2c20 9ba0 cbbf
000001a0: f1c4 22da e49c b6bf f5c4 5b90 190f d1bf
000001b0: 7d8b 6de7 8d78 c63f 2802 7101 ec77 a63f
000001c0: e400 a76b 17a4 cbbf 473d 481c d7bf d13f
000001d0: 5e8a ac1d e42b b33f efe7 245a 08e1 9dbf
000001e0: b80f 9935 5850 a23f 287b 78fd 6353 d33f
000001f0: 1e0d 09fd ae30 cb3f 2c4a a7a6 6db4 cb3f
00000200: 425a 7035 0f55 8abf cdd3 fd27 5ac3 cd3f
00000210: dc7b b858 5f9d d43f b531 8b7b 2363 be3f
00000220: ac8b db6d b0e9 cc3f da8f 874b d8e9 d03f
00000230: 4d87 1a8a 6562 c4bf a7b0 aede 5b1c c6bf
00000240: 13f4 7a58 7027 c8bf be7f 201e 7311 a5bf
00000250: 9fc4 6728 d634 c4bf 1060 842c 23c8 c13f
00000260: 6df8 9cc2 c1e9 a7bf d0b7 00a1 4958 d13f
00000270: 835c d4bb aa97 c8bf faff 7528 59af c83f
00000280: 25ac f4fd 5353 a0bf 9a5e f047 83e1 9f3f
00000290: 153e 439a f3aa d73f fab5 0177 e3fd d0bf
000002a0: 1b70 8b2a 6460 b13f 83bd 54d5 6a59 c83f
000002b0: 980e 4cda 8a58 ab3f c863 580c 1f2a d13f
000002c0: 89c5 f9b5 2bf6 ae3f f897 956e b9df d13f
000002d0: 53a1 f03b 68fb d33f dd13 c06f 91b2 bdbf
000002e0: fa7b 3ccf 594f d03f 1a69 ce2e afe7 a23f
000002f0: c469 8f9c 25b0 c0bf cd97 0ce5 8564 a8bf
00000300: 6bfa 3ff8 1b7d a0bf 3fc7 54e0 94d9 ca3f
00000310: df7a abb2 834f ad3f 746d db68 5abc c5bf
00000320: 8d72 f8da 5de3 73bf d606 dd9e ee2d c7bf
00000330: f221 dc6f 8419 aebf a7a2 c05b efe4 89bf
00000340: 496c 2278 546f cd3f 8593 0089 21d1 cabf
00000350: e5ca eb66 0221 c6bf 75c2 5e26 f977 c5bf
00000360: bb7d c0f6 2c6c cdbf 1787 dc56 6b25 b7bf
00000370: a838 c642 ba51 a73f b5b9 d7ad 4477 d53f
00000380: 7d5f 87c3 4232 c83f 088f e474 8cae ce3f
00000390: 9c80 115b 37a7 943f b3c5 3b9a e30a c63f
000003a0: c5a6 17b7 f9ff cbbf 7765 efac 4e68 cebf
000003b0: 2aea 37ef 0ecf ca3f 6b9d 6773 5aa8 cd3f
000003c0: 895d 55a8 a4cf 79bf 5fae 1b30 6b5e cfbf
000003d0: 4ce3 7849 c743 d4bf 56f6 6a12 139e ccbf
000003e0: ad75 7a8a 0fd7 d23f c4bc aaa4 8492 c33f
000003f0: e222 0973 485d c73f 61c7 3e85 c6e5 ca3f
-0.268666817587885 0.2358276217840986 -0.031296368854228526 -0.011493495900068318 0.21581616746438778 0.2373760368491288 0.2183546838006688 0.28624205214304027
-0.15980802271666586 -0.18493916333646834 -0.37183155657808653 0.2903114748149268 -0.1793684338817461 -0.02855160434710146 0.2221132593661819 0.029428356014862003
-0.16422450400611596 -0.07535914587639368 -0.014722316964334976 -0.1394566093707291 0.11775306337313331 -0.00353294597513796 -0.17012963270019643 -0.18680249539952692
-0.11023379345605126 0.012352767005826784 -0.06988226492294981 0.15789864230889153 -0.19851708540333798 0.19682710862318303 0.042659279616103184 -0.19634614712915385
-0.15622476902586163 0.2225148724146107 -0.27537066115236397 0.24811917771256242 -0.25460508029571577 0.06382990935290055 0.12804276855082047 -0.3388205499574192
-0.2590575774545752 0.23326987150043924 -0.2848082446876695 -0.13808637397196827 -0.14804543100658518 0.23397922704098917 -0.23747126452684328 -0.15726933829980588
-0.04025777045000567 -0.10272422328722025 -0.15184660918809756 -0.2158388049217338 -0.0883315117414616 -0.2665466222525333 0.175554025651845 0.04388368146510785
-0.21594517475569497 0.2773340011780942 0.07488847469770962 -0.02917874384113611 0.03576923040648644 0.30196475747100004 0.21242320399515163 0.21644373547913298
-0.012857550447774039 0.23252417519293403 0.32210525192379946 0.11870023504452017 0.22588162769451736 0.2642727601617004 -0.15925282710400737 -0.17274044392741425
-0.18870357818914893 -0.04114875548134432 -0.15786244366566834 0.13892020868002009 -0.04670529842995639 0.27101364825182106 -0.19212850734104245 0.1928512046397371
-0.031885742903192495 0.03113370062427965 0.369809055945525 -0.26549612638231646 0.06787706412018261 0.19022879997781325 0.05340989985236638 0.26819587903588316
0.060471883739306405 0.27928005027058544 0.31221967557441593 -0.11600598314551243 0.2548431896011035 0.03692386099210605 -0.1303755773977412 -0.04764192982683788
-0.032204507879204446 0.2097650618903177 0.05724727207210888 -0.16981058235146984 -0.004855505583262099 -0.1810892368030667 -0.058788431792041865 -0.012643690097392591
0.2299600206941668 -0.20950717153132473 -0.17288236642305957 -0.16772379277746877 -0.22986375854905625 -0.09041472311630759 0.04554540696254722 0.3354045579607388
0.18903383776955343 0.23970180232674232 0.02016912930810176 0.17220730811054138 -0.21874925079401045 -0.2375582069787858 0.20944391899668463 0.23170023570058204
-0.0063015396056792594 -0.24506893013982542 -0.3166368691923267 -0.22357405089671784 0.2943762638404575 0.15290887871149128 0.18253427140213946 0.21013719087710128

readout.2.bias f8 [2]
00000000: a95d c889 c2eb b0bf 65ce 452f 5bd8 803f
-0.0660974108108038 0.008225166683337901
