experiments/flockingGNN-050-20221018124015/savedModels/DAGNN1LyG05Architlast.ckpt (torch, 9247 bytes, 4 tensors)

readout.0.weight f8 [64, 12]
0	0xbfd098115b5535df	-0.25928148192619277
1	0xbfd1a9f0718e28e2	-0.2759972676218593
2	0x3f992b95bdf0d008	0.024580325811442122
3	0x3fb6e8c553a989c4	0.08948930065665822
4	0x3fb915d6f7f167db	0.09798949769302061
5	0x3fb859028c3a09fa	0.0951081840849283
6	0x3f9a6557b4b5545a	0.02577721634346051
7	0x3fb53c67d2e332d2	0.08295296572323288
8	0xbfbaf27b1080e629	-0.10526246216695569
9	0xbfa767740b5601ea	-0.045711161025795935
10	0xbfc7646e1fbaa204	-0.1827523856093337
11	0x3fd206e119ab2dfe	0.2816698790236102
12	0x3f8307e9958a4be1	0.00929243552790199
13	0x3fa3d6e25bdcd1fc	0.03874881144875883
14	0xbfd1a5a141b48c41	-0.275734247365282
15	0xbfc2483d750d3e19	-0.1428295918981213
16	0x3f769ada9664633c	0.005518773896505288
17	0x3fb2130967afc7a5	0.07060297757541763
18	0x3fc2e1ce59722de3	0.14751605384331787
19	0x3fcda59f9136b17e	0.23161692228803682
20	0x3fa75cababff319f	0.04562889551707205
21	0xbfa9bbbf8bd57e78	-0.05026053029973537
22	0xbfcd6cc428b396be	-0.22988178241137364
23	0x3fbf61ea02407a06	0.1225878005502424
24	0xbfd7a04e17a6a77c	-0.3691592436758737
25	0xbfcfc591ae7b8069	-0.24821682948732196
26	0xbfb7cc5bbb2ca3fa	-0.09296201057135525
27	0xbfcff5b4057ada0a	-0.24968576686451655
28	0x3fd021dd9933d8ee	0.25206699334320504
29	0x3fc545318f733beb	0.1661741209449866
30	0xbfb38d4482a3eca9	-0.07637432279072932
31	0xbfd0f4c60d599ecd	-0.2649397974368924
32	0x3fc1e7775a25d299	0.1398762884306464
33	0x3fb053d9454656f4	0.06377942982939172
34	0xbfc8103ff4bd1cd4	-0.18799590540058964
35	0xbfc82e05f8434614	-0.18890452024656723
36	0x3f96fc356314142d	0.022446474239604598
37	0x3fad04008da4c17f	0.05667115906760766
38	0x3fceb168257d5f63	0.23978902655175735
39	0x3fc1238dce418e89	0.13389751978967393
40	0x3f7cfa04af293c10	0.007074373529191838
41	0xbf8970ea8fae687e	-0.012422401914410349
42	0xbfbe9038e58bcdcb	-0.1193881569304757
43	0xbfbbf96c908a3568	-0.10927465943151093
44	0xbfb30ee7c1a16c3a	-0.07444618680294549
45	0x3fc3ef150d8541e2	0.15573371086294602
46	0x3fc36cfd5f16de9d	0.15176360266717817
47	0xbf9ef0d9db339331	-0.030215648654933595
48	0xbfa2b6cdd9d8a10d	-0.036550934641413325
49	0xbfbe02c70e49b119	-0.1172298822290866
50	0xbfcf19a3cccd8534	-0.24296996593606368
51	0xbfcaae40d4c4cb08	-0.2084427870664387
52	0x3f96f34a7768b37d	0.02241245607199315
53	0x3f7eddb7fa7a4f0f	0.0075356661469816585
54	0x3faf72cd6631cebe	0.06142274734966467
55	0x3f9972b9fecb4251	0.02485170953406374
56	0xbfc82849fb969101	-0.18872952255799905
57	0x3fb7d29b9a745602	0.09305737038479125
58	0x3fa1e854f4ffdb99	0.03497567644801975
59	0xbfd0e2531a75a88d	-0.26381375869699114
60	0x3fb46f09db15fb0a	0.0798193130376427
61	0x3fbcaba611d213f7	0.11199415144990597
62	0x3fd1b0e5fd0ded67	0.27642202102989305
63	0x3fd4d099b57a83a7	0.32523195955769285
64	0xbf9572f1560dbdaf	-0.020946284177112136
65	0xbfb955912c91ad16	-0.09896190012084491
66	0xbfc444dd0751d6e1	-0.15835154397398468
67	0xbfc9115da12deda7	-0.19584246034706362
68	0x3fb2e20f008f3014	0.07376188052802518
69	0x3fae9d9aef0e3598	0.059796182328777536
70	0x3fd54c60f052e0ad	0.33278678387751875
71	0xbfd45de28ef1d57e	-0.31823028525771935
72	0xbfca89174a39f30f	-0.20730868458112936
73	0xbfd0895862f488d3	-0.25838288940043447
74	0xbfbbee95bae9d2bb	-0.10910926640810718
75	0xbfa9f87b4ca4971e	-0.05072388945181515
76	0x3fb745abb4b2a24c	0.0909068409115516
77	0x3fb1a0d7d1b36354	0.06886052007338367
78	0x3fafaf74c9dbe939	0.061885499611849366
79	0x3fc56aee048d5925	0.16732573721191915
80	0xbfba076d1f75b8f3	-0.10167581575453592
81	0x3f947e93d0d59ce4	0.020014104481927655
82	0xbfc5df7f914ac676	-0.17088312715854997
83	0x3fbaa47096e13bc4	0.10407165225591003
84	0xbfd39432248f792d	-0.30592015810352075
85	0xbfdbed3a4150b32c	-0.43635422113838973
86	0x3f92aa02661e49f7	0.018226659281546955
87	0x3fa7cfdfad3d69dc	0.046507825753639515
88	0x3fb3f4e2facc3957	0.07795542357437078
89	0xbfccaa16a9bfe0fc	-0.22394068993140326
90	0x3fac9d8cf441aa18	0.05588951570173978
91	0x3fd2eda603c0ea3f	0.29575491301116935
92	0xbfc2a33c7ffaa2ad	-0.14560657738663477
93	0xbfcb03c3d628794e	-0.21105239827097438
94	0xbfcb6bc346103643	-0.2142261592966169
95	0x3fb15f71eb211fca	0.06786262503112464
96	0x3fcb4032501ea67d	0.21289662277313318
97	0x3fc95d8906c28b82	0.1981669695861364
98	0xbfb976dc6ae7c7e7	-0.09946992502207729
99	0xbfc649bec9ace667	-0.17412552688056168
100	0xbfb3eed35e289145	-0.077862940299899
101	0xbfc2d7b3ecf16676	-0.14720772809487287
102	0x3fb0fde940fe5c80	0.06637437664754664
103	0x3fc563f1266a4e54	0.1671124875616551
104	0x3f96c0ca61b18026	0.022219812596063225
105	0x3fc087ec54fe957a	0.12914804601784252
106	0xbfb1005d74c18856	-0.06641182041633562
107	0xbfbb9dfba783dcf7	-0.10787937965129744
108	0x3f99d61c6b87f874	0.025230831206493012
109	0x3fc00c8ac80a0144	0.12538275496991436
110	0xbfcd736b3825e396	-0.23008480302430873
111	0xbfd0eba700ae2a3f	-0.2643830782550686
112	0xbf94bc25940dbc9a	-0.020248973046758857
113	0xbfb39cb663871c81	-0.0766099923122159
114	0x3fcf4218ac4343ca	0.2442046013952946
115	0x3fc771ce8ec76f81	0.18316060992844643
116	0x3fc07a7c35499870	0.12873795129707188
117	0x3fbf5ce708f7720c	0.12251132935438863
118	0xbfc81acd282699f7	-0.18831791363227499
119	0xbfc1cfdb23a923cf	-0.13915576211209532
120	0x3f93196876d734f5	0.01865161156984115
121	0x3faaff8b43fb2dc2	0.05273089604233007
122	0x3fd0348741dc113b	0.25320607596974626
123	0x3fc13ca8cc59abec	0.13466367700615878
124	0xbf512986757f95cb	-0.0010474980426747767
125	0x3f5f23ccef81d318	0.0019006253551456295
126	0xbfa01f897db9ee02	-0.03149060878510214
127	0x3fcf4ebc6eccdd25	0.24459033403557232
128	0x3f85e5008881b410	0.01069069305978057
129	0x3fc72abf61a678e8	0.1809920527275104
130	0xbfb7b11f0e5072b7	-0.09254640674084667
131	0x3fc218ca46658225	0.14138153493242203
132	0xbfd1e073f5264d4f	-0.2793245214499693
133	0xbfb8d29f8790da5c	-0.09696385440552419
134	0xbf948f9183f47b8d	-0.020078920058149975
135	0xbf863f2c3f04d3f1	-0.01086268012350364
136	0x3fc319e5f4d14419	0.14922785238243888
137	0x3fc06fc797cd31d7	0.12841124450859695
138	0x3f2bd2e916939890	0.00021227927508177648
139	0x3fb1ec56e8887c8f	0.07001250435904381
140	0xbfd2c04aa25de437	-0.29298654419068576
141	0x3fcb97d831de95f4	0.21557142672570218
142	0x3fc12008fd1fa815	0.13379013404420506
143	0xbfb8e8045f4c4d5b	-0.09729029966938667
144	0x3fc96861db26e4ff	0.19849799347665706
145	0xbfb53d0f8e85d49c	-0.08296296338615367
146	0x3f963a28d1a60334	0.02170623569100201
147	0x3fb31d6d8f8274c7	0.07466778520252425
148	0xbfa93e608abd746d	-0.049304024635355194
149	0x3fd10238a445a2ae	0.2657605747431643
150	0x3fabc34193631085	0.05422406124265059
151	0x3fd6bd49eedc496e	0.355303271543696
152	0x3fb5586c7246c579	0.08338048734619531
153	0x3fc55da06a5a021a	0.16691975777577356
154	0xbfc4100db1175643	-0.1567399134352617
155	0x3fc92b154ee8df26	0.19662729599962708
156	0xbf91bf89b74a6c8e	-0.017332221805741947
157	0xbf9f016954e04211	-0.030278821759624878
158	0xbfd27474896c7e67	-0.2883578626660665
159	0xbfda2ea4c7840b9c	-0.4090969036480432
160	0x3f827ed4dcf0da8a	0.009030974381045515
161	0x3f94226f7f136997	0.019662611132710586
162	0x3fb4cf42dabcd526	0.08128755417131525
163	0xbfbe1bf3bb1fde06	-0.1176140148016814
164	0xbfb6f14f09f8dbff	-0.08961957925281182
165	0x3f956d0f220ce3d0	0.020923840001362326
166	0xbfab06632fbb7eb6	-0.052783107353886846
167	0x3f85ddf5aac0c960	0.010677260659666288
168	0x3fd4bc99a7f8bfb6	0.3240112438534156
169	0x3fb282b0a9941255	0.07230667247865459
170	0xbfb31173e02254c7	-0.07448505613349986
171	0xbfcc276632d86dc8	-0.2199523685711553
172	0xbfd0cc0d25d8f079	-0.2624543065646843
173	0xbfd2a44bd277620d	-0.29127784303048615
174	0xbf8cc34f280cada8	-0.014044397744860174
175	0x3fae85f0e3f27a61	0.0596156385665736
176	0x3fd9b39d2e359e7a	0.40158776772157234
177	0x3f80c8f1501e4fa9	0.008195767648238777
178	0xbfbe21bdce18378c	-0.11770235330206286
179	0x3fcce7c25653ba77	0.2258227273482196
180	0xbf82e5efc56db395	-0.009227631771602943
181	0xbf8e379927d0619c	-0.014754482772375614
182	0x3fcb8f0ee8499765	0.21530329076920932
183	0x3fb5cd4fc0c7feca	0.08516405541012798
184	0x3f5e5217bbd3cfb6	0.0018506271147176018
185	0xbf84678e1740fed0	-0.009963140568401668
186	0xbfa9cd160cd62b22	-0.050392808024375194
187	0x3fb2512fef523083	0.07155131905364169
188	0xbf92f3f07b3b9871	-0.018508679887326133
189	0x3fcafc8a7fb4c17d	0.2108319400372344
190	0xbfbac74bd498be41	-0.10460351887081122
191	0x3fa82015cd107a16	0.04711979034640394
192	0xbfd05c52b4791d50	-0.25563495277716175
193	0xbfc9cd785dc58f5b	-0.20158295229623033
194	0xbf9d663e2ceea11e	-0.028710338108482884
195	0xbfb6d16c1b2fa04b	-0.08913303054544135
196	0x3fb963f71a4c4054	0.0991815985873939
197	0x3faa7e9f776999d5	0.05174730618164217
198	0xbf6bdd25d032a939	-0.003401349882172469
199	0x3f830a4fa7c7255f	0.009297010715175245
200	0xbfa373b47a0ffba5	-0.03799213399906102
201	0x3fad4cc31642a668	0.0572262730286866
202	0x3fb5d80254916c6a	0.08532728733682551
203	0xbfc666171c0e9cf3	-0.17499054784750676
204	0x3f91e3086e6fd238	0.017467624416854316
205	0x3fcaf38202e91b5e	0.21055627004735816
206	0xbfd496b43479593b	-0.32169823765197564
207	0xbfdc08962c652e6c	-0.43802408538315407
208	0x3f90145c1a8ccb13	0.0157026663975542
209	0xbf8afebc189c695c	-0.013181180478160463
210	0x3fc0f359e525f459	0.13242648781661862
211	0x3fbfa66adc2f8972	0.12363307834269735
212	0xbfc843b2a4073118	-0.18956597336944792
213	0x3fac6ced6e7c62c6	0.05551855062203041
214	0xbfbc0660ba37855e	-0.10947231813726918
215	0xbfc2e690d66a89f2	-0.14766130895175383
216	0xbfd1ed839aa90b26	-0.28012170890376564
217	0xbfdbe303d409e5e7	-0.43573089320088204
218	0x3f9d4d2289cf45f8	0.028614558850511757
219	0x3fba3c39f4a2ba1c	0.10248148176717858
220	0x3fd0c6ef03630555	0.26214194613210867
221	0x3fcfd04744dde026	0.24854365217811497
222	0xbfa030d2bf4fc39d	-0.031622491696800405
223	0xbfc64b0dfe2bea31	-0.1741654864379867
224	0xbfcf8726a0c34374	-0.24631197786086612
225	0xbfb13cde9cb95368	-0.06733504606502339
226	0x3fbf58a092c23775	0.12244609435057703
227	0x3fbb68faeb655f1f	0.10707062003109201
228	0xbfc4ea6d0e2413a5	-0.16340411367869226
229	0xbfb8b49157f456ee	-0.09650524518323397
230	0x3f9a2df99f139ed2	0.02556600602556964
231	0x3fbee4c1c23cf586	0.12067805282727848
232	0x3fde3d3c99138d26	0.47248759220947745
233	0x3fb22ed8de525f61	0.0710273306634668
234	0xbfb08f86fac1a698	-0.06469005224212265
235	0xbfa25bf818473622	-0.03585791870464684
236	0xbfc796d028da5473	-0.1842899512745678
237	0xbfc2a2cab8403190	-0.1455930137311836
238	0x3fc5cffacc0a43ab	0.170409536007836
239	0x3f810aa7a3371274	0.008321103733473147
240	0x3fc1f408b3526cf9	0.14025982624011826
241	0x3fc38bd75da52f09	0.1527051169635956
242	0xbfb884c9faf863e0	-0.09577619912342028
243	0xbfb191cf51dc26cf	-0.06863113163503985
244	0xbfd741f414cb9f4a	-0.3634004786567756
245	0x3f80228069c60628	0.007878306606246957
246	0x3fd5d856ae765507	0.34132926022842053
247	0x3fc21ad6123b3ab9	0.14144397630885466
248	0x3fb157621362637c	0.06773961041689164
249	0xbfa9090e361fd980	-0.04889721308420558
250	0xbfd2ccb8ed942cc2	-0.2937452621560618
251	0x3f5e5e53e43279ab	0.0018535441638857046
252	0x3fceb8460744839b	0.23999858240952396
253	0x3fcb7a0937758200	0.21466174323997222
254	0xbfb222c379b96353	-0.07084295007497347
255	0xbfd0622e315d27dc	-0.2559924585408433

readout.0.bias f8 [64]
0	0x3face60a53595325	0.0564425684685033
1	0xbfb4e6b8a2e77b7f	-0.08164552666810997
2	0x3fd7bcb2ee6df6b2	0.3708922699368983
3	0xbfa0ddb032e2b451	-0.03294134732400578
4	0xbef409132a70c9e1	-1.9107292839668186e-05
5	0xbfb1c40a49514bfd	-0.06939758577327378
6	0x3fbba52889c3ef7f	0.10798886645710402
7	0x3f93c383ad77ee2d	0.019300515616107617
8	0x3fbfc6037e95cbf0	0.12411519852120967
9	0xbfbdb000480fda95	-0.11596681365322532
10	0x3fcb93e0277fdc30	0.21545030525860076
11	0xbfb6a5712a4f9cac	-0.08846194537146584
12	0xbf92c613dbd9b0bc	-0.018333730977631232
13	0x3fafff97ecb3a787	0.06249689831186261
14	0x3fd27c81544c90d7	0.28884919388134506
15	0xbfc2a4dfe51eba92	-0.14565657317639996
16	0xbfbdf7e72e1b16e9	-0.11706395030622797
17	0x3fbfaee87afeb595	0.12376263621145818
18	0x3f69a8fedbf1e0c1	0.003132341167255332
19	0xbfa5c0f206c03e1d	-0.04248768169793158
20	0xbf5a9007597711f3	-0.0016212531826208492
21	0xbfc459ce0621cc41	-0.15899062442221815
22	0xbfc91ab96f7c7e19	-0.19612806266467045
23	0xbfb81c2c032501f5	-0.0941798694302703
24	0xbf863055635d3b4e	-0.010834376425604166
25	0x3fa5a2bf94ae4785	0.04225729646635926
26	0xbfc60608bab202b1	-0.17205914607986508
27	0xbfb5cd5b0ee68e62	-0.0851647292498057
28	0xbfbd63f99ac9a957	-0.11480674771306575
29	0x3fceb0408688e0c0	0.23975378579212325
30	0x3fb41a637c2ecce6	0.07852765828902228
31	0xbfc09baeccd7edd4	-0.12975106241343204
32	0xbfa58bedf207503b	-0.042083202166083265
33	0xbfd1dfba7639785e	-0.279280295804602
34	0xbfad3a56b683498b	-0.057085714129828956
35	0xbf85975e190d6187	-0.0105426169772478
36	0x3fb9e84e075b7014	0.10120093993776919
37	0x3fb8050e2e803059	0.09382713923713605
38	0x3fd5b63c8c9bd02c	0.33924783450425156
39	0x3fa55c7634b0a4f6	0.041721052104842046
40	0xbfc4edb68326c8b2	-0.1635044231784995
41	0xbfb18ebb545b7a5e	-0.06858416375642082
42	0x3fc40614a7d85b69	0.15643556781352722
43	0x3fc787d3600fb9d7	0.1838325709390591
44	0xbfade9f1f036ccba	-0.05842548425007395
45	0xbfa671ad68745f7b	-0.04383603954391809
46	0x3fb87db620b3300d	0.09566820429171248
47	0xbfa4c73aa7502090	-0.04058249752421361
48	0xbfc67231c9f7ce9b	-0.17535993921011514
49	0x3fb17ab52e1f9787	0.06827862144527162
50	0xbfafeeae0d6e6509	-0.062367858066133826
51	0x3fc5d06b7521336e	0.17042296618674463
52	0x3f990147b0065303	0.02441894542569668
53	0x3f8ec458aad77c5d	0.015022938455272855
54	0xbfc65581c2e21a05	-0.17448446288854327
55	0x3fca1cba1ebafee7	0.20400167942533828
56	0x3f94ff55a21e5b32	0.020505273837979128
57	0x3fbe55fd61ed624d	0.11849959984591259
58	0x3fc04814d52d7c37	0.12719974907938233
59	0x3fcd558dd1afc0e8	0.22917340029335453
60	0xbf95a4cd8ecf64f5	-0.021136485902251107
61	0x3f944e0a4dd340da	0.019828949928354024
62	0x3fb6891a388774e1	0.08802951698403973
63	0x3fa399489670f63c	0.03827883564416054

readout.2.weight f8 [2, 64]
0	0x3fcd903ada5d18e5	0.23096404707229748
1	0xbf943c72302b86e6	-0.019761833372178204
2	0x3fbf96442618a195	0.12338663034518611
3	0xbfaac7f41410beb5	-0.052306773614302506
4	0x3fb6a03d966b2c13	0.08838257715540036
5	0xbfcb5de566c87a35	-0.21380298155504965
6	0x3fd2e88d81ced504	0.2954438941627162
7	0x3fd607f34621f232	0.344235247124547
8	0xbfc7fdd20a349612	-0.1874334859686973
9	0xbf685b0ebc9defa1	-0.0029731071307974176
10	0xbfa3210391dc2edd	-0.03736125140684774
11	0x3fd4e996e45b1eb2	0.3267571668661545
12	0xbfd7e29a4f6c70c5	-0.3732057357426693
13	0x3fbd77cf06450ae7	0.11510938551968374
14	0xbfc67e2766b7fa38	-0.17572491183814676
15	0x3f9947b40863ddac	0.024687588703242433
16	0x3fd3bc07435c1382	0.3083513410386375
17	0x3fa63ec4ff09b550	0.043447643406447356
18	0x3fbfbfd726af236e	0.12402100271641611
19	0x3fda0c2c129c41c7	0.40699292962474626
20	0xbfd1f5d2b1d9a415	-0.2806288468187302
21	0xbfd266e372bc80c5	-0.2875298138114995
22	0xbfcb72b37f730244	-0.21443790171726296
23	0xbf76088d9cafea00	-0.0053792506905616655
24	0x3fb5e7705b4c9c58	0.08556272725091796
25	0x3fcc72dd080ac9b1	0.22225535290415402
26	0x3fc7d639ebf324eb	0.18622516652093365
27	0xbfd00aed75c1582e	-0.2506669664338713
28	0xbfd4acd9150d91c5	-0.32304980331380434
29	0x3fd06a93f3852126	0.2565050008893358
30	0x3fba520e83d0f918	0.10281458585902603
31	0x3f68b5fdfe09030d	0.003016468123206889
32	0xbfa2155010e1da0f	-0.03531885343629792
33	0xbfd3af6b56d29380	-0.30758174399152693
34	0xbfd16fd32023f2a4	-0.2724502385970402
35	0x3fd6ce3040caadcd	0.3563347466212832
36	0xbfb51cdb101e5983	-0.08247155326384896
37	0x3fcff64f0f0f1212	0.24970424876495706
38	0xbfd3e6dc833bc673	-0.3109656602456205
39	0xbfb3651047ce71df	-0.07576085808836507
40	0x3fa88b6731b0ef7f	0.047938561263861416
41	0x3f8990e040688a92	0.012483360257708829
42	0xbfd79b381c1a49f4	-0.36884882683185016
43	0xbfd4156ed5f081f1	-0.31380816357162106
44	0x3fd6dda922494762	0.35727909420267256
45	0xbfc5f6de9373df70	-0.1715963573440109
46	0x3fd5aedda27f28ed	0.33879795903034343
47	0xbfd43160d108bfeb	-0.315513805518093
48	0x3fd45e2a1040bd4c	0.3182473334045042
49	0xbfb01df45a5fcbf2	-0.06295706945802218
50	0x3fd2c88dc08dadeb	0.2934908275990142
51	0x3fc6e335f493f8b7	0.17880892221723396
52	0x3fd6c121ec3a2aaf	0.3555378729730973
53	0xbf9ea66a31ee9b66	-0.02993169717560864
54	0x3fa8dc3d057b4ccd	0.04855528537668761
55	0xbf9c48fada636706	-0.027622146205295038
56	0x3fce76f87c8f1d13	0.2380056961248803
57	0xbfc23779634b4735	-0.14231793735830825
58	0xbfcc341e780961a1	-0.2203405462376056
59	0x3f9e2de19a251aaa	0.02947189811063803
60	0x3fa2196064e9c900	0.03534985763407583
61	0xbfc1c37aed1261b9	-0.13877808166286146
62	0x3fc2b94f5c2d75e8	0.14628021241053024
63	0xbfc7fe57415aeb85	-0.1874493664853071
64	0xbfbdfa8bf28d3615	-0.11710428878469543
65	0x3fc86cbd88e7d806	0.19081849274488166
66	0x3f9666756759c989	0.02187522357275776
67	0xbfd42185c81004c0	-0.3145460561500606
68	0x3fd1d169eb8db943	0.27840660098344844
69	0xbfcf883c1c64d4c4	-0.24634505640429982
70	0x3fd28f7cbcd33bb8	0.2900077671046648
71	0xbfc4055852ac7d4f	-0.15641311680608758
72	0x3fd0a2177ef34be4	0.25989329717157106
73	0x3fceddd188f7de33	0.2411443632879454
74	0xbfd6a382176b2a80	-0.3537297466943201
75	0x3fc3e3d581a16a6e	0.1553904421769689
76	0xbfb1776c61ce25ea	-0.06822850597213628
77	0x3fd39ef1824122eb	0.306576134873963
78	0x3faa3b947d3d60e4	0.05123580960088406
79	0xbfd136af03d7f39f	-0.268962625268438
80	0x3fc871a66f5c186d	0.1909683269261139
81	0x3fc40474d573d240	0.15638599798661978
82	0xbfa5ec417222b57e	-0.04281811254746069
83	0xbfbdccf84d9019ee	-0.11640884297967322
84	0x3fcdcee3f3507878	0.23287629490454598
85	0x3fca6da115c9ac31	0.20647061885697007
86	0xbfa053da985816c7	-0.03188975438756141
87	0x3fd0142f62be2eba	0.2512320007597101
88	0x3fd6f7a3e6b7a53f	0.3588647606944341
89	0xbfce1e044a997a67	-0.23529103891901856
90	0xbfaf4edcc9b1ec68	-0.0611485477647527
91	0xbf90bcbb2db3b4c6	-0.016344952263285938
92	0x3fbcbff402e0a131	0.11230397291422346
93	0x3fb67cc6a3b122ea	0.08784142967591504
94	0xbfd11e6ff7c95a7f	-0.26748274991897597
95	0x3fd603cc1191a97e	0.34398175922128604
96	0x3fd5f7f109820b69	0.34325815132631604
97	0xbfaa52a821c110da	-0.051411871071225426
98	0xbfa077e16679738d	-0.0321646154013485
99	0x3fd4e8d28e5d9653	0.3267103567398852
100	0xbfd4e229a9796579	-0.3263038783093957
101	0xbfa958ce0198ab67	-0.049505651183003256
102	0xbfc095455922f925	-0.1295553860890745
103	0xbfc8b5cfe7c7e3f8	-0.1930484658949181
104	0xbfd5fba8a57c4ba9	-0.34348503266044844
105	0x3fd029bf0139a929	0.2525479804959497
106	0xbfa39037a5b66cec	-0.03820966623171693
107	0x3fc1395b7cbac9c3	0.13456290808023938
108	0xbfb3c0556cbeb631	-0.07715352921396669
109	0x3fd372a811c70c8b	0.30387307869040886
110	0xbfac05944d8d70c1	-0.05473006674466908
111	0xbfd453298d831f33	-0.3175758249239948
112	0x3fad394e526a7a28	0.05707783466390409
113	0x3fccf9d8ac0e1b4e	0.22637470627906925
114	0xbfcec0d626507dab	-0.24025990362950486
115	0x3fd4237ded604ca7	0.31466625386492314
116	0x3f82a139fd21f607	0.009096577680106866
117	0x3fbab91ffbb0de45	0.10438728232190282
118	0xbfca0b78256213c7	-0.2034750158819902
119	0xbfd01b4b0f6f8e24	-0.2516658449878568
120	0x3fd2ac7917771e13	0.29177691737683736
121	0x3fc5cadaa7656e29	0.17025311635630772
122	0xbfa92aca5d415e1f	-0.049154590495785515
123	0xbfc8343da83c3891	-0.18909426416980016
124	0xbfd7a435c037b18e	-0.36939758082623875
125	0x3fd582c5837a7696	0.3361066612213589
126	0x3fd292b68d8dca53	0.2902046568262097
127	0x3fd27c97a1079fdc	0.28885451055111644

readout.2.bias f8 [2]
0	0x3f93d84845a6d4f3	0.019379739047242727
1	0x3f9e717b6252a3f8	0.029729774356983513
