experiments/flockingGNN-050-20221018124015/savedModels/DAGNN1LyG00Architlast.ckpt (torch, 9247 bytes, 4 tensors)

readout.0.weight f8 [64, 12]
-0.012840716563529067 -0.1251368332501249 0.1770432447354286 0.08134042454444865 0.04227775376707502 0.2132323495546814 -0.08652975116344895 0.0005070413455820528
-0.17908512013781833 0.044725424861329084 0.11374166472564687 0.033060349442844604 -0.3148080623758605 -0.2851756632986817 0.01141530606420581 -0.05469056529537137
0.08976972912560555 -0.07551384953050157 -0.0010780520679018522 0.07697605129845612 0.04464127669247113 -0.33956408925433595 0.1820232034551676 -0.2529732422909355
0.27699476670506495 0.32374634986278616 0.029695532708158116 0.0846263985526061 -0.10154030298403731 -0.09165473052625006 0.004951395060164329 0.007709541174423678
0.010607351894240146 0.09400618278093498 -0.14111007480555604 0.1786517801444649 0.01537811676223819 -0.08756595812169629 -0.3575534925355198 -0.026569123704293613
0.10168523573917265 0.003907846174024115 0.24127199865978347 0.041427361672704256 0.15053358012778653 0.09468624525091549 -0.16812762907105067 0.28314381563817437
0.008778032413972356 0.01819116593329433 -0.3038303586967521 -0.286508210100144 0.002192708927619117 -0.03492433797251542 0.1570351504923964 0.24117244064520452
-0.09009585309259653 0.0834501425994171 -0.28330684251809557 0.1839165811699551 -0.32343002666523757 -0.11815673803504362 0.05703159221640369 0.19341413100068672
0.1658559867285575 0.0700667861083143 0.003349654183495253 -0.02310889638743799 -0.31787430258469146 0.1316646737346156 -0.14090812322600405 0.3092765564212978
-0.03194556225101479 -0.10162695433758963 -0.26192686522462916 -0.17771155000411737 0.001430032879647689 0.046267586530338675 0.3023897613858754 0.09054697805036273
0.01748467656191317 -0.1204629490296864 -0.1948185741442542 -0.15547569226948704 -0.05418234843564357 -0.1315170829500617 -0.32696094010713966 -0.4697124115848654
0.037305058112893544 0.11650730224388395 0.13449511068202902 0.03443310139242848 -0.16502686397619334 0.12901239890064745 -0.2527798999322698 0.20516956264041727
0.03138412973538154 0.10524525949173573 -0.20488756631313598 -0.013055074855489766 -0.008931716028840608 -0.07562261382181104 0.14299358106430796 0.2942569901448379
0.004582952297899558 0.23685979266032856 -0.2663793686775376 -0.15360590305361826 -0.3338880871315784 -0.2921208617659763 0.06782534509080101 0.22857949903677532
0.03618566802851268 -0.33022893668558895 -0.020882164511683923 -0.1609034955505225 0.18470564389327238 0.13561115585344588 -0.008046392721606468 -0.1215034874984764
0.12785795911874145 0.3355986359118543 -0.4173692584570818 0.1399632506131924 0.26282547292909253 0.07517823323144 -0.052565484126807456 -0.2189983986766952
-0.25231870572487614 0.2759393936057189 -0.2059151721414429 -0.13250929453636606 -0.21251434192541327 0.03366515349171398 -0.038592297441886136 -0.14128619384942684
0.11681438999139708 0.050992259141270174 0.006621455801038471 0.017388173178955184 -0.1875731467112179 -0.023565868892893017 -0.06595138806450769 0.11199065981006588
-0.19204291256784659 -0.18172567308227944 -0.2195892862884301 -0.3540375161692586 -0.025427934898083374 -0.3177121868739042 0.01136867084687025 -0.27184868025698244
0.20077506678451879 0.05556805248781036 0.07267029653134575 -0.05454759722384657 0.22440762255421418 0.19555725002733182 0.029215012732355064 0.08750062763663337
-0.04465901389837837 0.17795419587045566 -0.019798914889101397 -0.1370020624711374 -0.1463015822220242 0.11010717159518149 0.04152367119416824 0.14882956743556558
0.03531031313129962 0.10061049476976265 0.2320642381362354 0.2801822731730202 0.0003354387723992869 -0.004488643100640066 -0.04591766216490849 -0.002801721178335747
-0.06039153418470771 0.13750486094531045 -0.17521711764483167 0.3664360434215367 0.2911603094175306 0.2484057884179276 -0.041273972808975504 -0.17201208044806704
-0.1316774643010949 -0.05448190674720682 0.0012791029102972497 0.05899880152937655 0.21889529524624823 -0.2427170320420845 0.09903701408593893 -0.2654588503068661
0.03608098059015801 0.1526804250630908 -0.20598497681547376 -0.11137885488383586 -0.023015132485965883 -0.031094907272085803 0.3809768332707754 0.003402406868983159
0.024387795734718394 0.0030981991712408963 -0.26405323085461063 -0.08390462731652269 0.007547035973828023 0.2596149156603867 0.27712217125813715 0.13187423956430908
-0.00743009775754032 0.0900262986948613 -0.06859586103941995 0.18159200967970035 0.24018183363484846 -0.24785408708154455 0.019250510440738437 0.09040476004176924
0.20183675961407926 0.17978774813946224 -0.10373779276345044 -0.024999571471915664 -0.048497916577852754 0.13186243638627834 0.006923262001171382 -0.2103339739782363
-0.03631518367166536 -0.13720868266675118 -0.03674157406907382 -0.014958629888875129 0.3168774290416361 0.4572903182745899 -0.06987607583382005 -0.27774923491558
-0.021957289184806952 0.36763185096753376 0.011867861558271924 0.028329982542523537 -0.04983172944377274 0.3170866259694702 0.0014249492734994345 -0.13212126775220256
0.030827436678281958 0.01470617265315468 -0.25014112410939693 -0.20256569654756354 -0.025753690583748 -0.15707177339722964 0.050186327263794774 -0.06801564566681886
-0.009712398689384009 -0.23254502543599465 0.16144077894112432 -0.20673841032990825 0.27343819391487045 0.2648284275202883 0.0014655665087158745 0.022404732600688742
00000000: d59b 94cd 3b4c 8abf 13ca 2ad7 7b04 c0bf
00000010: dee5 0e61 5aa9 c63f 8edb 42df b9d2 b43f
00000020: 954c 8e03 6ea5 a53f 34af e497 324b cb3f
00000030: a7c6 6053 d026 b6bf 2586 9dff 5e9d 403f
00000040: b998 18df 42ec c6bf 9981 283a 40e6 a63f
00000050: b272 307a 2c1e bd3f ab7d 4d3f 49ed a03f
00000060: 05f9 1ab7 d025 d4bf 94e8 de6c 5140 d2bf
00000070: b9ba c171 e860 873f 89ce afda 6600 acbf
00000080: b8e7 c322 26fb b63f e9e9 202a e054 b3bf
00000090: 1963 0098 ada9 51bf 33ef e6d6 b3b4 b33f
000000a0: 8646 e4ae 38db a63f d593 8f04 6bbb d5bf
000000b0: 26ff f94c 894c c73f 0dc5 99ae b630 d0bf
000000c0: 7054 0a42 48ba d13f e80a 379c 42b8 d43f
000000d0: 517d 4677 8168 9e3f 7f65 295e 13aa b53f
000000e0: dbd8 8a98 8bfe b9bf b049 2236 af76 b7bf
000000f0: 30d0 a5fd e947 743f f98b 6133 0a94 7f3f
00000100: d307 ddab 4eb9 853f 5879 aa08 ca10 b83f
00000110: 6886 361a e50f c2bf 3fdc 8bc0 0fde c63f
00000120: f205 8be4 8f7e 8f3f be26 60fe b86a b6bf
00000130: 4aae 400b 28e2 d6bf 55c2 92b5 ef34 9bbf
00000140: 305d fc29 0b08 ba3f 3964 3e78 ac01 703f
00000150: fd97 d737 00e2 ce3f b570 1697 f735 a53f
00000160: 31a0 cc31 af44 c33f e6d4 bb96 5b3d b83f
00000170: e603 35c6 3485 c5bf 5ac2 0e3d 071f d23f
00000180: 0542 2191 37fa 813f cdd6 097b b4a0 923f
00000190: a49b 88e3 f471 d3bf 7199 1a88 2656 d2bf
000001a0: d5da 47a4 71f6 613f b751 da52 9ae1 a1bf
000001b0: d2f8 d751 ba19 c43f 8142 a210 bdde ce3f
000001c0: 4bb5 8996 8510 b7bf da9f 4f11 fd5c b53f
000001d0: 9c49 d605 b321 d2bf 4b96 a81a 948a c73f
000001e0: 2695 c4da 13b3 d4bf fc9c a91d 853f bebf
000001f0: b807 d1ae 3e33 ad3f 08b9 9d53 cbc1 c83f
00000200: cc27 6cdb c43a c53f 48fc de9a e5ef b13f
00000210: 7d02 79e5 bb70 6b3f 493c ecc8 dba9 97bf
00000220: 83c3 7575 0d58 d4bf 8645 dd55 63da c03f
00000230: de8a 7f02 4709 c2bf 2cef cfe5 2fcb d33f
00000240: 66aa 3d32 2b5b a0bf f1a3 455d 3904 babf
00000250: 6859 05e6 68c3 d0bf c2cf b187 40bf c6bf
00000260: 8f93 d11c fe6d 573f ae7a 0696 62b0 a73f
00000270: 870b f395 5a5a d33f 215a 7a35 162e b73f
00000280: 73e7 0ec8 80e7 913f ec53 76ea a8d6 bebf
00000290: 942c 4da6 d0ef c8bf 7e69 cfa2 a0e6 c3bf
000002a0: d866 1aed c9bd abbf 0463 1141 8dd5 c0bf
000002b0: d517 3594 edec d4bf 0311 92a5 c40f debf
000002c0: c2f8 2309 a619 a33f 98f6 e12c 6cd3 bd3f
000002d0: 9cf4 ecc2 2237 c13f edba c228 37a1 a13f
000002e0: cf9d deab 991f c5bf cd44 0771 7a83 c03f
000002f0: 66e5 d2be 8b2d d0bf 776d d608 ff42 ca3f
00000300: 735d a7a5 9411 a03f 4377 9373 5af1 ba3f
00000310: 7802 567a c139 cabf d2c6 687c 9ebc 8abf
00000320: d3a0 eda1 ca4a 82bf 32e5 33ed 005c b3bf
00000330: b1c4 1a19 9d4d c23f 7fa7 5245 1bd5 d23f
00000340: 3555 d1e3 92c5 723f 6552 9bf3 6b51 ce3f
00000350: 4925 330d 5c0c d1bf 3e3e 0bb5 5ba9 c3bf
00000360: a143 b023 6c5e d5bf bce8 f0b2 1bb2 d2bf
00000370: 6c41 0177 005d b13f e012 73d0 1742 cd3f
00000380: 4662 8889 ed86 a23f 367a d08c 7822 d5bf
00000390: 47e9 9656 2262 95bf 3bcd 9959 7c98 c4bf
000003a0: c840 f43d 6fa4 c73f e980 aed3 b45b c13f
000003b0: c877 b88c a07a 80bf 21e9 2741 da1a bfbf
000003c0: e161 794c a65d c03f 47b6 74b3 727a d53f
000003d0: b773 db8c 2db6 dabf 0544 03d8 50ea c13f
000003e0: de50 b2ee 21d2 d03f d79f 1975 e13e b33f
000003f0: f932 72f6 dce9 aabf dfac 18b8 2308 ccbf
00000400: 1879 505b fd25 d0bf 91bc cdb3 fda8 d13f
00000410: ae81 0ca9 6d5b cabf 8c90 3987 10f6 c0bf
00000420: 0b14 4082 ab33 cbbf b401 861a 8f3c a13f
00000430: 38e3 c79e 5ec2 a3bf 53d4 fa7e aa15 c2bf
00000440: fb19 b740 8ce7 bd3f 84c9 b84a a81b aa3f
00000450: 11bf e081 191f 7b3f 0e2d 908c 34ce 913f
00000460: 42c2 5d99 6502 c8bf bd85 c9b0 a621 98bf
00000470: bde4 dcae 30e2 b0bf 4b79 577d 6bab bc3f
00000480: 9528 74b6 dc94 c8bf 72b1 5d6f c942 c7bf
00000490: b894 9471 801b ccbf 2442 60f8 8ca8 d6bf
000004a0: 6118 2bd3 c709 9abf f17f 0a7f 6555 d4bf
000004b0: 57ef e32b 7548 873f 2d87 ca01 f865 d1bf
000004c0: 6a8a d854 ffb2 c93f dd6d 4670 6a73 ac3f
000004d0: 0325 fe42 859a b23f eab8 4da4 a9ed abbf
000004e0: 8ff6 eb93 63b9 cc3f 9479 ae1c 0508 c93f
000004f0: a464 f350 8aea 9d3f 292d 14ee 7066 b63f
00000500: d48d 54d8 8bdd a6bf 038c b9fd 33c7 c63f
00000510: 4ea8 c7af 2a46 94bf 9e27 e698 4889 c1bf
00000520: 3192 7f9f 02ba c2bf ea6d 0ecd fb2f bc3f
00000530: e3de 9333 9742 a53f 6a23 68e6 d80c c33f
00000540: 108d 3880 3114 a23f 85a6 ab00 9cc1 b93f
00000550: 7ee2 aeec 47b4 cd3f a19c 0ca1 81ee d13f
00000560: b9f0 a88e bafb 353f c071 21f5 ae62 72bf
00000570: c636 9d12 8582 a7bf cbb9 ab9a a2f3 66bf
00000580: c7a2 8ea0 a3eb aebf a08b 6660 c299 c13f
00000590: a2f1 fdb6 836d c6bf 7e8d a429 b073 d73f
000005a0: b5db b5d9 5ea2 d23f 2830 b2c8 c2cb cf3f
000005b0: 42f5 c7b6 dc21 a5bf 944b 05ea 7d04 c6bf
000005c0: 768e 65a1 ceda c0bf 58ec 676f 0de5 abbf
000005d0: d89c bf4a f2f4 543f c3cb 2446 1735 ae3f
000005e0: f25a 2ad3 c204 cc3f a4c6 6609 5a11 cfbf
000005f0: 92b4 9760 7d5a b93f aa1c 201e 47fd d0bf
00000600: b7e0 48cf 3479 a23f 4553 313c 088b c33f
00000610: 3fe4 7139 b75d cabf 3c27 311b 5383 bcbf
00000620: a37f 5c65 4791 97bf 7019 39e7 57d7 9fbf
00000630: bf9f dba7 ec61 d83f bee6 5b47 5ddf 6b3f
00000640: 6298 6844 1df9 983f 2940 be03 6561 693f
00000650: c01d bb85 3fe6 d0bf 7fba 4e0e c67a b5bf
00000660: 9d7b 070b a4e9 7e3f 912b 14e1 879d d03f
00000670: a536 a3a1 5ebc d13f af89 0e4d 41e1 c03f
00000680: f1d8 fead 056f 7ebf a5a2 aca8 f60b b73f
00000690: 2026 ce93 7f8f b1bf 7005 652f 683e c73f
000006a0: d009 4740 47be ce3f 54fb 18c7 aeb9 cfbf
000006b0: 5edc 18e3 67b6 933f 7139 c82f c424 b73f
000006c0: 9e27 d674 c9d5 c93f 3680 3df1 4803 c73f
000006d0: 123b 475b 8f8e babf 5e27 8bd7 7c99 99bf
000006e0: e284 400b b8d4 a8bf 07cb ec49 dee0 c03f
000006f0: c0d7 06fe 905b 7c3f e5b3 bc41 39ec cabf
00000700: 68a2 6f5c e797 a2bf caf5 63da 0d90 c1bf
00000710: cb7a 0fa6 cacf a2bf 9953 5351 a1a2 8ebf
00000720: c5c2 a444 b847 d43f 2a13 719c 3e44 dd3f
00000730: 88a4 7a04 66e3 b1bf 5ae4 1cba a4c6 d1bf
00000740: b48a d4bb f87b 96bf 7be7 37be 4787 d73f
00000750: 093f 216a 2d4e 883f 6ac8 10f2 8802 9d3f
00000760: 493b 8760 8b83 a9bf 476c 22b4 254b d43f
00000770: a607 cda1 ab58 573f c806 0d86 59e9 c0bf
00000780: 8c32 6941 3a91 9f3f cccc c114 451e 8e3f
00000790: 74cf dbea 4f02 d0bf a14b fb38 aced c9bf
000007a0: a3e7 3beb 2c5f 9abf 53d3 ee88 ed1a c4bf
000007b0: fdd3 9bb4 05b2 a93f 125c c12d 7969 b1bf
000007c0: c297 e415 18e4 83bf c02b 8c0f 09c4 cdbf
000007d0: 917d e568 17aa c43f 7cd4 987b 6776 cabf
000007e0: 00de 15e9 0280 d13f 330c d0ee f2f2 d03f
000007f0: f72d 670e 0803 583f 5bad 2e27 44f1 963f

readout.0.bias f8 [64]
-0.08265300636731494 0.029700962596130327 -0.09521766669531967 0.26360091030854516 0.056461077954948376 0.3221621882713678 -0.31730210914436624 -0.06631257480983939
0.08379149947836041 0.40309094189438416 -0.13540453769878638 -0.020176765356930044 -0.18493251382951892 -0.15062489799879572 0.07212052023888274 -0.1084400651439393
-0.04605510879979999 0.1880023739375088 0.28348893366124167 0.16220811459614137 -0.13416542516999944 -0.1579496202307293 -0.12081883338998452 0.11928135654467274
-0.12194525209001644 -0.05308346440100707 -0.1259389316704904 -0.3431083711223015 0.0956814656556103 0.17105412106933152 0.2513608927312552 0.14378269467013455
-0.13062424693989544 0.23421856728908938 -0.05403659834670186 0.014938357703730155 -0.10086347632237987 -0.08586413944461442 0.09430942163943684 0.024418164673759676
-0.28718773082332166 0.03065490347801203 0.13576109873839226 -0.3170972961052949 -0.11202746722705825 -0.1992991198187606 0.18768447995273732 0.3610383602146721
-0.04053158446195207 0.05543697873325145 -0.16147165530278298 -0.18042686291608995 0.024778724615291455 0.012696321403793814 -0.19022759878000045 -0.3499257333872952
0.12220350569686148 0.09050696973971452 0.2472738831925496 -0.061926420615791115 -0.045754896690737214 -0.17614164543124913 0.08249205812165976 0.21350769570478118
00000000: ad81 4357 bf28 b5bf 6557 0adc ed69 9e3f
00000010: 1c34 755c 2f60 b8bf 5e25 3e5a d6de d03f
00000020: 4177 a066 77e8 ac3f 4e88 a827 4e9e d43f
00000030: 2185 6e81 ad4e d4bf 2d2f 1f64 dcf9 b0bf
00000040: 713e f115 5c73 b53f 8b03 30f3 3dcc d93f
00000050: 85b9 9296 ef54 c1bf 0569 63cd 37a9 94bf
00000060: 74b3 6e5d deab c7bf fb1f 6f39 ad47 c3bf
00000070: eae7 cb8b 7d76 b23f 558c 5e65 bac2 bbbf
00000080: dcbc 3704 8994 a7bf 2ae4 d037 7610 c83f
00000090: ad96 b6c4 ae24 d23f 280a ab49 3cc3 c43f
000000a0: 6df6 ad28 552c c1bf bf3e a772 b137 c4bf
000000b0: 859e 26aa fbed bebf 37c3 6115 3989 be3f
000000c0: 740c a1d5 cd37 bfbf ce14 1f7f c12d abbf
000000d0: 17b2 6854 c41e c0bf 3c10 3dd0 7cf5 d5bf
000000e0: 57fe d29d 947e b83f e95d ebf7 19e5 c53f
000000f0: f18a 71ff 4b16 d03f be63 aba9 7867 c23f
00000100: 06f3 559a 4bb8 c0bf d3b1 4fbf dffa cd3f
00000110: f551 5f5d afaa abbf 2707 596e 0098 8e3f
00000120: ad5d 2a54 30d2 b9bf 5d55 d036 31fb b5bf
00000130: ec63 a589 a924 b83f dffd ce4a 1301 993f
00000140: 27b6 eca5 4861 d2bf 60b3 99bf ff63 9f3f
00000150: 0441 93a3 9e60 c13f 7806 1b75 524b d4bf
00000160: 0072 fe03 d5ad bcbf f11f df30 a282 c9bf
00000170: 2990 ae87 0b06 c83f 914d 6ea3 401b d73f
00000180: e433 704b 8ec0 a4bf 2bf6 4b55 3c62 ac3f
00000190: f5d2 606b 1aab c4bf 92b1 c539 3a18 c7bf
000001a0: afe3 6f0f 985f 993f f09e ab69 8700 8a3f
000001b0: 5242 c7c1 6059 c8bf 0958 3be7 2e65 d6bf
000001c0: 9ab0 6c9c ba48 bf3f 3196 17fb 762b b73f
000001d0: 2fc4 bbac aba6 cf3f 2f38 9bde d1b4 afbf
000001e0: 754f d691 2f6d a7bf bda0 4b37 cf8b c6bf
000001f0: 43f0 cf13 331e b53f 8e88 3f5d 3854 cb3f

readout.2.weight f8 [2, 64]
-0.017975955602845834 0.26623597085793155 -0.3180019392944307 0.073280280789013 -0.04574895965493475 0.2460334247995276 0.0009550171144298715 0.10160019611137254
-0.09598342575828614 0.28495464097740875 0.05585593487365546 0.32173520168256475 0.3352508284591232 -0.35685217112944156 -0.177291664657564 -0.183964898725198
-0.07434384990580868 0.028795841090261412 -0.272346268287902 -0.28540534805564494 -0.07761751918223558 -0.2952889936436489 -0.09286421195084693 0.06884897074966055
-0.2530546715105126 0.29773729752522005 -0.014081729835314125 -0.09751790067582011 0.1784391290435949 -0.3067753286325951 -0.0027008306143823774 -0.06364391476313917
-0.31813381407544394 0.23401841491976055 -0.31242906847708163 -0.24472590640744893 0.10117851557360726 -0.020037607792563174 -0.24801175558293334 -0.3280203148303962
0.09617067439844493 0.3179969152698091 -0.21736543205179099 0.06205977859294466 -0.014859883520486249 -0.04093206504092795 -0.07555505779368792 0.23091291195774588
0.25011331995725755 -0.00586895644750211 0.3155808013326941 0.3087665326447844 0.31445316994988065 -0.1699865273238706 0.26751863539235055 -0.001492768499994809
-0.2041702633289598 -0.3537453459035889 0.112926115199146 0.1387107666201597 0.30593673657034437 0.18947110655341093 0.36764625924490824 -0.27869555982380834
-0.35665214003420953 -0.017441869307695857 -0.13565739645392444 0.1824789806887807 0.22375013355534112 -0.047407242280952326 0.15539665379960566 0.17875587065048618
0.3292059738101806 0.00634636646723691 0.10565490850213602 0.07634788705542254 0.30072663004761785 -0.1231326803252385 -0.4249486443447913 0.058346623638544336
0.34953784188834347 -0.12295691776219768 0.190684879717571 0.1825314460100294 0.12648969867882773 0.04713469023189724 0.30198669505563625 0.06357490751761634
0.33730126814633576 0.09203917657368968 0.4015196560158196 -0.255518575823781 0.14584201106769665 0.13999035862029352 -0.14912850664832142 0.32797028855131555
-0.1505845950156726 -0.29143190195039326 -0.1345188417173129 0.15339415914980928 0.3805957627119432 -0.09714761696375282 -0.33748554216418897 0.05277545347216429
-0.2113278441282848 -0.30694129488601885 -0.31610367060485023 -0.20883241150424708 0.24088018876689302 -0.30005361308921435 0.30370089303300274 -0.1970541916254515
-0.2765708739819965 0.18703119250814243 0.004369435077667926 0.0264935411543207 0.04861584754664175 -0.2574009510837178 -0.00865157114078579 0.1556235255166741
0.038562178662948886 -0.2553105275640543 -0.012880171112126535 0.29136897884567636 0.09321159277561733 -0.21999382491610603 -0.019780593410361674 -0.030383478017742317
00000000: 45db b6f5 4968 92bf cba1 f698 020a d13f
00000010: d562 55ce 245a d4bf c435 6e19 7fc2 b23f
00000020: 0083 165b 686c a7bf fc50 9ef4 057e cf3f
00000030: 8636 05a3 434b 4f3f abc6 906f 7802 ba3f
00000040: 9202 97aa 5e92 b8bf 5ed9 f563 b23c d23f
00000050: 2ec4 232b 2699 ac3f 88b5 4c3e 4f97 d43f
00000060: f515 0ce4 bf74 d53f a67b 207d aad6 d6bf
00000070: a160 c746 7eb1 c6bf a67e d16b 298c c7bf
00000080: 0112 01d4 3208 b3bf 5454 f92e a87c 9d3f
00000090: d2fc de0a 1f6e d1bf d528 00cb 1444 d2bf
000000a0: a8fe 7be2 bdde b3bf c85d a4ce 03e6 d2bf
000000b0: 1036 4cf1 f2c5 b7bf 57a9 bb0d 16a0 b13f
000000c0: 0f36 8f38 0c32 d0bf 3ee5 eabc 200e d33f
000000d0: 5806 e9c8 e1d6 8cbf 885e 2de2 eef6 b8bf
000000e0: cfd3 c8e7 17d7 c63f e395 ecfc 34a2 d3bf
000000f0: 9b56 2565 0d20 66bf 9341 7fb4 f74a b0bf
00000100: 702b cded 4d5c d4bf 1efe 5ebf 50f4 cd3f
00000110: a071 db7d d6fe d3bf 6f81 40b2 2d53 cfbf
00000120: d94b 72cf d5e6 b93f eaf3 a218 bd84 94bf
00000130: 8949 a065 d9be cfbf f4b0 27eb 48fe d4bf
00000140: 5e26 602d a49e b83f 7e03 d4bb 0f5a d43f
00000150: c6bf f866 a1d2 cbbf 224b e89e 4cc6 af3f
00000160: 6c5f f1cd db6e 8ebf 81c4 6a31 0cf5 a4bf
00000170: 9372 4586 9357 b3bf 2494 8ae6 8d8e cd3f
00000180: 7baa 604c db01 d03f 2c08 0f00 0c0a 78bf
00000190: 8f0a 3ed1 7932 d43f 2cc1 f3b3 d4c2 d33f
000001a0: a7ba 4330 0020 d43f e2ed ce57 1ec2 c5bf
000001b0: 162a 857b 061f d13f 259c d4f8 1f75 58bf
000001c0: bb23 e84d 4022 cabf e928 f184 c3a3 d6bf
000001d0: 7a08 a5d3 b9e8 bc3f 584b 1e3f 46c1 c13f
000001e0: f2bb 8dad 7794 d33f c887 17d7 9640 c83f
000001f0: 1608 fd2c 8487 d73f 6cf4 bee6 25d6 d1bf
00000200: b0b3 5f7f 63d3 d6bf fdd7 0709 48dc 91bf
00000210: 4e74 9db8 385d c1bf 6603 22a3 785b c73f
00000220: e843 0c29 d8a3 cc3f f766 6116 c345 a8bf
00000230: f012 fd9c 09e4 c33f 51b7 34ed 78e1 c63f
00000240: 5a67 caee b511 d53f c2ac cdc6 a5fe 793f
00000250: 3ab5 ad38 330c bb3f db90 05fe 888b b33f
00000260: d3cf 45e8 1a3f d33f 28d3 1093 9f85 bfbf
00000270: be2f 7ccc 5b32 dbbf 5b19 b8d0 9bdf ad3f
00000280: 9cfd e7f7 d35e d63f a308 9bc4 1a7a bfbf
00000290: c544 1db5 5c68 c83f b265 8dbf 305d c73f
000002a0: 77a0 8d7f d030 c03f 852e 1bc2 0922 a83f
000002b0: 4cd4 c500 c053 d33f 2b67 a2f4 7146 b03f
000002c0: 269f e50e 5896 d53f 42b3 5525 e18f b73f
000002d0: dc80 d27f 7fb2 d93f b0c0 ab95 6a5a d0bf
000002e0: 9395 f575 f3aa c23f c0c5 033e 34eb c13f
000002f0: 9759 7a95 a416 c3bf 2bce d817 77fd d43f
00000300: 01d6 6f23 5b46 c3bf 48d5 f8fd d1a6 d2bf
00000310: 8992 efd4 e937 c1bf 9d11 7978 6ba2 c33f
00000320: a403 7654 ae5b d83f 0e60 be8d aade b8bf
00000330: 0df4 9df5 5c99 d5bf 8197 635d 6205 ab3f
00000340: 0df1 a171 ca0c cbbf 30f3 d419 eda4 d3bf
00000350: 462d d9e3 0a3b d4bf 0ab6 e03c 05bb cabf
00000360: d109 817a 29d5 ce3f b3f2 d011 1434 d3bf
00000370: 78ef d5de d56f d33f 8e17 495e 1239 c9bf
00000380: 0fd8 b152 56b3 d1bf cec1 935b a3f0 c73f
00000390: d954 2b4c afe5 713f e78c 4073 1f21 9b3f
000003a0: 946f 8f26 2de4 a83f 8b49 b7d6 4179 d0bf
000003b0: 1c9a de38 eab7 81bf 038a 4ac0 78eb c33f
000003c0: 6393 7000 6cbe a33f 5f93 8df7 0157 d0bf
000003d0: a538 8c4d eb60 8abf 9882 cd12 caa5 d23f
000003e0: 0a50 9406 b7dc b73f 8a16 abf5 c128 ccbf
000003f0: 0802 2c27 5d41 94bf fd22 b3b1 d81c 9fbf

readout.2.bias f8 [2]
0.0294991589321226 0.04800021643040339
00000000: 98ec 7d0b 0735 9e3f 7cfc 89ff 7b93 a83f
