experiments/flockingGNN-050-20221018124015/savedModels/DAGNN1LyG08Architlast.ckpt (torch, 9247 bytes, 4 tensors)

readout.0.weight f8 [64, 12]
000000 46 bd 40 53 60 e8 d0 3f 43 70 9c a7 42 56 d5 3f
       0.2641831219688878 0.3333899151637107
000010 f3 70 35 a5 94 f5 b1 3f c3 a1 4a eb c3 3f c2 3f
       0.07015351327339996 0.14257096279949452
000020 10 d7 ff a5 32 a4 a8 bf 19 23 83 1a 42 84 c5 3f
       -0.04812773014411509 0.16809870047134082
000030 f8 8a 38 e6 77 7a b5 bf 52 66 29 df 6e 4f d1 bf
       -0.08389996882082673 -0.2704732112229965
000040 fd f7 33 18 75 41 4c 3f 2a 79 42 25 3d dc a8 bf
       0.0008622953177164213 -0.04855528907613611
000050 8c 9c db 7e f2 3a cc 3f cd 56 18 18 26 b2 c3 bf
       0.2205489272521145 -0.15387417007939633
000060 b1 7c 5b 77 67 0b 89 bf db e7 7c 02 6c 06 90 bf
       -0.012228782968519121 -0.015649497653818272
000070 ef 07 7e d3 1c 9d cd bf 74 15 c8 37 c2 f9 d0 bf
       -0.23135719610951308 -0.26524405906123794
000080 88 5c ba 0e 61 dd 6b 3f 71 ed 53 fd 26 db 85 bf
       0.0034014602332024836 -0.010671906095459179
000090 f2 fe 3d 21 e2 d4 ae 3f 8a 39 42 05 39 eb 73 bf
       0.0602179208353827 -0.004862997757426499
0000a0 54 f2 ae 33 ff 04 ad bf 38 8c e5 3b b2 08 cc 3f
       -0.056678748187071776 0.21901538777010088
0000b0 f3 9c 42 ea 40 ed b9 3f 30 15 1c 1f ab b9 c0 bf
       0.10127645224803299 -0.13066615122822034
0000c0 c5 f2 ae 76 7a 83 80 bf 05 80 1d 6c 8c da 9e bf
       -0.008063275095872577 -0.030130571459608308
0000d0 0d 05 3b c9 f9 7c cc bf 57 4e dc 89 4d 37 d2 bf
       -0.22256395650587316 -0.28462542021700216
0000e0 c2 d8 f8 47 47 cd af 3f 4f 79 c9 86 e3 39 63 bf
       0.06211302522244601 -0.0023469394566710054
0000f0 8d ed ac 56 71 0b d0 3f a4 ba c0 c6 45 ba bf bf
       0.25069840874103805 -0.12393604376186801
000100 3f d4 24 26 3e 44 c0 bf 1f 72 76 3b f2 9f bd bf
       -0.12708260405057278 -0.11572183562970693
000110 03 aa 2f b8 15 40 b4 bf c6 8b c7 73 05 4e 92 bf
       -0.07910285708172897 -0.01787575263177723
000120 14 32 e5 2f 31 3d 87 3f 90 86 ef 21 5e 38 84 3f
       0.011347183488987368 0.009873137865670928
000130 90 c8 64 89 2a af cf bf 21 ab 0f 01 84 84 cd bf
       -0.24753314694095652 -0.23060655643288278
000140 2f c1 b3 7b be 1b 84 3f 76 48 c1 e7 42 dd 9e 3f
       0.009818542623606234 0.030140920062259068
000150 03 eb 77 29 7e fd b4 3f e5 25 13 0a df 95 ad 3f
       0.08199299347317539 0.05778405187590944
000160 d5 f0 de ea 7b a2 be bf f4 6c 70 5c 3b 4b c0 3f
       -0.11966680988456642 0.1272958947527979
000170 50 80 84 27 c4 29 b3 3f 71 7d ad 2c 6e 02 a1 bf
       0.07485605206284274 -0.03322166724569343
000180 9b 86 03 7e 79 77 c6 3f 20 63 be fa 1d ef da 3f
       0.17552107480064624 0.4208445500058122
000190 41 97 a5 da 8e 7d c8 bf 12 31 3e b0 1b 70 d5 bf
       -0.19133172680010982 -0.3349675389406609
0001a0 8c 53 d7 b1 23 07 9f bf 68 3a 45 d2 98 57 80 bf
       -0.030300672273216686 -0.007979577938980145
0001b0 9c fd 18 71 af 31 b0 3f 83 aa 55 93 5a 12 bd 3f
       0.0632581378094898 0.11356130692517223
0001c0 65 15 b0 31 24 d2 a2 bf e7 50 4e 88 47 8c b9 3f
       -0.036759501519592765 0.0997967441347246
0001d0 b9 4c 33 af 64 bf 99 bf a6 ba c4 e5 32 0e d4 bf
       -0.02514416999185862 -0.31336662710502095
0001e0 29 f9 48 d7 02 7e d4 bf e7 9d a0 14 e2 96 ae 3f
       -0.320191107024487 0.05974489690589362
0001f0 85 82 26 85 fb a2 a5 bf 5c 95 d2 d8 79 46 a3 bf
       -0.04225908279773186 -0.037647063939668185
000200 cc 64 08 91 7d 65 bd 3f 27 ad 68 68 fc ee a4 bf
       0.11482987204398681 -0.040885818238473974
000210 ee 43 d0 72 f5 49 59 bf af 9b 8c 66 c8 a7 ae bf
       -0.0015435120542444075 -0.059873831289500294
000220 37 4f 52 9e 7e 3a bd bf 2f 6b 63 dd d3 ae a5 3f
       -0.11417380681296839 0.04234945371145781
000230 d2 a7 cc 34 86 26 b4 bf 16 0a 25 70 df 23 a9 3f
       -0.07871283330010151 0.04910181278184582
000240 90 b0 07 95 3b 8e ab bf 92 25 4c 11 d6 e1 d0 bf
       -0.053819524709838196 -0.2637839478416818
000250 10 c1 b9 79 c1 d7 c4 3f a8 27 de 95 09 e7 c6 bf
       0.1628343433726589 -0.1789257032181102
000260 3f ee de 07 25 0b 89 bf 52 38 ba 01 fe a4 97 bf
       -0.012228287985514117 -0.023090332847054924
000270 cd 8a 35 fa b9 11 ce bf 60 18 07 a2 cd 9f be 3f
       -0.2349159690594064 0.11962590413813379
000280 df 53 71 e0 42 83 bf 3f 96 4a 9a 8f ce a4 cc bf
       0.12309663753087773 -0.22377950679636588
000290 d3 4c 88 6a bb f9 c4 bf b4 19 7b 69 7a 0f 9a bf
       -0.16387121869829588 -0.02544966954044421
0002a0 8d c9 56 77 ed 67 d2 3f 4c e7 57 67 df bb b5 3f
       0.28759323744011384 0.08489795945197648
0002b0 46 10 73 67 64 8d 95 bf 10 75 8c 1b a6 6d b0 bf
       -0.02104718095212401 -0.06417310879301774
0002c0 d7 bd da fb fb 44 bf bf 48 64 0a 33 98 e8 9d bf
       -0.12214636706152447 -0.029207590213079976
0002d0 f3 36 3f d0 6f 9a 89 3f c3 b9 3c a3 b3 d5 aa 3f
       0.012501596014682792 0.052411664654175925
0002e0 54 f7 7e a8 39 1f cb 3f 71 66 6e 2d 09 93 4b bf
       0.2118904183134257 -0.0008415026485295141
0002f0 d6 42 d3 62 33 11 b9 bf e5 aa 94 7c 76 d1 bb bf
       -0.09791871226048995 -0.10866489926835816
000300 10 07 b6 52 cb a3 b5 bf 93 ec 4e f2 40 51 d0 bf
       -0.08453055161774281 -0.2549593321124998
000310 46 f4 c3 68 dc 0d d4 3f ee 16 1c ba 39 f2 5f bf
       0.3133460066890773 -0.0019498409023425661
000320 9f 91 37 fc dd 9b 7e bf f2 1b e2 8f f3 04 b4 bf
       -0.007472865228440289 -0.07820055258535755
000330 fd 4e c3 d0 ac 17 b3 bf b9 ed 11 86 ad 90 c9 3f
       -0.07458000275374484 0.19972771688831673
000340 af 1c c5 f4 ca 80 a2 3f 58 c9 96 7f 31 1c cb 3f
       0.03613886106409702 0.21179789285595052
000350 38 59 4e d0 bd 65 bf 3f 41 83 2e ea 6b 97 ab bf
       0.12264620147320648 -0.05388962968505107
000360 00 4c 66 f7 38 b5 d1 bf 34 21 84 56 4c 47 c1 bf
       -0.2766859451305095 -0.1349883482400941
000370 3e f3 43 55 ea 78 91 3f 88 a2 e8 fa d0 3a 91 bf
       0.017062818006695617 -0.016825928987744848
000380 06 88 33 72 64 b6 af 3f fd 1a fe 15 aa c4 b6 bf
       0.0619384183317067 -0.08893836056641287
000390 6b 98 4a 46 13 c6 65 3f 4c 9c 0b f9 85 2f 95 3f
       0.0026579262215192154 0.020689099622270654
0003a0 5d f4 db 7d 97 c9 b0 3f e0 5d 52 76 a2 b6 da bf
       0.06557604620680153 -0.41739713244302656
0003b0 52 bb 23 2e 0c 32 99 bf 0e a8 3a 73 95 37 d3 bf
       -0.02460497886289243 -0.3002675652775232
0003c0 7e b2 7f 70 f3 6a d1 bf 26 4b 37 6f 45 42 de bf
       -0.27215276704990987 -0.47279487477242055
0003d0 d5 6b 9c 37 bb a9 b6 bf 28 5d 01 bc 9e 0d cd bf
       -0.08852739436808517 -0.22697815113017694
0003e0 33 36 1e ce 72 98 a8 3f 65 82 06 54 8f c2 c6 bf
       0.04803808942879719 -0.17781249621204434
0003f0 94 d1 b0 94 5b 21 7f bf 5c b7 8d 58 34 43 ac bf
       -0.0076001717925929975 -0.05520022946335132
000400 c7 56 f1 1e f5 9a 9b 3f 69 35 65 81 0b e2 b8 3f
       0.0269583034645027 0.09719917210641928
000410 97 5c 9b ac 31 9d 9b 3f aa 90 0e 5c 83 c7 c7 bf
       0.026966835174644457 -0.18577615733113834
000420 de 86 59 b6 44 2e 96 3f 26 d0 d0 ab 18 2d b3 3f
       0.02166087496733026 0.07490686602324156
000430 10 86 6f c6 ce 2d d2 bf bc 71 74 a3 4b d0 d3 bf
       -0.2840458810661355 -0.3095883461226341
000440 b5 ff fb a3 a3 24 7a 3f 11 54 48 2b e9 54 b5 3f
       0.006382598133995933 0.08332688624098263
000450 b6 29 b9 0c ed 1b b5 3f 64 d7 2e fb 7e 7e 9e bf
       0.0824573665678717 -0.02977941902255256
000460 ba 07 99 e9 55 66 a7 3f 14 56 3e 5f 2a f0 c1 bf
       0.04570263363395051 -0.1401417698913724
000470 28 d1 cc 25 9e 00 a5 3f db e1 08 0c 43 9d b6 3f
       0.04102033816744416 0.08833712619605853
000480 b3 48 05 9f 54 7b a0 3f 55 0f 4d 3a 88 af c2 3f
       0.03219093743486336 0.1459818157837797
000490 82 41 52 b0 b7 9d d4 3f a9 c3 82 f2 53 9a d6 3f
       0.3221263143432439 0.35316942866034623
0004a0 79 4d 96 04 67 14 a2 3f 58 9f b8 11 cc 2e cc 3f
       0.03531190806384194 0.2201781355408865
0004b0 77 80 97 56 38 6a 97 bf 14 40 ef 6c 4e 0b cd 3f
       -0.02286613491548947 0.22690754241057276
0004c0 2b 6b 69 59 05 13 b7 bf d1 eb 8c 10 e9 00 d2 bf
       -0.09013398583321634 -0.28130556694276004
0004d0 ba 09 95 11 f0 9e b7 3f b1 03 75 ea 53 a1 d3 bf
       0.0922689478802913 -0.30672166725349387
0004e0 25 6f 3d 05 20 6e d1 bf b6 76 43 50 e3 0f c0 bf
       -0.2723465014621403 -0.1254848615562218
0004f0 42 6f 85 43 22 74 98 3f 3b 57 1d 7c e4 c3 cd bf
       0.023880515452545888 -0.2325406652477627
000500 b0 c9 53 69 77 e4 cc 3f b5 76 bf cd 2f 9e ab bf
       0.2257222427648009 -0.053941243997298306
000510 8e a6 f3 98 87 04 d2 bf 57 af ec 13 9f bc 86 3f
       -0.2815264695806058 0.0111019542651644
000520 6c 0f 78 ca 5d 15 d5 3f 57 fb c1 84 db a4 ae 3f
       0.32942909977304313 0.059851512866763094
000530 b2 a9 9c 89 a4 be c1 3f 97 63 c8 86 d1 f9 d1 bf
       0.1386304542478008 -0.28087270891551824
000540 0e 9b ba 75 16 6f d5 3f ae 08 4a 29 f2 f4 d6 3f
       0.334905257196099 0.3587003138747019
000550 b7 db 7d b5 e8 6d b2 bf 9a d1 13 a0 34 80 d2 bf
       -0.07198957854221431 -0.28907504684982543
000560 08 16 d4 df fe fc b9 bf d8 5c 20 cc b9 07 c0 3f
       -0.10151665653764763 0.12523577181921186
000570 74 b4 f8 63 1b 82 a3 3f 93 84 d1 ab 97 c1 b9 3f
       0.03810201258998172 0.10061023659501904
000580 cb 67 d2 3b 57 23 ba 3f b5 f2 8b 0b e6 e7 cb bf
       0.10210175714965357 -0.2180144840603099
000590 b8 4c b8 8f 33 43 d3 bf 3e c5 8d 11 1d 70 c7 3f
       -0.3009766486658907 0.18310893399351785
0005a0 6f 46 ef c2 07 a0 b5 3f b2 a0 e5 37 dd 80 c7 3f
       0.08447311886927776 0.1836201212820519
0005b0 58 0e 92 03 bf cc d1 3f c2 4f f0 e7 92 c3 db 3f
       0.27812171314892487 0.4338118805910619
0005c0 b2 f6 0d ab 06 66 b0 bf d0 b5 68 bc bf 0e b2 bf
       -0.06405679393898359 -0.07053755140142148
0005d0 5e 3e 70 07 95 21 89 bf 08 ea a9 02 19 3a bc 3f
       -0.01227108410787919 0.11026150050194172
0005e0 eb 1b e9 87 4c 15 c9 3f b6 a1 ee f3 33 93 a5 bf
       0.19596249233492755 -0.04213869431197585
0005f0 f9 d7 ea 6c 17 a0 c2 bf 67 d9 eb e1 8f 5b d1 3f
       -0.1455106050322568 0.2712135034811553
000600 e0 fc 9b 48 bc 18 d4 bf 6d 03 d4 be 29 a8 da bf
       -0.31400973406557675 -0.41651385913433253
000610 4b 96 cb 9a 8f e8 47 bf 00 66 7b ee 49 70 33 3f
       -0.0007296277231858076 0.0002966099259374688
000620 15 0f f3 15 c0 c8 c0 3f 7a e8 cb 2c a7 26 b7 3f
       0.13112641402960237 0.09043354839005416
000630 a9 55 f4 79 4f d9 93 bf e7 07 d8 b9 bb b6 b7 bf
       -0.019383661097057168 -0.092632038948096
000640 6a 4d 97 c0 6b b5 cd bf af 00 96 32 6b 02 be 3f
       -0.23209902671679156 0.11722440705307478
000650 10 85 dc 61 34 51 bb 3f ca 31 d9 e5 b6 c8 49 3f
       0.10670783414072482 0.0007868664794812793
000660 6c d3 4e cf 8b 04 c7 bf db 5a 48 da 48 41 aa bf
       -0.17982623693901745 -0.05127933182318652
000670 d9 fc 5d a8 91 9f 64 bf f2 9e b6 fd e5 39 a2 3f
       -0.0025174946667331053 0.035597979756230816
000680 cc ee f1 8d af 63 80 3f 50 68 73 0a 53 2a 9b bf
       0.008002635497397569 -0.02652864218985257
000690 3f 31 08 2c 98 e1 92 3f 6a 0c fe 7e 50 77 93 3f
       0.0184386994242669 0.019009835959434097
0006a0 05 5c 29 09 ca 75 d3 3f 90 22 bc a5 aa c2 94 bf
       0.3040642823665965 -0.020273844113975203
0006b0 2e b3 f0 f9 2a 79 c0 bf 88 f0 e6 be 68 f0 94 3f
       -0.12869775013077728 0.020448338176479314
0006c0 a5 0c 31 e6 71 89 d2 bf f6 6d 20 41 2e b6 b7 bf
       -0.2896389720883213 -0.092623606586521
0006d0 69 3d 3e d8 f3 a3 86 bf a4 5d 31 8b b8 df 9d 3f
       -0.011054902111736724 0.02917373990598339
0006e0 70 8e 00 6c cd e6 bd 3f ff a2 9a 64 26 f7 a1 3f
       0.11680301558276951 0.035088729649322296
0006f0 0a 42 4f 68 0c 93 99 3f 63 07 60 b3 b8 04 bd 3f
       0.02497500788359911 0.11335329417491162
000700 90 3b 27 d7 e8 6b c3 bf 1f 18 d9 05 82 ed c7 bf
       -0.15173063760309136 -0.18693566594646513
000710 ce b6 fa 22 0b fc bf bf 4f f9 de 9b 18 7d af 3f
       -0.12493962863910754 0.06150128271791521
000720 32 b7 62 c9 af 76 ac bf 76 a0 2f 9a be 68 cf bf
       -0.055593007405475695 -0.24538404968848554
000730 f2 ad 8a 78 12 cf c4 bf aa ee 1e fa 52 0a c0 3f
       -0.16256934057069788 0.12531506741458048
000740 63 3b f0 aa 57 31 7c 3f 9f f2 60 34 50 84 cf bf
       0.006882994129241068 -0.2462253814463979
000750 60 58 15 95 ef 93 ca 3f e1 3e 89 3c af 80 d0 bf
       0.20763964442693617 -0.2578542796299939
000760 4a 69 94 3f e8 13 c4 3f 6c 56 1d 1d fc c7 d3 3f
       0.15685752014617044 0.30908110469076777
000770 79 c9 02 0f 95 fd c9 3f a7 8f ab 25 c7 dd cb 3f
       0.2030512164397569 0.21770562495578114
000780 12 9e 0c 45 59 cb b4 bf 69 fc 99 fc 3c c0 c5 bf
       -0.08122785506986244 -0.1699291451841163
000790 5c 4d 13 68 e9 29 ce 3f 45 ea c2 0e 04 9f c3 3f
       0.23565404493147468 0.15329027863283975
0007a0 0d 22 2f 1b 7f ec 80 3f 86 d2 fc b5 53 0f b2 3f
       0.008263581292241385 0.07054637139374095
0007b0 5c dc 61 d8 c3 4d a3 bf 6f 07 ab 4f 78 a8 d3 3f
       -0.037702675021983295 0.3071575906761756
0007c0 89 61 81 d5 f1 91 b2 3f 71 16 00 73 e3 9b a6 bf
       0.0725394388440518 -0.04415808466732763
0007d0 2e 5c 66 0e db ee 90 3f 03 a6 15 42 96 e2 c8 bf
       0.016536162141701442 -0.19441488482270594
0007e0 69 f8 f3 a0 b8 9d ce bf a3 e9 b2 53 97 51 d3 bf
       -0.2391882692244878 -0.30185492681234843
0007f0 46 2a c8 c3 3a de c0 3f d9 84 02 64 82 72 d1 3f
       0.13178190765059322 0.2726140953692045

readout.0.bias f8 [64]
000000 29 6b 92 c0 c7 8f a5 3f 64 21 f8 c6 84 30 ac bf
       0.04211258149844916 -0.055057668007125554
000010 8f 26 ed 98 85 da a0 bf 4f af 0a c6 05 54 b2 3f
       -0.0329171895196626 0.07159458241465909
000020 31 a1 64 01 b4 fd 9a bf 13 b9 73 65 d5 b9 db 3f
       -0.026358425698306213 0.4332173815481763
000030 b1 91 80 99 f5 4a c7 bf 03 33 78 da 5c 38 63 3f
       -0.18197507853723274 0.0023462117712881327
000040 f6 b4 e3 01 6f f0 80 bf a9 e3 1b 54 e1 b5 99 3f
       -0.008271090741312364 0.02510788036213155
000050 d8 96 0c a1 7f 16 a6 bf 0f c1 a9 3e b4 c1 c0 3f
       -0.04314040032322247 0.13091137943002493
000060 1c 29 fe 60 6b 89 ba 3f 66 33 24 cc 19 02 87 bf
       0.10365935438145296 -0.011234475653077513
000070 83 cd 6b 8a 23 21 b3 bf af eb 9a a4 0b c0 52 bf
       -0.07472440843030452 -0.0011444200230658998
000080 20 5e 3e 2b 32 a5 90 bf d3 ad 03 00 44 ee 86 3f
       -0.016255172623998004 0.01119664311450822
000090 8b 1e 4e ed 30 b6 cf bf fc 70 90 10 31 53 b2 bf
       -0.24774753176847172 -0.07158190397644043
0000a0 9f a9 5a f1 36 ad cf 3f 2c 93 37 e7 4c fc c0 3f
       0.24747359070654526 0.13269959726235336
0000b0 3b a8 c7 2d a9 5e d0 bf 17 17 35 2c 4a be ab bf
       -0.2557776400632325 -0.054186170479210975
0000c0 76 41 c3 a4 7c 81 c6 bf 30 4b ca 9c a2 85 cf 3f
       -0.17582662625364848 0.24626572280666315
0000d0 f7 5c ce e5 7d 57 ab 3f 13 66 c3 3b 48 a2 b0 bf
       0.053401884367469 -0.06497622927727091
0000e0 29 5f 90 95 fe 21 d0 bf c1 c4 13 82 cf 08 ab bf
       -0.25207485776762667 -0.052801594379965795
0000f0 1a 60 a0 0c 72 ee 99 3f c0 32 80 43 ca 6f ba bf
       0.025323659916551923 -0.10326828144043088
000100 e9 cf 26 2d 9a e9 9a bf 75 5e 89 d9 9f 5d b7 3f
       -0.02628174686988408 0.09127234517051781
000110 84 82 42 7c e3 d5 c0 bf b1 84 a7 0b 85 5c da 3f
       -0.13152736251233332 0.41189695489999695
000120 e5 1e e1 d4 8e 91 b6 3f aa 89 f4 46 20 97 b6 3f
       0.08815853783846313 0.08824350101762116
000130 58 db 7d 94 5e 66 bd 3f 4c 4b e4 d9 35 28 a9 3f
       0.11484328389438525 0.049134905670277534
000140 7b a4 04 5d c7 a2 d0 3f 35 ba 72 92 2f 90 ab bf
       0.25993522723963 -0.05383442557046118
000150 64 80 ac b7 fa e8 c1 3f f7 35 32 5a cc b9 d7 bf
       0.13992246597718172 -0.37071522529808426
000160 ea 55 89 c0 61 f5 b9 bf 92 d7 e2 3a 0d 71 b9 bf
       -0.1014004797992453 -0.09938128173493357
000170 05 74 71 5a 87 de 9a bf 70 05 64 c0 b5 0f b8 3f
       -0.026239504714215673 0.09398971507109422
000180 1e 7c 9b d2 40 da a7 bf f0 89 2b 7e a0 62 d0 3f
       -0.04658701487436921 0.25601970979019395
000190 de 4f de 2c 91 39 d2 3f 70 b3 4a f8 28 49 b0 bf
       0.2847636163871793 -0.06361633359729324
0001a0 57 a3 49 40 37 95 c3 bf 99 48 92 22 03 4a b3 bf
       -0.1529912055878195 -0.07534808725384536
0001b0 63 c7 b6 27 ef bd a3 3f 5d 0a bc 51 d9 b2 9e 3f
       0.03855845794477266 0.029979129422836304
0001c0 47 dc 86 77 a4 45 cd 3f 47 13 ae 93 a9 9f bf bf
       0.22868781887311426 -0.12353000503032972
0001d0 2d 08 b6 dc 18 9b ae 3f 9f ac af 89 4d 25 b5 bf
       0.0597770471022304 -0.08260044681053323
0001e0 3a f0 56 47 d3 b7 d1 3f 82 d7 40 3b 46 f8 a0 3f
       0.27684480635412323 0.033144182904307776
0001f0 b0 a0 ef 61 6f a1 a9 bf e4 97 4a f7 de 5a b8 3f
       -0.05005977697857256 0.09513658082377635

readout.2.weight f8 [2, 64]
000000 55 c1 49 ca d2 78 d4 bf d8 7d 92 8b d4 42 b0 3f
       -0.31987447504709127 0.06351974875951016
000010 9c 12 f0 c9 ec 8e a6 3f e7 e3 fd d2 d9 31 b6 bf
       0.044059180880173104 -0.08669816399732576
000020 b8 53 c2 e5 85 82 cd bf 4a 99 49 20 ac ab c6 3f
       -0.23054574698167385 0.17711402489221434
000030 5c 3f 3a 85 87 5b a1 3f a3 58 88 41 46 d4 ce bf
       0.03390143872559179 -0.2408531017287646
000040 93 72 23 44 66 02 a4 3f ba 85 f6 f1 4b 65 d6 3f
       0.03908080655830761 0.34993265752026625
000050 a5 69 32 e8 f5 fc c5 3f 9c b6 4a 01 ed e4 ab bf
       0.17178224408855872 -0.05448094025392189
000060 42 19 df 6e 2f 69 9c bf 06 53 c3 10 cb 8f bf 3f
       -0.0277450000210362 0.12328786048176363
000070 6c 08 0e 1e 4f 87 d0 bf 36 05 c5 0f 18 f8 c5 bf
       -0.25825860915222765 -0.17163372774124647
000080 2a 8e fa c6 b2 db cc 3f ab 21 81 42 87 c3 d5 3f
       0.2254546615196074 0.34005910391399635
000090 8f e5 0c 8b 3d 29 cd 3f e9 b9 42 54 1e d1 bb 3f
       0.22782105722016552 0.10865964467186696
0000a0 85 df 9d f2 50 7f c8 3f 27 95 06 76 53 42 cf 3f
       0.19138538214224013 0.24421160948728834
0000b0 44 df fb 19 a7 a3 ba 3f b2 03 d6 1b 35 04 d4 bf
       0.10405964264270745 -0.3127568027339819
0000c0 75 4c 2e 26 90 c9 cb bf b3 22 27 e4 e9 51 b1 3f
       -0.217088717120166 0.06765615291727549
0000d0 45 a6 4e a4 87 e6 ac bf fe 48 a1 19 c1 e0 d7 bf
       -0.056446303183588266 -0.37309291365558284
0000e0 1b 80 93 1b 16 81 d3 3f d6 6b 3a 7c 2e bc cb bf
       0.3047538060473031 -0.21668034616308657
0000f0 5e f9 6f c5 fe 60 d4 bf 39 f4 4d 28 da a7 c1 bf
       -0.31842011719699836 -0.13793494194024605
000100 c1 2e ef 76 43 fb ce bf 7c 43 a0 b0 a4 21 b1 3f
       -0.24204295451487748 0.06691960632475785
000110 f9 18 95 6e 24 c8 70 bf 51 9a 41 a3 49 d6 bf bf
       -0.004097120582917884 -0.12436352000950392
000120 ef a3 01 20 e1 95 ba bf 07 40 2c 80 d0 63 d0 3f
       -0.10384947806745946 0.2560921909034736
000130 6b c8 95 ff a0 1c d5 3f a5 f0 5b b8 9d 8a d9 bf
       0.32987236937981973 -0.3990854549772485
000140 9e d8 fd e6 c9 c4 d5 bf ff 53 bb 3e a3 fe c2 bf
       -0.34013602788707853 -0.14839592516969444
000150 8d 1c 6a ae a6 c0 75 bf ad 93 c8 d5 4a 82 c9 bf
       -0.005310679530004536 -0.19928870619437813
000160 b1 ec 4b 50 06 89 d4 bf d5 f6 18 5d 06 d3 cd 3f
       -0.3208633216997426 0.23300246759202162
000170 36 0a 07 00 ce 36 81 3f 10 01 95 96 03 d4 99 3f
       0.008405312896575184 0.02522283178882484
000180 a1 09 fc 89 86 b6 d6 bf 8c 59 3c 0f fc b2 cc bf
       -0.3548904750351998 -0.22421217674191174
000190 79 e7 1d e7 7c 07 cb bf 09 be 45 53 4d 7c d0 bf
       -0.21116601262093207 -0.2575867951590856
0001a0 0e fc 98 80 5d 32 93 bf 6d 2e fd a1 dd 94 b1 bf
       -0.018746815656637543 -0.06867776112374609
0001b0 c8 65 66 ee ca fc a3 bf e4 8a 94 a3 91 97 d0 3f
       -0.03903803024440894 0.259251031633694
0001c0 9b fc af 93 b1 92 d1 3f 0b 66 7b a8 f7 6e 88 bf
       0.2745784704456555 -0.01193040354648913
0001d0 79 fa 6d a2 f2 9b 90 3f 3a 2f 9a 2e f4 73 84 3f
       0.01621989361182805 0.009986789390744034
0001e0 a1 d6 d3 82 52 90 8e 3f c1 24 80 09 e8 4d 90 bf
       0.014923710458315144 -0.01592218931185552
0001f0 e2 bb 1c 80 3a 1b d6 3f 8e 50 5e df 8e 9f d9 bf
       0.3454118968101608 -0.4003636533100313
000200 ad 9e 68 80 3b 35 ce bf c4 eb ce d0 2b 86 d2 3f
       -0.23599952478365563 0.28943915740427095
000210 f3 21 4c 16 d6 02 d2 3f bd 19 e4 fc 63 81 d2 3f
       0.2814231126544932 0.2891473741186948
000220 4e 4e 68 33 7b 6e d0 3f 7c 7f 82 1b f5 d7 67 3f
       0.25674324054964337 0.002910593724735065
000230 0b 33 75 b6 69 e7 d2 bf 48 22 0f af 2b 11 ad 3f
       -0.29537432497163313 0.05677162658645735
000240 b3 19 3b f2 13 84 d2 bf 6f 72 01 00 84 8c 9c 3f
       -0.28931139617307194 0.0278797745707941
000250 1d ad 17 c3 c8 3e c8 3f fa ce 3a f5 3a e9 d2 3f
       0.18941602254867798 0.29548524807181276
000260 b0 ad 4a 21 d0 b9 d2 bf 0e 87 ec 53 81 32 c8 bf
       -0.29259112597602677 -0.18904129598473002
000270 7d f5 be 14 3f d6 bb 3f c5 fc 6e d7 d5 b7 c9 bf
       0.10873789078228487 -0.20092270869461096
000280 b1 41 0d 7c 07 4a 32 bf 72 f9 21 37 0a 21 a2 3f
       -0.00027907068947732443 0.035408324461047594
000290 24 db 4a 71 8c 33 b0 3f 0d e0 9e 5b 04 7a d4 3f
       0.06328656927039994 0.3199473280651553
0002a0 ee f0 5e e3 1c 46 c9 bf 39 3c b8 1e 45 c4 d3 bf
       -0.19745217420666655 -0.30885437011687916
0002b0 6b a8 3e bd 62 2b d6 bf 3c d8 5f f8 28 c0 a1 3f
       -0.3463980529874166 0.03466918975748043
0002c0 32 6f 8b bc 82 c2 c9 3f 5e cb 19 2b 64 b3 bd 3f
       0.20124849516184323 0.11601854374184259
0002d0 be 68 fe 0b c4 44 cf 3f 16 34 50 22 9e b5 a5 3f
       0.24428606591829366 0.04240125817168676
0002e0 ea d2 5d df 52 30 95 bf 04 20 b6 77 55 78 c8 3f
       -0.02069215286560936 0.19117229790958856
0002f0 5a 85 ef 3e 67 94 c2 bf 04 36 17 14 ec 6c cd bf
       -0.14515390942600953 -0.2298865411852803
000300 fe f0 1c d6 c9 9d 9f bf 39 93 ea b1 03 dd d3 3f
       -0.03087535256712303 0.3103646504844622
000310 ae 05 94 98 4d 31 d1 bf 98 3d ed e5 f1 73 a0 3f
       -0.26863422298637374 0.03213458949778242
000320 16 f2 c4 de fe b4 d9 3f 77 50 ef 89 23 56 d0 3f
       0.40167209391418746 0.2552574965495817
000330 98 7e dd 97 cb be d0 bf dc e5 74 ff 14 ca bc bf
       -0.2616452200945587 -0.11245852696165265
000340 f9 0d c4 b4 49 c0 b0 3f 3f 52 85 78 cd 6c d4 bf
       0.06543408072689506 -0.31914078492744474
000350 07 ec 2c 80 b4 44 c0 bf 8c 0d fe 3f 8b 65 5d 3f
       -0.12709671267097652 0.0017942294943801033
000360 f2 1e a0 f0 fc 7f 8d 3f be 2c 3e e9 1f e9 cc bf
       0.014404274075800558 -0.22586439980327627
000370 a2 f0 2a cc 92 45 d5 3f 09 3c bc 15 c4 02 d6 3f
       0.33237142503981876 0.34391882059657114
000380 db 4a eb 04 15 74 ae bf 28 58 74 d6 b9 33 62 bf
       -0.059479386187055026 -0.002221930469782602
000390 08 58 c1 de dc a0 a1 3f ad 0f 26 94 51 ae c6 bf
       0.03443041056804935 -0.17719478353330712
0003a0 69 e0 87 00 aa fa d1 3f 76 5d e4 91 8c ec ce bf
       0.28092432071526346 -0.24159390567431743
0003b0 0e 42 90 27 af 99 c6 bf 00 6f 42 ef 0a 4d d4 3f
       -0.1765650695019904 0.31720231404482035
0003c0 8d 33 7f 8f 1d e2 a1 3f f4 4c 5c c7 a1 e3 d2 3f
       0.03492824913664725 0.2951435515289653
0003d0 ed 4b 9a 1c c3 7b c4 bf 06 2d 9a 02 d8 ef d3 bf
       -0.1600269212400173 -0.31151390318036964
0003e0 5f da a1 98 02 71 d4 bf 7f 12 20 4c 77 b3 c5 3f
       -0.3193975916432574 0.16953936783842846
0003f0 d2 0a 00 35 fa 2f ce 3f d0 5b 49 24 ef e6 b0 3f
       0.2358391531743878 0.06602377544309879

readout.2.bias f8 [2]
000000 c0 ac c7 0b 8c b0 99 bf f8 16 1c 41 6f 86 aa bf
       -0.025087536067002203 -0.05180690450474218
