experiments/flockingGNN-050-20221018124015/savedModels/DAGNN1LyG07Architbest.ckpt (torch, 9247 bytes, 4 tensors)

readout.0.weight f8 [64, 12]
-0.2554073698749363 -0.18250409720379196 0.25766596048525153 0.28518488004107523 0.1215569708229448 -1.1422195384996886e-05 -0.1486730825517162 -0.18054051291052878
-0.10551854621760907 0.20539945302093326 0.27836996161147765 -0.016490558396926196 -0.11482292837743027 -0.18420046762987766 0.3248863686164853 0.10868870615470523
0.012408922909868574 0.05115520437465543 0.005103401586075991 0.34560073869586455 0.10833310361902564 0.2094903544659761 -0.16225883003813063 -0.0953389237910067
0.30116231823093204 0.03383556122315352 0.09693220902958781 0.07477594083645694 -0.1552143699616595 0.18169420738248282 0.027277125962357773 -0.07345874370705906
0.15504022485912805 -0.10502499952386042 -0.12320565976701368 -0.2127281092347387 0.30216617085764064 0.25819195119225224 -0.09547527496862084 -0.3060485969480032
-0.11807842219517606 -0.1502236874126687 -0.014014988012768534 -0.14097536021287196 -0.05173731922557237 0.08568900736374255 0.0960486701998012 0.040045332997166255
0.037028515175373714 0.09301566595151585 0.24364617166007044 -0.022191128637474845 -0.0024735561537429845 0.0009983315959790878 -0.2675008031241373 -0.1384382988750637
0.1317641952652844 0.18616603296205067 -0.07645604196176978 0.2442773756187796 -0.08957133787851719 -0.20952959024512063 -0.28088944907821234 -0.19421096818000547
0.0540546013803541 0.08376482214639774 0.0713775581416756 0.03702302228109308 -0.12124614435329768 0.1453620257470895 0.13197613378924064 -0.21861886676448308
0.260921012874141 0.1174352518017957 0.07609617940015419 0.26616546339180713 -0.06343692873743176 0.07027140999526271 0.011384973261700373 0.0650817960904686
-0.032118907934698765 0.029833320185619537 -0.13421531718687743 0.05173069340422616 -0.09275447649707402 -0.27897399439135284 0.28296528942823085 0.22492301819007912
0.022747771320616107 0.05537982171414202 -0.14014345605677545 -0.12087178966265368 -0.026231109114198608 -0.10654103253703326 0.2159059777850232 0.1274391562973365
0.09898058750121132 0.27508323667231604 -0.2400403792547927 0.12097461756402769 0.03667917148394228 0.013240657306870825 0.2369568569430124 -0.1864953536320178
0.0796884244917912 0.19025029785311234 0.14363738594845682 -0.1919423320370448 -0.13919499214944883 -0.14469633427708678 -0.2137892216491524 -0.29596035456217407
0.03428404192792706 -0.07942707310810775 0.05812784228667987 -0.04057329235501237 -0.034603962991974206 -0.14375767546978543 -0.03342880800021148 -0.021504044924155287
0.13412246368952804 -0.1979275403413979 -0.03272386077002415 0.09313570494809796 -0.11421852410056231 0.167571404648993 -0.05561993233424186 -0.17962667952253744
0.06831450198633425 0.16412106145912145 0.09779218382090173 0.09529046471162113 -0.03177280489032426 -0.10417870338479672 -0.18592704191583886 0.11286973406755195
0.007638298686770539 0.12688824931114467 0.07511027551554436 0.09788437558738675 0.15236415823986726 -0.0694957652660063 0.11033781958579333 -0.3593062289023594
0.07824939364324915 0.14614683762700106 0.4040037021950274 -0.19398767646187118 0.34529185589004135 -0.220831799036084 -0.04202275472890552 0.25660073882781964
-0.28166563730201605 0.01012110900450162 0.015563991401518233 -0.040594344796069194 -0.3133110513385046 -0.08607063175245155 -0.09605575344211986 -0.20016289357776582
0.11849868508526624 -0.050591247296194665 0.00219560987127599 -0.2513498346316611 -0.10926551629681544 -0.0022689394557948066 -0.1110752077117537 -0.05134078714979541
-0.07244237006737883 -0.1320707559869876 -0.24610969123495893 0.064106759925509 -0.1075157667308387 -0.03573871148944039 0.35699281884438683 -0.16821683747942706
0.1503047509845574 -0.00773347198400311 -0.27841804027427686 0.23953986823736462 -0.0015401608193751418 0.02468034590300847 -0.2921357690241057 -0.26313051580059743
-0.06841188898875364 -0.35182744416689266 0.1169346740431795 0.095308699168579 0.2502693180197652 0.09419448747456803 0.025886257452354823 0.16895513725170844
0.03887661274005961 -0.06420536668472192 0.32190867440933346 0.1356508516698353 0.0020066060286959508 -0.047003352881860146 -0.16907360391526913 -0.1153358958573154
-0.05377556724072467 0.07891940553996743 0.3582868047753879 -0.3170087563143242 0.09546023958854101 0.2854627774708642 0.30214172634735664 0.19635190117762102
-0.029392173638535305 -0.16057674495838314 -0.11402519316052184 -0.01641143139931028 0.08746255770914085 -0.19727016902064937 0.11004597947381306 -0.0540086760195964
-0.12547889773246856 -0.15876499462907942 0.3348613310743193 0.24062003989447903 -0.13190026374109404 0.1179291616967187 -0.2524971882955258 -0.10257890019919944
0.20329862334549392 0.1339229569511595 -0.1993452689830292 0.14066165046652654 0.05744139546167536 0.21765823514554872 0.2560913528881712 0.25387395928569984
0.0541430706391436 -0.04405319775759592 -0.13302993627653775 -0.0007496090149169845 -0.2973451324629196 -0.08349854136526516 0.048250424568559595 0.09144321885556564
-0.2292698731358023 -0.1537621289755571 -0.03949781799987098 -0.03397710397789711 0.14258883869540365 -0.22789141233605484 0.020583342813201264 0.06318248635550218
0.08204427607693938 -0.286343887655137 -0.2200346737549755 0.017323082033960217 -0.07243489902646187 0.14266086730962868 -0.18136443342243802 0.028542745604565812
00000000: 664b 3127 9858 d0bf 522a 7054 4b5c c7bf
00000010: bfe6 645e 997d d03f 38c4 4515 7840 d23f
00000020: 470e 498e 5b1e bf3f fd3f 7f94 3ef4 e7be
00000030: e174 ad35 b807 c3bf 7de2 4697 f31b c7bf
00000040: cb47 2071 4303 bbbf 56ac ab7e 874a ca3f
00000050: 38d8 533e d0d0 d13f 0ec2 07a4 e6e2 90bf
00000060: 8246 3612 0965 bdbf e169 3084 e193 c7bf
00000070: b3ef 0732 f0ca d43f fd06 61e6 05d3 bb3f
00000080: a99c 9c70 d969 893f f861 9ed3 0331 aa3f
00000090: d59d 91ee 4de7 743f ff04 8b8f 521e d63f
000000a0: 532e 1ee1 b7bb bb3f d920 a176 94d0 ca3f
000000b0: 8e20 40b8 e5c4 c4bf 9edc b7b7 2168 b8bf
000000c0: b1b8 e550 3e46 d33f 395e ca09 e552 a13f
000000d0: ab0b b69b 8cd0 b83f 1c93 6b1c 8424 b33f
000000e0: a062 6d81 10de c3bf ba4a 4a7b c141 c73f
000000f0: 23b1 bfef 88ee 9b3f 7fba d335 31ce b2bf
00000100: f8ce aaab 5bd8 c33f 45a7 371a ebe2 babf
00000110: 2fa5 61f7 678a bfbf fb32 0db8 ac3a cbbf
00000120: a0a1 72c7 b056 d33f 8283 9d88 3786 d03f
00000130: 071c 914f 1171 b8bf 0937 b8da 4c96 d3bf
00000140: 300a b131 633a bebf e5ce 42a0 873a c3bf
00000150: 2b71 59d9 e3b3 8cbf 3dfb d308 7b0b c2bf
00000160: 84f3 1c5c 507d aabf aa04 41fc b6ef b53f
00000170: 861a 5549 a596 b83f ac17 2967 d280 a43f
00000180: fa34 65cb 66f5 a23f 1505 47eb dfcf b73f
00000190: 69ad 8939 cc2f cf3f 9d81 096f 45b9 96bf
000001a0: cee9 1f59 6c43 64bf 73ee 8963 4e5b 503f
000001b0: 159a 44b0 bb1e d1bf b254 179f 58b8 c1bf
000001c0: 215d b92e a6dd c03f 375a 99df 49d4 c73f
000001d0: 16b2 ce87 9f92 b3bf 14ba b725 7b44 cf3f
000001e0: ede1 d8ae 25ee b6bf 50d3 d298 ddd1 cabf
000001f0: b445 65bd 17fa d1bf 7fc6 6dae e7db c8bf
00000200: eefd 4072 0bad ab3f 8c8d ac83 9c71 b53f
00000210: a207 e3b5 cc45 b23f 8cf1 ca7b aef4 a23f
00000220: 4d75 c3c0 fc09 bfbf e6ff 540d 399b c23f
00000230: 7718 3d0d 98e4 c03f 7161 85f9 b3fb cbbf
00000240: 678d 480c eeb2 d03f 78e0 e295 3c10 be3f
00000250: 4dcc df09 0a7b b33f 78eb 25de da08 d13f
00000260: 2634 490e 673d b0bf 8801 c69f 4efd b13f
00000270: 6e44 993e 0151 873f 5004 c659 33a9 b03f
00000280: 1456 53b6 e371 a0bf 3603 1d3a a08c 9e3f
00000290: d14e f8ae f72d c1bf 4ab9 bd08 727c aa3f
000002a0: 00cf 1ce3 c1be b7bf 2e1a 96bd b5da d1bf
000002b0: d4d5 ff71 1a1c d23f 7d3b 9f07 47ca cc3f
000002c0: fd06 8417 314b 973f d0b8 3d76 be5a ac3f
000002d0: db91 4184 38f0 c1bf c12e 9c1f 74f1 bebf
000002e0: eb16 22ef 53dc 9abf aeba 6dea 4546 bbbf
000002f0: 697d cc9c cea2 cb3f 3871 4320 ed4f c03f
00000300: 81ae 41b2 ca56 b93f 02de 4bb8 f69a d13f
00000310: e833 4fa5 a4b9 cebf 3667 154a 31f8 be3f
00000320: 9f91 efc3 9cc7 a23f f169 e2f0 ea1d 8b3f
00000330: 550c 912f 9a54 ce3f e24c 5a6a 14df c7bf
00000340: ccdf 0fe9 7566 b43f 15ac aa2b 1f5a c83f
00000350: b2d6 90b9 b562 c23f 1896 68fb 9091 c8bf
00000360: 0741 8639 24d1 c1bf 261c c9d3 6885 c2bf
00000370: 3936 9cf9 715d cbbf 5c74 f0b2 03f1 d2bf
00000380: d9d4 b58d ad8d a13f 3394 6a29 5555 b4bf
00000390: ce77 37bb eec2 ad3f 7dfb 82c7 05c6 a4bf
000003a0: af9c b952 9cb7 a1bf f389 58c9 a666 c2bf
000003b0: 09d9 35aa 941d a1bf 0a4e b906 2805 96bf
000003c0: db4c 9ac5 ec2a c13f 333c 5f8c b055 c9bf
000003d0: 98ba 9c8f 2ec1 a0bf 678c d7d6 bdd7 b73f
000003e0: 47fb 9bd9 6c3d bdbf 9c29 5bd3 fa72 c53f
000003f0: fb39 c33c 377a acbf 59e9 04cd 01fe c6bf
00000400: 7fb3 df27 0f7d b13f 2d9f c63f eb01 c53f
00000410: 81b0 5097 e808 b93f 259b 8eb5 f464 b83f
00000420: 7af0 cf6b 8644 a0bf ff35 fa9b 74ab babf
00000430: f43a 3c12 75cc c7bf 1f42 87e8 07e5 bc3f
00000440: 597c e830 5649 7f3f 2edf 84c8 df3d c03f
00000450: cecc ee50 6d3a b33f caec ef4f f30e b93f
00000460: ac84 5c32 ab80 c33f 572a 0777 79ca b1bf
00000470: be07 a26e 193f bc3f 509f 988d dffe d6bf
00000480: 822c a1fa 2608 b43f 13ca 0288 f0b4 c23f
00000490: 09ff 1858 32db d93f bb89 1d93 96d4 c8bf
000004a0: 25dd 2703 4319 d63f 016f 6365 3744 ccbf
000004b0: 9538 7faa 0184 a5bf 6a46 5981 256c d03f
000004c0: 43a0 274f cf06 d2bf d580 6341 60ba 843f
000004d0: 8f99 8490 03e0 8f3f d573 9a2e c8c8 a4bf
000004e0: 2f5a becb 490d d4bf c0d8 8594 b908 b6bf
000004f0: 3465 a01f 1c97 b8bf 9305 e50c f09e c9bf
00000500: ad6a 0f09 ee55 be3f ddb6 3391 18e7 a9bf
00000510: 10e3 f012 87fc 613f 8345 e69d 1d16 d0bf
00000520: ee4b 132b d3f8 bbbf 6ab7 4b98 4f96 62bf
00000530: 27b5 84c0 6c6f bcbf d2be 84f3 5649 aabf
00000540: 2ebc 484a 958b b2bf 086e dccc b1e7 c0bf
00000550: 6799 8ab9 8580 cfbf 4324 55f5 4c69 b03f
00000560: 25cf e93d 2786 bbbf 2dbe 182a 584c a2bf
00000570: cefb 7568 f8d8 d63f f82a ce1b 2188 c5bf
00000580: 9fbf f4a2 2f3d c33f 94dc 1714 22ad 7fbf
00000590: 240b 66e6 99d1 d1bf e874 150e 3ea9 ce3f
000005a0: 1b12 6316 e73b 59bf f990 07fa cd45 993f
000005b0: 6fd2 7c39 5ab2 d2bf 045d fc5f 21d7 d0bf
000005c0: 6a41 dd09 7183 b1bf 6f0d a241 5784 d6bf
000005d0: 1aac c848 6eef bd3f b10e f4a1 2666 b83f
000005e0: 4b93 059a 6904 d03f 37b0 2a43 211d b83f
000005f0: 7ade b154 ed81 9a3f 295f 7e6a 52a0 c53f
00000600: f17a 98a8 a2e7 a33f 3b79 234e c36f b0bf
00000610: 52c1 38d7 269a d43f c559 ccd1 015d c13f
00000620: f354 9d68 2870 603f a920 dcce d210 a8bf
00000630: 876a b72f 34a4 c5bf 7f14 c33c a786 bdbf
00000640: 96da 3e9d 7888 abbf 265d d0e9 0f34 b43f
00000650: ea4f 46c7 2bee d63f 1b9a 3a18 df49 d4bf
00000660: 39e2 190f 1570 b83f ab9c 5dab 0545 d23f
00000670: e7ce 5a40 4a56 d33f f45b 0821 0f22 c93f
00000680: 21b9 2462 fb18 9ebf ec14 0c5e c78d c4bf
00000690: f065 8b4b c130 bdbf 8ff5 8f84 28ce 90bf
000006a0: d43a fc38 f263 b63f 3ac5 351e 2640 c9bf
000006b0: dc74 e52a f92b bc3f 86aa 6872 06a7 abbf
000006c0: b0ae 0c49 b10f c0bf c73b d74d 6952 c4bf
000006d0: d330 6a38 5e6e d53f cdf3 0d31 a3cc ce3f
000006e0: ea06 8d9b 1be2 c0bf 156b bb04 9b30 be3f
000006f0: 50eb 83f7 e928 d0bf 5e7e 9d5d 9c42 babf
00000700: aa9c 4b75 b005 ca3f e7f8 2430 6324 c13f
00000710: cd7c 7251 2584 c9bf ff0d 4772 3301 c23f
00000720: 4e95 e365 f568 ad3f e8dd d39c 39dc cb3f
00000730: 985b 5cfc cc63 d03f 190a 1c90 783f d03f
00000740: b278 66fb a3b8 ab3f 7862 4e07 248e a6bf
00000750: 422d d9fc 1f07 c1bf 91ed 171a 2d90 48bf
00000760: ce64 e3e0 b307 d3bf c271 6d10 2960 b5bf
00000770: 2785 1497 47b4 a83f c2f5 6ca2 d268 b73f
00000780: 81c5 8917 b758 cdbf e91b a839 7aae c3bf
00000790: d446 25d9 0e39 a4bf 41b4 cb6c 7265 a1bf
000007a0: 1d56 7cdf 5940 c23f c5e4 82b9 8b2b cdbf
000007b0: 1975 e6c0 cc13 953f 51ac 9338 ba2c b03f
000007c0: 250f 938a da00 b53f 19da 3850 7553 d2bf
000007d0: 43bf e19f 182a ccbf f106 355b 24bd 913f
000007e0: 1360 68f2 178b b2bf dcc5 c117 b642 c23f
000007f0: 087d 1a23 f336 c7bf 5d7d a33b 4f3a 9d3f

readout.0.bias f8 [64]
0.0676880099206408 -0.02825234180309508 -0.16054501094297974 0.10296830337595188 0.08073324770185614 -0.21402118852474394 0.1502521745919039 0.17305524681792742
0.024367823759193337 0.11601835425158212 0.1396203639793697 -0.15209444543512374 0.27306043299147487 0.08491435089299487 0.19804265157586218 -0.18142336674790505
-0.14133259160789774 0.2111409365880677 -0.04586846920438035 -0.1257544948557936 0.11821519739071233 0.23267516112145448 0.24293004819027283 -0.04060431696840431
-0.2795368786445144 -0.15392744689143126 0.2602927016110952 -0.24623922600683779 0.2707869274086394 -0.033940157133098205 0.01944710067514156 0.0506097406417651
-0.04069606383551087 0.006217174898657522 0.11620930989911471 -0.3219938653563295 0.0540347006532143 -0.09379799433353837 0.10579495931049718 0.15607827400156926
-0.22312255808616208 -0.2942526882927853 -0.14352002292399482 0.15040146714553507 0.0024669244823166247 0.18040754080485627 -0.00728443199603418 -0.13474566854804038
0.049897848800966885 -0.2849790570202465 -0.23268555581962475 0.21045752747858928 -0.21199155678063547 -0.23907642586443933 -0.21764087646826033 -0.06638673509732256
-0.12296439936147248 -0.08546917268432008 0.21239112107350042 0.09258635001490341 0.20001624947777155 -0.31658988729489723 0.13144922530511746 0.0864487319298653
00000000: 05c3 f05c 0054 b13f b99e 5190 2eee 9cbf
00000010: 9e9d c429 bd8c c4bf d139 8677 215c ba3f
00000020: 944f 9422 efaa b43f 9cb2 aeda 0b65 cbbf
00000030: c936 0398 763b c33f 79fa bda0 ac26 c63f
00000040: 4251 7bf8 e0f3 983f b70c 3ffd 60b3 bd3f
00000050: 33d1 9280 14df c13f cc07 86ae d477 c3bf
00000060: 42eb 6177 d279 d13f 34e6 0b68 f2bc b53f
00000070: 2fa0 dd2b 7659 c93f b0cb 7481 e138 c7bf
00000080: d64c 68b5 2f17 c2bf 3a0c bf8c aa06 cb3f
00000090: cd00 4d6e 127c a7bf 6885 5d29 b918 c0bf
000000a0: 5bec aee6 5943 be3f c4d8 cdb7 4cc8 cd3f
000000b0: cbb1 18f2 5418 cf3f 6553 e9ca 16ca a4bf
000000c0: 8a76 f3a5 eee3 d1bf 2d80 2d03 e5b3 c3bf
000000d0: 30a8 33b8 a2a8 d03f 508a 5857 c484 cfbf
000000e0: 38e2 59b1 9254 d13f a5c5 d0b1 9a60 a1bf
000000f0: 0365 9bd5 f0e9 933f 58b2 d419 85e9 a93f
00000100: 96b7 7f4e 1dd6 a4bf 38db cf2d 2e77 793f
00000110: b8e6 81b1 e4bf bd3f bdf4 4d28 8c9b d4bf
00000120: 8735 4fb0 6faa ab3f f5ca 1736 2503 b8bf
00000130: fefa 51e2 6015 bb3f 8cf7 3975 5ffa c33f
00000140: 3b6e fdac 478f ccbf ea90 3e3a 09d5 d2bf
00000150: 21ce 6336 dd5e c2bf fd8a 54f3 5a40 c33f
00000160: 9ce0 24ff 8335 643f d2b4 da23 9817 c73f
00000170: 4021 16d3 47d6 7dbf b882 d897 583f c1bf
00000180: fa57 7bf9 358c a93f a699 7ccc 183d d2bf
00000190: 7699 3fea a3c8 cdbf 15d9 dbb2 45f0 ca3f
000001a0: 8a52 b311 8a22 cbbf f889 2a6b 0e9a cebf
000001b0: 2b1b 5aff a7db cbbf 5b97 2198 b8fe b0bf
000001c0: 456e d449 987a bfbf 08ce 7ec5 4ee1 b5bf
000001d0: d358 7cdb a12f cb3f 95b9 5e31 bdb3 b73f
000001e0: 417a 16e9 219a c93f 1a42 0b3b 0243 d4bf
000001f0: db8f e205 54d3 c03f 9460 6b0c 8121 b63f

readout.2.weight f8 [2, 64]
0.22723908548599037 -0.005956774992517473 -0.24726332610050453 -0.27815039600047425 -0.05126910512180042 0.17758152344692404 -0.2719047155851854 0.11356378444026509
-0.03393439885936077 0.16568860860217544 -0.3006623929154912 0.046850605137749295 0.1081722280860479 0.27469269979551453 -0.027949406665065284 0.04009868736705426
0.03134868686474845 -0.02343056107555205 0.031808955071392676 -0.0713015969863061 0.2874815289168499 0.27566796812722294 0.10938212146178651 0.1911454261890406
-0.1603479005971528 -0.21057511394351147 0.13195135347072146 0.10052903291832108 -0.024456537995400186 -0.24849463858687848 -0.2841575667679181 0.2761925188295544
-0.17539980469037963 -0.2867697183148128 0.19381571912257986 0.018913680428053952 0.25217356721750134 -0.2621874065054749 0.1706975245559475 -0.19426384705184338
-0.013928057349814858 -0.18987357707688718 0.17790823389422428 -0.11297146535484771 0.0038460425570001388 -0.15499347961287996 -0.20030694500936227 0.0961741013365363
0.3233901276879781 0.07537542035483928 0.06073421056851605 -0.16382936063419348 0.21040547574983026 0.10574389384424289 0.14284754766132074 0.20637700273914486
-0.08409140833076094 -0.2726143956710194 0.059259214603388184 0.060982046329506025 -0.12099832889466894 0.3269380103115218 -0.048568714784864804 -0.014230462686180818
-0.21846621394396504 -0.288313850268255 0.02992456599165658 0.16912175341677071 -0.22065127239230864 0.30047572595464295 -0.1643899049592863 -0.23451312648195743
0.20017325014103415 0.20384765842584343 0.08964775345624665 0.25693130601207664 -0.09858490692446648 0.2466548283667223 0.22269441595084902 0.29841677443583964
-0.2370013328754137 -0.2078865902777912 -0.0961688614331287 -0.27220177577807975 0.022162490012020395 0.20536135974930483 0.06270971676218165 0.27507406573808274
-0.057359690832366014 0.07151353369414566 -0.00251659159971861 -0.1869644606885037 -0.21350557123482 0.029791370580484356 0.14726734483621248 -0.008553945537824705
-0.15558082741463297 0.24304296714004647 0.09387936862709892 0.04494079298078984 -0.10151461554898993 0.1236750674060746 -0.18383109355486096 0.12571744341971072
0.2602805625871699 -0.01592497691993325 0.05141758138381533 0.22381386268547107 -0.2523293559248213 -0.25180011347630443 0.17281539053499848 -0.0369624963575126
0.04587768178500283 -0.1537951909606441 -0.1353702985595505 0.1696029287040408 -0.11057388523305407 -0.15879500108853042 0.15391385309697692 0.24354461971611038
-0.2209929775669067 -0.0890636012948149 0.18247743396303404 0.2875290115339578 -0.22711988108880668 -0.009380733326800223 0.2702053299429297 -0.2250426921968082
00000000: f483 449c 2b16 cd3f 9517 859c 2166 78bf
00000010: 6d09 8d1d 53a6 cfbf 4f41 8c51 37cd d1bf
00000020: e52d 96b3 f13f aabf e108 cac9 fdba c63f
00000030: 6742 4409 e366 d1bf 9351 2e24 8412 bd3f
00000040: 5ee9 9e7a d95f a1bf 2a0f a2c9 4835 c53f
00000050: 7f62 2d7a 0d3e d3bf 3f98 ba71 cdfc a73f
00000060: 1a0c f7d5 2cb1 bb3f 6b96 84b0 9094 d13f
00000070: 9eb7 46ee c49e 9cbf f342 b5ad d087 a43f
00000080: 6f99 b661 ef0c a03f 778a 2f56 2efe 97bf
00000090: 1dcd 806b 4349 a03f 1771 354b d240 b2bf
000000a0: 87b9 39ed 1866 d23f fc50 ea42 8ba4 d13f
000000b0: 810a 727a 7700 bc3f 4f86 210d 7477 c83f
000000c0: 1505 86ae 4786 c4bf d092 de15 20f4 cabf
000000d0: 6eeb e82d c8e3 c03f 32c5 ae4c 45bc b93f
000000e0: 2a5a 747b 220b 99bf 4022 fb1c acce cfbf
000000f0: 1b77 0b38 a32f d2bf 9075 f162 23ad d13f
00000100: 1c5b 6f34 8073 c6bf d44b 6960 6f5a d2bf
00000110: 9b85 8a17 f4ce c83f 1bbd 8a9b 1b5e 933f
00000120: 4f59 079a 9c23 d03f f64c 17b0 adc7 d0bf
00000130: faeb bc9e 6ad9 c53f 0700 f142 a3dd c8bf
00000140: 8c9e 8336 5086 8cbf e2ba f501 c74d c8bf
00000150: 5ce5 216f b2c5 c63f 718c 14ad b2eb bcbf
00000160: caf9 0a60 bc81 6f3f 76e9 038b d3d6 c3bf
00000170: 730a fd70 a8a3 c9bf d36d f6ab dd9e b83f
00000180: 6d39 9181 6cb2 d43f 4ba6 58b5 cd4b b33f
00000190: 44c2 47f0 8d18 af3f a333 0649 5cf8 c4bf
000001a0: fc56 9f0e 91ee ca3f 590e d025 0812 bb3f
000001b0: 4a74 c214 d448 c23f e59f b4c6 8f6a ca3f
000001c0: 33bb a7b8 0387 b5bf 70da 74a6 8372 d1bf
000001d0: e998 6a49 3957 ae3f b5bb 41ed 0939 af3f
000001e0: 3c27 7919 bff9 bebf f4dd 8667 8dec d43f
000001f0: a130 38a3 ffdd a8bf d7b4 c05e dc24 8dbf
00000200: 60cb 156e b3f6 cbbf 29b4 78ef bb73 d2bf
00000210: 19e8 1fa1 8ba4 9e3f 6ccd fb17 c8a5 c53f
00000220: d874 5f07 4d3e ccbf 25e4 0d8a fe3a d33f
00000230: 08dd cb78 ba0a c5bf 0c82 5cb0 8604 cebf
00000240: f4e3 71ed 469f c93f 0510 2719 ae17 ca3f
00000250: a823 41b9 27f3 b63f edfc 2801 9071 d03f
00000260: 64aa 1e47 dc3c b9bf 0227 9eaa 6292 cf3f
00000270: 2f5f c128 4081 cc3f 43e7 b1ab 4219 d33f
00000280: c076 e746 0f56 cebf 7b91 421d 079c cabf
00000290: 34b4 bfc2 859e b8bf 8d51 38ff c06b d1bf
000002a0: 59be 3287 c3b1 963f 1d20 fef1 4749 ca3f
000002b0: ea8e a276 be0d b03f 13a9 1441 d09a d13f
000002c0: 4ea5 77d8 3f5e adbf 5d10 7000 b64e b23f
000002d0: e820 c8d3 ac9d 64bf 78f0 1592 73ee c7bf
000002e0: 22d2 fb8a 2654 cbbf 6d81 6209 a181 9e3f
000002f0: 878e eb06 a8d9 c23f 6e9b b122 bb84 81bf
00000300: 34b3 d092 12ea c3bf a8d4 b12d 081c cf3f
00000310: c2c3 0572 7a08 b83f 77b4 37c8 7a02 a73f
00000320: 2353 d9a1 dcfc b9bf a9f5 d651 2ba9 bf3f
00000330: 752c 67fb c687 c7bf 251f 035a 8217 c03f
00000340: 062b 06ce 6fa8 d03f c91f 3e1c a34e 90bf
00000350: 5c3f f7bc 6753 aa3f 7711 50c2 eea5 cc3f
00000360: 7a24 e106 2a26 d0bf d5a0 2039 7e1d d0bf
00000370: cff0 4b91 d01e c63f 226d 1192 bfec a2bf
00000380: 1e09 c48d 477d a73f 18a1 ba91 8faf c3bf
00000390: 03de 945e d053 c1bf 787a 0b7c 8cb5 c53f
000003a0: a51c def4 914e bcbf 59c5 3804 6553 c4bf
000003b0: 74f7 b9fa 72b3 c33f df12 6658 782c cf3f
000003c0: cbd3 a575 7f49 ccbf 2d41 d346 dfcc b6bf
000003d0: a38a 90a9 6b5b c73f ae21 4c15 e066 d23f
000003e0: 691f c6a6 4312 cdbf bd0f cfb6 3436 83bf
000003f0: 50d3 d34b 0b4b d13f f533 98ed 32ce ccbf

readout.2.bias f8 [2]
0.03755053779846666 -0.04438490884737404
00000000: 0650 95f7 d239 a33f 65ee de67 9eb9 a6bf
