experiments/flockingGNN-050-20221018124015/savedModels/DAGNN1LyG02Architlast.ckpt (torch, 9247 bytes, 4 tensors)

readout.0.weight f8 [64, 12]
000000 aa 6f 50 db e8 bb c2 bf 78 1b 63 a4 0a cd cc bf
       -0.14635954579068527 -0.22500737215724675
000010 4e bc 12 cb 16 30 c9 bf be b1 73 59 06 3e cf bf
       -0.19678006091769124 -0.2440803467537886
000020 31 44 38 dc d0 32 c3 3f ad 09 16 64 ce 0a ca 3f
       0.1499882769863077 0.2034547795011127
000030 74 ca 36 65 03 1c a3 3f 44 86 0b a6 14 ba 94 3f
       0.037323099236705654 0.0202410913797222
000040 b5 98 b6 58 94 74 d3 bf 6c 24 68 3f dc c1 c0 bf
       -0.30399044669537584 -0.13091614814792096
000050 4b 1a 85 62 48 fd 94 bf 96 3f 47 4b a1 e8 ab 3f
       -0.020497447026423903 0.05450920146870357
000060 38 b1 0e a5 27 33 d4 3f 20 3a dd 0c 1f e7 da 3f
       0.3156222450150099 0.42035652405039237
000070 ac 9d 35 d7 18 2f a4 bf d7 b0 69 8e 05 08 c1 bf
       -0.03942182185238194 -0.13305730298760096
000080 93 58 41 40 91 93 bb bf 45 0e 2d da 97 02 c3 bf
       -0.10772044962627296 -0.14851663735508872
000090 35 8a 43 50 05 3e 92 bf 96 f3 56 97 ca e2 93 bf
       -0.01781471540824438 -0.01941982792571969
0000a0 e4 77 91 4a ce c1 9d bf 90 53 75 48 d2 e6 d7 3f
       -0.029059623051914132 0.3734632213211677
0000b0 db 13 ef e3 a0 7c cc 3f c7 39 e1 0e 15 ae d8 bf
       0.2225533593138199 -0.3856251378355435
0000c0 a7 c0 c4 57 7e 38 93 bf a8 6f 31 65 e7 c2 ac bf
       -0.018770193201988274 -0.056174498655962524
0000d0 b5 0c 59 4f 27 34 cf 3f f8 4d 19 22 31 86 ba 3f
       0.24377910017401452 0.10361010630122525
0000e0 a5 30 c0 a9 ea ac 86 3f a4 d0 33 5d 4f 43 c5 3f
       0.011071999841100253 0.16611663866900017
0000f0 08 dc 10 46 cb c8 d7 bf 79 ff b2 98 67 81 c3 3f
       -0.37163049547547233 0.15238661724105976
000100 ba ee 28 99 1e b3 bc 3f f6 ba c7 71 b5 6c c0 3f
       0.11210814704184716 0.12831752830194149
000110 8d 2a cb 26 c6 c1 aa bf ce 53 18 be 49 f3 b1 bf
       -0.05225962852053554 -0.070118531141204
000120 ed 12 73 70 8e eb 72 bf b8 d8 0e da d8 60 77 3f
       -0.0046191753419335515 0.005707594945240917
000130 c7 1c 6c cd 8b 7a d5 3f 05 6a 4f 58 2d 07 dc 3f
       0.3356046205594336 0.4379380571751031
000140 2b 6b 2c 06 0d 5f 9b bf 3e ee 06 c2 66 ef b3 bf
       -0.026729777814675486 -0.07787172543515283
000150 a9 b1 55 74 f3 1c c0 bf f8 bb 49 3f 3c 3b c1 bf
       -0.12588351421744662 -0.13462021913753097
000160 72 10 f9 f1 54 5a c9 3f 0a e9 8f 97 8e 7f b5 3f
       0.19806920828898772 0.08397761535880846
000170 51 84 fd 32 45 d5 b6 3f fc 8b 65 8a 01 33 d3 3f
       0.08919174666290643 0.29998816027926956
000180 8e 54 b2 b4 6a ac ef be 31 37 e6 ad db 04 9e bf
       -1.510310325717804e-05 -0.029315407265634256
000190 b1 4e 14 51 61 23 d2 3f ed 29 bd c5 1f a0 87 3f
       0.28340943258192924 0.011535881254208536
0001a0 0f 59 e7 20 b8 a3 75 3f b7 ac 96 10 ce 66 b6 3f
       0.005283087970801028 0.08750617890352684
0001b0 c4 69 f0 8a fd a2 aa bf 7f 80 ba 28 2f 1f cf 3f
       -0.05202476807626824 0.24313916672418043
0001c0 95 28 d6 ba 9d 29 93 bf 56 ce d1 f2 97 fb a8 bf
       -0.018713440445517 -0.0487945064459409
0001d0 f7 78 51 a9 05 0b bb bf 20 ca b5 ce 5d 15 c4 bf
       -0.10563693412538898 -0.15690205186145167
0001e0 b7 d9 f1 3e 18 b4 b0 bf 1f 06 79 60 85 39 d1 bf
       -0.06524802719818622 -0.2691358034245201
0001f0 fa 61 1c 1e 5d ac d0 bf d7 e8 4d d3 25 99 ce bf
       -0.2605202478457894 -0.2390486985930866
000200 a6 5a 20 e3 3f d9 86 bf 43 44 46 6e 5b 7d ab bf
       -0.011156558150145667 -0.0536907741653825
000210 82 60 f9 10 b6 ae aa 3f 30 83 62 ce 52 00 c6 bf
       0.05211419064716073 -0.17188487126716145
000220 9d c2 bc 81 51 18 bf 3f 94 0c 8d 16 bc 66 cc bf
       0.12146481912055625 -0.22188521481630075
000230 9c c5 4d 32 6e 63 ab 3f f8 25 de 8b f5 4b d0 bf
       0.05349296917018906 -0.2546361795326386
000240 77 cf 32 c7 96 70 d3 bf fd 98 09 54 35 08 a1 bf
       -0.3037468858049048 -0.03326574946258807
000250 b8 e9 b0 9d e4 c2 76 3f 40 09 ec 42 73 db b5 3f
       0.00555695822827789 0.08537979492033276
000260 c4 2c da 90 16 5f c3 3f 07 5d 89 41 65 a4 b6 3f
       0.15133935997832826 0.08844597673429543
000270 ca a2 29 99 cf 24 9f bf 30 21 6d 73 9e 15 cb bf
       -0.030413860057168653 -0.21159725795792772
000280 26 5f 71 0c f7 79 d5 bf ac dd 6b f9 4f d2 b0 bf
       -0.3355691548836027 -0.065709112542996
000290 0f 4d d2 02 73 b9 b3 3f e8 5b 88 ad 15 5c bc 3f
       0.07704848116764061 0.11078010069500943
0002a0 94 99 bf 1c 58 15 ce bf 65 73 92 91 5f 6f b9 bf
       -0.23502637294513973 -0.09935567192083068
0002b0 c9 cc 60 46 17 71 a0 3f 08 8e d6 5e f6 29 c7 3f
       0.03211281522853821 0.18096809035078842
0002c0 a0 9b 5f 88 2f 67 b5 3f 6a 3d 47 d5 72 04 a3 3f
       0.08360573844366437 0.0371433148717369
0002d0 d8 b5 b7 93 56 d6 b2 3f 54 74 2f cb 42 bf d1 3f
       0.07358304125201387 0.2772986397010915
0002e0 72 fa 62 79 31 13 82 bf b1 2d 14 dc 6d 12 d0 bf
       -0.008825670735288702 -0.2511248254019974
0002f0 c4 8f ff d7 88 1e c9 bf 85 01 d2 06 81 7f d0 bf
       -0.1962443403891695 -0.2577822271923867
000300 23 fe 86 e2 a4 dc be bf ae 9a 7d 59 7d 9b c6 3f
       -0.1205542614979938 0.17662016744289616
000310 89 dd e4 48 88 6c 90 3f 0f b7 07 68 22 fc d2 3f
       0.01603901810559941 0.2966390624923045
000320 46 e4 49 cd 85 c6 98 3f 0d 82 90 7e 35 5d d0 bf
       0.024194803862404045 -0.25568902358830387
000330 2e 27 36 1a d9 97 a0 bf 33 f9 a1 c4 03 a9 c3 bf
       -0.0324085087296012 -0.15359541989523393
000340 6a af a2 dd 60 ba d0 3f 27 6c 6f a2 30 80 cb bf
       0.2613756336602281 -0.21484954768570327
000350 58 f5 91 fe 4a b8 d1 3f 74 f6 5e 23 d8 a5 b0 bf
       0.27687334881178094 -0.06503058303402459
000360 8f 9e 05 98 b4 4b 5f bf 1f df a4 ec 80 bf a9 bf
       -0.0019101394282986827 -0.050289181601725234
000370 02 4c fc cc 91 3e d3 3f ad e0 08 6d e6 65 d3 3f
       0.30069394128912574 0.30309448860090066
000380 0e 47 0d 20 54 5d 83 bf a4 9a a7 55 13 a3 aa bf
       -0.009455353954453762 -0.052025417524238976
000390 c6 c6 ba 34 5c 07 bd bf 14 51 54 10 68 1a a5 bf
       -0.1133935574278225 -0.04121709060032877
0003a0 0e 28 5e 00 18 e4 a8 3f 99 fe fc 2a 77 ce c7 3f
       0.04861521725167971 0.18598832701717496
0003b0 64 0b 61 b3 0a 0c c1 3f 9d 1f ed d7 a0 f0 d0 3f
       0.13317998656028884 0.26468678556966
0003c0 04 bd df 3e d3 f4 c3 3f e7 7b eb bd 98 94 cd 3f
       0.1559089715005727 0.2310973098128379
0003d0 eb 3b 5c 54 b0 87 c7 bf 5c b2 39 0d c4 d2 cf bf
       -0.18382839316515684 -0.2486195625855484
0003e0 8f 4b 7d 80 21 ce b3 bf 63 60 2a 71 52 6a b9 bf
       -0.07736405741643025 -0.09927859556990053
0003f0 be a2 64 04 8a 63 b2 3f 14 88 ca e3 84 3f ba 3f
       0.07183134658101673 0.10253172456080534
000400 1b b6 6b 44 36 a7 c7 3f 1c c0 f7 dd 20 aa 91 bf
       0.18479040470940408 -0.01725055079253944
000410 8e 48 e6 3e 10 90 ca bf 41 21 e8 b9 5a 5a c6 3f
       -0.20752146788851572 0.17463239743688955
000420 d8 23 47 14 26 c7 d1 bf 22 15 4b 06 56 3e c7 bf
       -0.2777800748850132 -0.18158984477319345
000430 b1 a9 1e d3 8e 16 7b 3f 18 54 1d 46 7e 85 77 3f
       0.006613309773380414 0.005742543465960835
000440 db 23 a9 c1 05 7f c0 3f 57 a2 0d f0 50 93 c1 3f
       0.12887641864861518 0.13730823251104837
000450 41 55 fd 0f 64 9b 8e bf ca 5f 29 db cb 47 b5 bf
       -0.014944822061503717 -0.08312677479386746
000460 ff f4 1c 63 81 14 c8 bf 13 58 9a 86 65 24 ac 3f
       -0.188125775713992 0.054965183907526825
000470 0d 15 ff c5 6f c9 b2 3f 03 5d 40 41 da 50 c5 3f
       0.0733861788167653 0.16652992426018196
000480 d5 0e 04 70 4b d5 a3 3f c2 4d b7 f6 aa 8a b2 3f
       0.03873668424969671 0.07242840312328894
000490 11 05 f5 1d f4 70 d4 bf 3f 0c 9b ff 1a 8a b6 bf
       -0.31939413953303225 -0.08804482212421848
0004a0 fd a0 e0 c8 b1 a0 93 3f 38 df 73 bd 5b bc a7 3f
       0.019167688260638183 0.04635893523840057
0004b0 2d 48 2b e5 4c 34 c0 3f e3 bb ed 72 44 b3 78 bf
       0.12659608068367004 -0.00603033769480896
0004c0 16 f9 ba 28 2a ad c6 bf 48 ed 16 c1 db e0 bd 3f
       -0.17715956677233952 0.11671231712437191
0004d0 00 fc be 32 70 d5 c7 bf 0d 2a b2 63 d1 ac c3 3f
       -0.1862011192115176 0.15371148460356246
0004e0 3c 50 bf 1e d2 98 bd 3f 72 24 13 12 e4 44 d5 3f
       0.11561311007182068 0.332329766894481
0004f0 cb 25 ae a5 5d 4d cf bf 8a 08 48 13 85 e1 d1 bf
       -0.24454851713043832 -0.27938963778445525
000500 be 6b 1b 29 1e a3 92 bf bd 4b 0f 0f 41 07 87 3f
       -0.01820037008188157 0.011244304916464882
000510 04 33 f3 7a a0 21 a0 3f 1b f7 dd 07 a0 f3 bf bf
       0.03150655270437677 -0.12481117431704229
000520 cb cf 33 1b 8e 05 ba 3f 20 5f bb fa 0a 57 a9 3f
       0.10164726413842044 0.049492209536479814
000530 db 9f 13 f9 ab d5 c0 3f aa fb f2 90 d7 d5 c1 3f
       0.13152074491449536 0.1393384416350874
000540 1e 1c ef e4 a1 92 a0 3f a9 c6 56 5e b5 13 aa 3f
       0.03236871642689486 0.05093161369894734
000550 a0 7c 00 24 9e 74 d0 bf 23 30 ba d5 db 1a d6 bf
       -0.25711778178988176 -0.34538932678037976
000560 55 47 5c 7a c3 63 4b 3f cb 75 75 63 78 bf 97 bf
       0.0008358673555639388 -0.02319133860634341
000570 3d 18 a3 72 d7 d1 9f 3f 8a b0 b9 ac ea 11 95 bf
       0.031073919650929083 -0.02057615927917359
000580 c7 75 5e 48 7f 64 b8 bf 25 4f 15 e4 88 79 bd 3f
       -0.09528346554585375 0.11513572281301927
000590 41 4c 86 f9 b7 09 d2 3f 6f d9 79 ee bf c1 94 bf
       0.28184317939411946 -0.020270346575182282
0005a0 31 3c 17 22 32 b1 bb bf 3a 8a c1 3e ad fe d6 bf
       -0.10817254383367537 -0.3592942345477784
0005b0 59 e5 57 e4 c5 92 d2 3f 90 b4 98 01 f9 70 bd 3f
       0.2902083139338934 0.1150050763032644
0005c0 6f bf 1f 45 11 07 bd 3f e9 08 50 0f 6c 96 c0 3f
       0.11338909089658754 0.12959051845252326
0005d0 dd 97 2a 4c d1 8c 57 bf 77 ed f9 df b6 66 c7 3f
       -0.0014373821183339887 0.18282209335653096
0005e0 35 06 fb 59 0a e2 d4 bf 8c 5c e9 36 1d eb c8 bf
       -0.32629641329922104 -0.1946751134989636
0005f0 0c a3 44 b4 06 1c 94 bf 25 b7 40 f0 0a 26 d2 bf
       -0.019638161423389852 -0.2835719438761422
000600 c4 62 62 81 18 fe 90 bf 89 43 88 52 78 9d 96 3f
       -0.016594298264496002 0.022085075414057385
000610 c6 a2 d2 45 a3 0e d5 3f 37 39 5e 10 a7 65 c8 3f
       0.3290184194434399 0.19060219096395212
000620 26 50 34 e7 b6 85 80 bf 89 3b be 8b 1c 33 a8 bf
       -0.008067540102764847 -0.04726494985435809
000630 54 54 cd bd 76 4b b8 bf a0 ed 2f ca 9c 5d 9b bf
       -0.09490148671950865 -0.026724290695694486
000640 10 21 84 82 e0 4d a4 3f 42 13 76 af e7 ea c6 3f
       0.03965665429319831 0.1790437323326391
000650 5d 50 3c c0 b4 06 7a 3f bb e4 4f bc 0e ab 80 bf
       0.006354051645548334 -0.008138766404942257
000660 54 18 54 bb e8 e2 ce bf d9 31 84 97 ee b5 c3 bf
       -0.24129971644305448 -0.15398962400685326
000670 22 b9 cf d7 c8 34 c3 bf 16 90 2f 30 2d 0d d3 bf
       -0.15004835641543318 -0.29767923074382574
000680 e4 8e e1 2e 9c 98 af 3f 58 ac 1b c4 27 2a b3 bf
       0.06171119758871926 -0.07486198938174604
000690 07 8f cd 87 81 f0 a9 3f 63 37 45 f0 c4 05 8a bf
       0.050663039996633734 -0.012706316549749358
0006a0 96 d3 57 77 a0 7b a8 bf bc e7 3b ff d5 5f be 3f
       -0.04781819779228795 0.11864984017657226
0006b0 4a ba eb 46 47 b2 c9 bf e0 e4 c6 e7 cb a3 ca 3f
       -0.2007531257908844 0.20812367264969733
0006c0 7b 8a d9 05 51 cd cf 3f e1 47 d9 dc 0f 81 a9 3f
       0.2484532621920897 0.049812789639545725
0006d0 85 f1 25 e7 a9 8b 9c bf 1f d6 22 f6 ef a4 99 bf
       -0.027876524670760645 -0.025043248556093297
0006e0 43 4f e2 6f 92 82 b3 bf c2 d9 bd d7 01 c1 a1 bf
       -0.07621112090629105 -0.034675653062481895
0006f0 30 00 17 c7 fb 4c 78 bf cb e7 c8 1f 40 4f 90 bf
       -0.00593279219305036 -0.015927316608418878
000700 c9 6e 91 43 35 a4 c0 bf 9b c2 fe b2 f9 cb a8 3f
       -0.13001123236869308 0.04843120870589709
000710 09 d1 b4 aa 61 ea b9 3f 47 fe 88 f2 16 80 c2 bf
       0.10123262803682932 -0.14453398554359095
000720 87 39 89 8a e6 f8 d1 3f 8b 6e 37 5e e6 9b d2 3f
       0.28081668404492927 0.2907653732379251
000730 9e 90 80 52 08 ad b1 3f ce 2d f9 cd e2 24 d2 3f
       0.06904651655401259 0.2835013400515124
000740 e7 ca 30 74 f7 94 b0 bf e4 2f 40 e6 2e 2c d2 3f
       -0.06477305018124078 0.28394672856734204
000750 af 06 72 23 97 85 8d 3f ae 82 46 7b d4 58 c6 3f
       0.014414959687431532 0.1745858766489809
000760 9a a5 96 59 61 90 c1 3f ce 24 f8 1e 54 17 a9 bf
       0.13721863626896608 -0.04900610807460169
000770 94 bb 94 01 73 dc a1 3f c5 9f b6 fc dc 2c ca bf
       0.03488501924800072 -0.20449411716003688
000780 97 d4 0c 96 84 89 9c 3f c3 69 37 a8 16 18 c0 3f
       0.02786833921273465 0.12573512281126228
000790 0b eb f0 ad 02 bb c8 3f f6 a5 67 2d cb 33 a9 3f
       0.19320710652558434 0.04922327927836172
0007a0 8e 05 f5 10 e0 7c 7b 3f b8 f8 ee f2 cd bc a1 3f
       0.006710887202019745 0.03464358892914404
0007b0 56 92 92 79 06 1e b6 bf d2 5d 05 aa df db 69 bf
       -0.08639564960555765 -0.003156601757080082
0007c0 75 97 ec bd 00 cc ab bf b3 79 76 40 6a 5c b7 3f
       -0.05429079359446024 0.09125389169501012
0007d0 31 a1 30 0f 98 fc b8 3f 98 cb a3 66 08 05 bd bf
       0.09760427828644393 -0.1133580446801673
0007e0 22 28 92 a7 4b 00 a5 bf 0a 83 5f 32 ce 02 a4 3f
       -0.041017879682002226 0.03908390393167423
0007f0 96 6b 7b 47 cb b8 c2 bf dd 0d 39 74 7a 4a a2 3f
       -0.14626446714723035 0.035724474608766356

readout.0.bias f8 [64]
000000 a7 d0 b6 4d f9 16 b5 3f 91 82 8f 75 f2 16 b0 bf
       0.08238180301015295 -0.06285014505511756
000010 93 7c b3 bb 2a 52 a4 3f a5 61 10 11 03 e8 ba 3f
       0.03968938390038903 0.10510272184945409
000020 08 96 d0 c7 a8 3d d4 3f 2e c6 bd 78 78 78 bc 3f
       0.3162633849445631 0.11121323535714886
000030 a5 7e 70 62 ae 39 d3 bf 57 b4 0b 75 40 4c cf 3f
       -0.30039558041787934 0.24451451983569214
000040 2b 6c d3 1c 97 73 bb 3f 6d 82 3e c5 db a9 b3 3f
       0.10723251775509428 0.07681058469325715
000050 da 57 08 30 03 ec c2 3f 58 dc f7 82 2b 5c cc bf
       0.14782752843228658 -0.22156280417377405
000060 e9 1b 4f 71 0d 10 cb 3f 73 b6 7e d9 cf 52 c0 bf
       0.2114273837343881 -0.1275272190081754
000070 a5 65 0e 93 1a 4e b1 3f 45 bd a9 f4 39 6e a7 3f
       0.06759801950683782 0.04576283561334064
000080 4f f7 84 0d 56 8e dd bf 7f 35 2f c2 08 a9 d2 bf
       -0.4618125087762239 -0.2915670296032075
000090 09 fd 50 19 6c 6c c4 bf ce f4 c5 f3 9a f7 b2 bf
       -0.15955878482962074 -0.0740906567716195
0000a0 d4 1d d3 c2 2c ed c1 3f 23 85 a6 c9 f7 c3 91 bf
       0.14005050194667368 -0.017349120791213878
0000b0 e7 c7 64 fe c3 c2 d1 3f a8 44 14 cc e1 a9 b6 3f
       0.2775125488579974 0.08852969391252208
0000c0 82 a3 a6 7b 29 f2 c1 bf ce 23 7d f7 e4 d2 9d 3f
       -0.14020269906657395 0.029124810796279203
0000d0 75 2f ef dd 4a 82 c9 bf d0 8b a4 38 33 ae c3 bf
       -0.19928870998989692 -0.15375366464385687
0000e0 7b 40 ac 64 b8 91 d0 bf 11 dc 4a 95 ab 40 c7 3f
       -0.2588940604337108 0.18166107930821387
0000f0 9f ea 61 6e ce 28 c3 bf c2 b1 eb d5 cb 48 a0 3f
       -0.14968281163949812 0.03180539118133964
000100 d5 d0 a5 a7 5f b6 98 3f 2a b4 79 02 fc 2b be bf
       0.024133200271038675 -0.11785864887652112
000110 9f e7 ee 0a 3e de be 3f 6a 4d 7e 05 cc c5 a0 bf
       0.12057864920544013 -0.03275907103593563
000120 de f0 85 c1 47 b1 c7 3f d7 81 b3 d6 36 ea 14 3f
       0.1850976653039486 7.978400906295063e-05
000130 b1 18 25 0e 77 d2 c8 bf c9 e8 a6 d6 80 46 a9 bf
       -0.19392288389844262 -0.049366022303233566
000140 65 8c 67 3d dd 34 bf 3f 74 63 86 95 38 47 bb bf
       0.12190039395459136 -0.10655549669753644
000150 57 90 88 85 97 37 ab 3f 05 14 e0 42 ca 1c c5 bf
       0.053158507395239134 -0.1649411036052301
000160 85 80 3b 3b 57 ed b3 3f 8b 71 c3 32 a0 8f 8b 3f
       0.07784028240303272 0.013457538174798575
000170 f0 5d c5 62 43 42 c8 bf 7f d6 9b fc 2a af a6 bf
       -0.18952219317246444 -0.044305175148036995
000180 26 c2 99 17 58 48 a2 bf 2b 45 47 8b 14 ca c0 3f
       -0.03570819175809374 0.13116699982359967
000190 a2 e1 78 64 6a 3d ba 3f 1c 07 f5 1a f4 e8 a1 bf
       0.10249962761816403 -0.034980419436136695
0001a0 e3 67 57 cc c4 6e b3 3f 9f cf 2f f5 de f2 94 bf
       0.0759089468841974 -0.020457729067814175
0001b0 97 38 a7 ad ff 2f a7 3f 67 9a e9 c8 4b 09 c9 bf
       0.04528807635107162 -0.1955961924570204
0001c0 ef eb 82 cb 0e a8 bd bf f8 ac 60 31 74 aa 8f 3f
       -0.11584560841122003 0.01546183372200581
0001d0 c3 35 8f d4 02 dd c6 3f e2 9a 40 46 be 52 a6 bf
       0.1786197221648945 -0.04360003097126765
0001e0 c7 ec 8a ce ab 51 c5 3f 30 38 22 be 8e ad c6 3f
       0.1665549047955663 0.17717155727263068
0001f0 72 a0 77 08 25 40 b4 3f d2 42 a9 1d c5 6d 95 3f
       0.07910376984330172 0.02092655175721598

readout.2.weight f8 [2, 64]
000000 b1 c0 c8 58 d8 95 d7 3f 6d 19 e2 1d 95 33 d4 bf
       0.3685208193810566 -0.31564834516793533
000010 62 40 df d4 aa ab 93 3f e8 7c c4 6f e7 39 a6 3f
       0.019209546320610456 0.04341052283620589
000020 45 99 51 54 ff 02 ad bf 4b b7 ce 93 84 fa cb 3f
       -0.05666349319726519 0.21858269898569413
000030 e0 69 c8 14 dc 3e d1 3f 48 bd d0 c9 67 8c d3 3f
       0.26946165113045417 0.3054446669438744
000040 6f 5c d2 e1 84 4a cd 3f 32 42 eb 5b f6 7e aa bf
       0.2288366415639049 -0.05174989578302237
000050 e7 bf 51 2a 10 a9 cf bf e4 ca b7 59 b0 69 d0 3f
       -0.24734689775823357 0.2564507366325144
000060 f1 42 31 df d6 01 af bf 51 7b cb aa f9 57 d1 bf
       -0.060560908074540516 -0.2709945838850461
000070 9a 45 97 60 0e 5b b0 bf 0c f9 1a cf c8 a8 c7 3f
       -0.06388940675903712 0.18483839142385994
000080 fc 4e ab 68 08 35 a9 3f dd 71 ad 28 68 44 ce 3f
       0.04923273351383092 0.236462612020559
000090 39 34 47 31 90 3e d3 bf b6 ad e7 f5 a8 eb d2 bf
       -0.3006935578567354 -0.29563354505691153
0000a0 4a ee aa 83 20 31 ba bf f4 8e 2f a9 ef d5 cf 3f
       -0.1023121186689703 0.24871631394409344
0000b0 5a fa 6e 5f cb c8 5a bf 47 16 d2 c2 50 85 91 bf
       -0.0016347871839880374 -0.017110120669278108
0000c0 bc b4 4f bf b0 ca c0 3f a5 13 a7 98 54 db d2 bf
       0.13118562070250117 -0.2946368685482475
0000d0 33 b6 55 e6 e8 21 d3 bf 30 69 a8 74 a8 49 d4 bf
       -0.29894468778261113 -0.31699572937363296
0000e0 f7 06 f2 7a ea bd d1 3f 21 14 95 a1 11 b6 d3 bf
       0.2772165489806037 -0.30798760203862413
0000f0 5c 33 2c 53 de 6e d6 3f 72 9c 89 08 5b 54 a1 3f
       0.35051687357263517 0.033846707145863145
000100 79 02 ab 34 ac 7a b2 bf 6c ce f9 71 1c 45 a7 3f
       -0.07218433652725222 0.04544915095621324
000110 c8 fb 8f 01 cb 18 d0 3f 8b 2c e6 21 ea ba d0 bf
       0.2515132441766892 -0.26140836058102285
000120 d7 2b a7 a7 39 fb cf bf 63 5d f8 c5 05 8b cb bf
       -0.2498542851083971 -0.21518013159286928
000130 dd b4 8b e2 dd dc c2 bf b1 fb 1d 44 be 31 c5 bf
       -0.1473653179340663 -0.16558054281264625
000140 a1 95 b9 9b 29 bd a8 3f 2b c7 a3 b7 a4 b9 80 3f
       0.04831819559039308 0.008166586736908584
000150 5f 77 ac 08 13 84 d1 bf 90 da af 64 1d fc cc bf
       -0.27368617865601225 -0.22644393364290183
000160 1c 7b ce b2 5a b6 91 bf c1 de 92 80 c5 ac d2 3f
       -0.01729718891476316 0.291795135078683
000170 fe b7 15 42 9b 37 cd 3f 08 d0 aa 0c 48 50 d9 bf
       0.22825947500990645 -0.3955249904349789
000180 81 a6 67 0d b1 44 bf 3f 9f af 98 0d 6b 03 a1 bf
       0.1221419007994431 -0.03322920361492198
000190 08 6e a7 59 42 f0 d1 3f 6a 19 67 34 9a 63 da 3f
       0.28028925662303594 0.4123292457337785
0001a0 4d 92 fb 9a 99 d1 cb 3f 39 65 4c 38 d0 6d d2 bf
       0.21733398501887038 -0.28795247552769215
0001b0 d1 3f ce 35 9a 9b c7 3f cf fc d0 2c 1c 5e be 3f
       0.1844361078951793 0.11862350553655009
0001c0 aa d4 83 cb 67 eb d6 bf c5 c8 50 63 69 d0 d1 bf
       -0.35811800837047747 -0.27834543894563196
0001d0 0c 19 17 51 70 c5 c8 3f e7 be 5a 0a b0 d2 ca bf
       0.19352535209163368 -0.2095546770628893
0001e0 be fa 93 89 a3 10 90 bf ec ad ed 43 ef 7c c3 3f
       -0.015688472053620776 0.15225020233934516
0001f0 f4 8c 4a 5d fd 73 af 3f d3 0a 69 8c 59 68 98 bf
       0.061431806219184454 -0.02383556289192763
000200 45 a5 f6 e2 75 be d0 3f e9 35 58 78 4d 47 c0 3f
       0.26162478603744815 0.127175983201979
000210 ed 5b 7a 0e 46 f8 cf bf f1 53 8d 08 d1 a8 d1 bf
       -0.24976421076709646 -0.2759287436977607
000220 be 95 05 09 ab 6d c6 bf 56 cc c1 b8 cf 78 d4 3f
       -0.1752218050052487 0.31987374346426145
000230 bf 7e df 9a dd e1 a3 3f 67 c6 98 1f 28 b6 87 3f
       0.0388325931123723 0.011577905143983004
000240 30 e4 b0 6e ba 5e a0 3f 6d 56 a8 d6 dc 45 d0 bf
       0.03197271920402789 -0.25426407778409194
000250 66 2c e5 8c 93 7e cc 3f af b0 ca ee 76 e4 96 bf
       0.22261280421875823 -0.02235589821309308
000260 a9 52 cb cd ea ba d1 3f d3 77 d4 2e bc 21 d4 3f
       0.27703352067082193 0.31455902646291384
000270 5b fc e7 c1 a8 60 bb 3f 1f 3d 3d 1c 4d 7e ce bf
       0.10694365247762631 -0.2382294071089541
000280 64 ec 3d ef 79 0f d3 bf df 76 30 7f c8 57 cf 3f
       -0.29781959880319264 0.24486643038192477
000290 a3 2e 05 98 ed 34 be 3f ba 35 2c 1b ce 4e bd bf
       0.11799511872703276 -0.11448372043033475
0002a0 be 62 2b 0f bd 79 d7 bf 0d 02 4c 04 93 1c d7 3f
       -0.3668053291453751 0.36111903590793376
0002b0 47 78 88 69 2d f1 ca bf c4 6f 07 4f 52 c1 c8 3f
       -0.21048514988882713 0.19339970454063693
0002c0 0e 21 f2 07 cf 3f b2 3f 3e 0c a3 15 68 83 d2 3f
       0.07128614372243566 0.28927042115191515
0002d0 f4 b2 e2 03 46 50 a7 bf 30 29 bd 21 bc 72 c2 3f
       -0.04553431317740389 0.14412643096358968
0002e0 bc c5 39 7d 93 71 a0 3f 57 17 68 d2 ca 5e 60 bf
       0.032116517101609315 -0.0019983254781007864
0002f0 6a 30 3e af 85 1f c9 3f 2f 9f d4 a4 12 17 d8 3f
       0.19627448136123188 0.3764082536385897
000300 ff 66 34 ec 1a 4e c7 3f d7 b4 84 ad 8d 80 d5 3f
       0.1820710805266614 0.3359712786212418
000310 c3 44 f5 65 f2 e5 a4 bf f0 67 75 80 cc 41 d2 bf
       -0.04081685537915682 -0.28526604218279683
000320 47 dc 4e 55 e2 48 d5 3f b9 28 12 f7 4b f3 a9 3f
       0.33257349329818847 0.05068433180811511
000330 ea 00 71 bd 06 25 d7 bf 15 54 e4 77 dd f0 8a 3f
       -0.3616349077237958 0.013154726239500683
000340 c2 f4 11 b7 a2 b4 cc 3f 6e b0 7e d6 34 eb d2 bf
       0.22426256121608473 -0.2956058592487868
000350 03 4a 69 66 95 d2 c2 3f 74 d7 b8 03 d1 74 89 bf
       0.14705150127936414 -0.012429840971076557
000360 a5 d2 7e d8 36 2c c7 3f 50 66 e4 15 28 77 80 3f
       0.18103681155266318 0.008039773147675039
000370 bb a3 6d 47 b5 33 bd 3f 19 5f 00 77 21 f1 75 3f
       0.11407025331358416 0.005356913301532784
000380 e7 22 c5 ca 38 85 cc bf 1f f0 0f 75 8d c4 d3 3f
       -0.2228156080330088 0.30887161666737656
000390 0f 15 4a 1c 5d 28 97 bf ad f1 59 63 02 4f b6 bf
       -0.02261491284527489 -0.0871430866772644
0003a0 19 03 8a 8c 60 df c5 bf 76 87 3e ac 6f 0c cf bf
       -0.17087942945729465 -0.2425670233761214
0003b0 90 19 59 7c 8e e9 b2 3f fe b9 e9 25 b7 2e d7 3f
       0.07387629066315626 0.362226283096703
0003c0 92 21 de 89 3f 96 b1 3f a1 6c 52 be cf 41 be bf
       0.06869885555182112 -0.11819170376331779
0003d0 c8 12 a5 03 59 0a a6 3f 5d 8a e2 4c 88 c8 d2 3f
       0.043047696776317645 0.29348952778142295
0003e0 0e 48 05 8b 24 01 c2 3f d4 b5 b8 2a b7 4a c0 bf
       0.1406598738490747 -0.12728013597499788
0003f0 89 b6 26 7f ea 03 cc 3f 4c 20 03 53 3e 75 d2 bf
       0.21886950691753196 -0.2884059725443009

readout.2.bias f8 [2]
000000 9c eb 99 fa e7 62 99 bf a3 65 6d 3e 87 0b 9a bf
       -0.024791359587179693 -0.025434601960432023
