experiments/flockingGNN-050-20221018124015/savedModels/DAGNN1LyG06Architlast.ckpt (torch, 9247 bytes, 4 tensors)

readout.0.weight f8 [64, 12]
00000000: c570 bc9d 4832 a23f 7321 8953 f432 c23f
00000010: 9114 72e6 3a17 d0bf 0ddd 073e 79af c6bf
00000020: 14f8 695d e8c3 9dbf d233 74e7 2283 c4bf
00000030: 4307 d6ea ca6b bb3f 19f5 f38d 2307 b83f
00000040: a7a9 c76a 02ce b03f c40b f1f7 9aa3 d13f
00000050: cf97 1d05 6b69 c0bf 999b a986 5d4f c43f
00000060: 8bbe 7603 e560 a3bf c341 848f a643 bfbf
00000070: 2408 e684 c024 d3bf 2d7e 2fa0 2b69 d9bf
00000080: f86e d57b cad3 823f f16e 2bc5 f12d b23f
00000090: 08cd 63e0 546a ba3f 627a 3a71 f23e b0bf
000000a0: 7e35 559e 25dc 8a3f 6b28 5fef 272b d1bf
000000b0: 2096 e5d7 a289 c4bf f21a 836c 6f83 c33f
000000c0: 2b3f aeac 5b10 b13f 777c 67a5 c28b cc3f
000000d0: b567 2ce7 b481 cfbf 54d9 6049 5376 bbbf
000000e0: 459a a9f6 1b24 6ebf 3ef5 3f91 cba3 a5bf
000000f0: db4c f125 c5ca b43f 72b3 92f8 f3ed 953f
00000100: e20a f6b2 6def 79bf 1975 0fcc 7597 ce3f
00000110: f71b c339 cc8b a73f fd34 d73b 3ddc c53f
00000120: 6a9f 9a6a 2e6e 9dbf 0565 7473 036a 893f
00000130: 1db0 77e0 9033 b9bf fde1 b7a3 913a bc3f
00000140: be5c 2a1c 4c4b 4f3f 57df 2266 b662 953f
00000150: a083 b97d 58f8 d73f 4659 4cb6 f8c9 ccbf
00000160: 93ee 5a5e 7fdb b4bf c1ad 8e48 f1f6 c83f
00000170: 4b9c ce03 0c47 c6bf 6fed 38ee d95d 99bf
00000180: e1b1 fe45 66b1 cebf ab53 859c c0a4 afbf
00000190: 3e6c 23e7 e536 74bf 46ec f881 c056 a4bf
000001a0: c332 d686 5d11 b13f 3471 721e 32fd 9abf
000001b0: 7f1b 5658 52e9 7cbf f3e0 3f2d 4596 9abf
000001c0: 24b9 25fa 1d7d ad3f 307f b08c f2c9 aebf
000001d0: 6cdd 1699 414e b63f 6951 6741 719e d5bf
000001e0: a760 6635 53a3 b1bf 1ebb e2be 320e d0bf
000001f0: 32e7 a00d 654b d1bf 852f 3771 bee2 d9bf
00000200: 87d8 3c01 1618 c13f d210 1735 c9cf c53f
00000210: 8523 5f19 6b61 c93f c300 410d b62a c63f
00000220: 2e8c 5a2a e4b7 ccbf bf85 f4b7 22a7 b73f
00000230: 92f7 04a3 a951 d1bf ffcf cf57 abff 7dbf
00000240: 3887 3d6a ecf0 d43f 3b3c 66f3 7061 d93f
00000250: e5ab 28b8 f8f4 883f 18ba dbd2 1401 a93f
00000260: a3a1 4532 1c65 c6bf 5b04 95a3 28de ccbf
00000270: bb6e 209d b08e 9b3f 357f ae7c 4c73 c93f
00000280: 949c 4dd4 a064 cb3f c171 d071 6551 c1bf
00000290: 0659 61c1 8d26 b3bf 0276 0053 ef5e b63f
000002a0: 2133 4d27 6c69 bebf 81be f438 488b c3bf
000002b0: ff14 fadf cef6 d23f 631e 24be 027e 323f
000002c0: 1625 34a0 0491 c03f 3835 51d2 b527 c83f
000002d0: 9969 39e3 f54b 99bf 9c4a b07b 937e a3bf
000002e0: 84f2 1c3e a55b d3bf d05c c527 4d7e d33f
000002f0: c6c0 3903 83c2 c4bf 4bd8 3783 aa4e c2bf
00000300: 07f2 7cd5 902c d23f ba22 9137 ac02 a23f
00000310: 6281 c6cd 7419 b23f e31d a95d 9e00 d63f
00000320: 8485 6bf0 d5b5 c1bf 72c4 db54 1593 c3bf
00000330: 5447 85ba 96cb 703f 170f bf53 a36b 8f3f
00000340: f70a 26fb 7cf7 bc3f c7b1 884e 93cc c4bf
00000350: 3d00 bb1c 8e94 adbf da8a 5155 ac65 a73f
00000360: 32fd 5d7e d43c c9bf 76c5 8fd9 725b 99bf
00000370: fbff 2a60 7473 a53f 71d5 4ce6 1801 c43f
00000380: f354 d380 d6f9 db3f f38a abe4 e166 63bf
00000390: 9e8f b889 441f ad3f b17a 945c c14b 98bf
000003a0: 511a c5b4 604a c6bf 6706 ad58 ef8a c5bf
000003b0: 18ab b9a2 8e77 bcbf 4459 5a82 5c88 c63f
000003c0: 98f5 05a3 f8df 9fbf 20ab 31ce 4628 babf
000003d0: 8482 80ca 2b34 cfbf 924c 357c ba73 c4bf
000003e0: 5cf7 c4af 9436 9a3f 61e8 be1d af57 a63f
000003f0: 378c f433 1530 b03f af57 78f3 cad1 b1bf
00000400: 9da1 f607 527c cdbf e4a9 65db b3b9 c23f
00000410: a0fc eee3 c1ed a43f c52d 3171 5ad0 ccbf
00000420: 65b3 81b8 6bff a7bf d89a 7ae1 5c67 bbbf
00000430: b930 c80d cff7 d33f 2f46 5997 0d44 c33f
00000440: e197 5f8a 4f67 9b3f 7d63 b3c4 f7cd 94bf
00000450: 72cc 2096 3aed bfbf a552 f128 4cde a93f
00000460: 0798 d92c 2615 d2bf 726e 1fcf a4f3 d63f
00000470: fdba c303 9d01 d13f 719b f7c2 3ed3 d7bf
00000480: 2b5e 7b03 68ba cf3f 3587 4bff f04f d43f
00000490: 8993 f25b bddd a23f d5e8 622c 805f c03f
000004a0: ee03 62d1 c260 b7bf a122 708e 97b4 abbf
000004b0: e23c 5127 22ba 7fbf 9e5a 42b0 16d1 aebf
000004c0: a3e1 ae85 8aee 793f e8cf 1f49 3c02 ca3f
000004d0: 2050 c3ff de3a 923f c2f7 89c5 3e6b ba3f
000004e0: cc96 8482 b94a 7ebf b818 4d08 cec3 87bf
000004f0: 61fe 2739 67be c9bf 708d 190e 3acf cbbf
00000500: da9a 6bdd 8cbb 5a3f 6c41 ff6f 4157 5b3f
00000510: 5510 f5ca 78e4 ae3f b675 ce77 3157 453f
00000520: ab55 48b4 e3b3 93bf 0025 61aa 32a8 88bf
00000530: 61a3 9149 b553 b83f 2c3b 8988 3b9e b53f
00000540: 8028 5b5b 7cab d0bf b68b 1325 d6b9 d2bf
00000550: 77d8 a515 2552 813f e7fc e809 d816 833f
00000560: 74ed fe84 e7db 753f 1f8b 61cd b1b4 d5bf
00000570: 8352 c061 8371 23bf 5107 d866 69a1 ab3f
00000580: 13f3 4fbb a46d cd3f bb5b 8df3 bed6 c7bf
00000590: a3ef 4865 b468 bc3f 14f4 6d15 620e cfbf
000005a0: db8a 992d 6a9d c43f 94ee e1ea 596c cb3f
000005b0: 8b0c 026b b912 c1bf 0026 f712 fc05 a7bf
000005c0: cd71 3be4 0d76 b4bf 1f07 13cb 49fd afbf
000005d0: 8346 04e8 a2da b03f 449a 78da 5b14 c53f
000005e0: 631f 7cb8 dab3 c63f babd 69c2 af56 b7bf
000005f0: 1910 5bc4 f25b b0bf 64bc d774 58e5 cabf
00000600: 4116 99ed 0d7e cdbf 01d2 96a7 dc61 7c3f
00000610: 0e72 65d7 5d67 8ebf 30a0 ba08 39c6 b3bf
00000620: e5a7 33d8 9a22 be3f cb44 1e73 9c94 763f
00000630: 2c8c 3d43 8c0c 9c3f d944 6a30 fec8 c03f
00000640: da00 ca2f 30d3 c2bf 8578 b83c e8c6 c03f
00000650: 32b5 cbb8 6d7f c4bf 1f87 1825 293f c3bf
00000660: 8004 5e18 4ec3 d33f 6484 fce8 6e0a d13f
00000670: acae bf91 a691 a3bf 2cf1 e689 e07e bfbf
00000680: 9e2a dca1 e5a3 b6bf f43c f560 19f4 b63f
00000690: 95dc 6ad6 4eca a03f 8f0c a547 9091 c53f
000006a0: 3e61 63ae 7259 b5bf b7c9 e0d6 b9bd ba3f
000006b0: e645 f37c 2e91 cabf 6366 cfb5 a487 ba3f
000006c0: 7793 7709 4334 a93f 52e0 69f4 1ed6 c73f
000006d0: ca3e 6d90 a33d d0bf f077 ac33 7e36 c7bf
000006e0: 0f63 f3bb 8289 63bf d92e a085 b001 87bf
000006f0: 0563 baae 6632 b23f fea4 18c8 1a23 7f3f
00000700: f342 c48e 929a 71bf 0351 1193 461c cb3f
00000710: 07a9 fbd9 854f ab3f f275 44b4 c38f c7bf
00000720: 7c41 1898 0974 953f 2aaa 30f3 27de ac3f
00000730: 10fc 50ec 13c5 d33f a120 de73 c530 dc3f
00000740: d48e 9621 c67f aebf 0da5 ff8c 73f5 c8bf
00000750: 4b34 a53c d545 a5bf f666 ea3f 51af b53f
00000760: e257 9d02 7fb4 c73f bb3c b029 4585 a73f
00000770: 180b 472a e290 c9bf 20be 32da d655 bb3f
00000780: 6b17 81e3 755b cb3f 934f 7bd7 9766 a53f
00000790: 42f9 f489 24e9 9f3f 3ffb 5191 86ec c23f
000007a0: 41c5 0b0f d729 aabf 0115 1176 cb75 c53f
000007b0: a1dc 93c3 d7bf 91bf f461 7d46 0c06 b9bf
000007c0: 0098 df98 2cc2 b4bf 5a8c e35a dba5 c33f
000007d0: a2f2 cfb9 c2e5 b73f 32f0 5eb7 52c2 b5bf
000007e0: 32c5 23b5 bbe7 d3bf e20b 5f3f fd6c 823f
000007f0: b4b6 aee2 6405 a53f 3816 11d9 db3b bf3f
0.03553988385667276 0.14218000487222646 -0.2514178514905519 -0.17723002938121404 -0.029067640973600886 -0.16025196362934807 0.10711353524496041 0.09385893073700337
0.06564345461780495 0.27561067784352766 -0.12821710347924273 0.15867203784293052 -0.03784862201007141 -0.12212601665328919 -0.29911816576361816 -0.3970440925895414
0.009193021682839739 0.07101355613434258 0.1031849906756187 -0.06346049560895886 0.013115209478793185 -0.26825903297561265 -0.16045032064282427 0.15244858549541324
0.06665585485302176 0.22301514698390054 -0.24614583289877393 -0.10727425137961194 -0.003679327598820311 -0.04226528308934484 0.08121902633984084 0.021415531202979073
-0.006331852447490434 0.23899719680677192 0.04598844723800959 0.17078366681963777 -0.028740620857802858 0.012409235916992953 -0.09844308357395488 0.11026869055775275
0.0009550210600818493 0.020884370788479014 0.37453281667517935 -0.2249136819961654 -0.08147426656335659 0.19503608744467552 -0.17404318033115582 -0.024772076764049297
-0.23978880326957522 -0.061803835970443664 -0.004935167368070257 -0.0397243651063595 0.06667122404014507 -0.02635649023851379 -0.00705845037499031 -0.025963860403835203
0.05759519270474048 -0.06013448684120559 0.08713159549266941 -0.33779555689877455 -0.06889839223583981 -0.25086659089258656 -0.2702267296877948 -0.40446435028274436
0.1335475450557093 0.1704036244610792 0.1982854722866955 0.1731784405437847 -0.22436191623737173 0.09239403716175952 -0.2706092922197679 -0.007323903378154028
0.32720480322869916 0.39657233972042477 0.012185996170122901 0.048836374988116826 -0.17496063666045555 -0.22552974688918223 0.026911506262065937 0.1988311394497885
0.21400843016019577 -0.13529651696525316 -0.07480703326413982 0.08738609100733899 -0.11879611930380608 -0.15268805295044177 0.29631397125952214 0.00028216902696029926
0.12942560026594013 0.1887118603648703 -0.024703828805607484 -0.03807507405158114 -0.30246859613161114 0.304583824957672 -0.16218602807521715 -0.14302569777618354
0.2839700779766478 0.03517664125735594 0.070700931776178 0.3437877573637406 -0.13836168517358882 -0.1529261268947582 0.004100407394007483 0.015342021935687051
0.11315137034948096 -0.16249314627329012 -0.05777401066507124 0.045697579779490474 -0.19716888590117204 -0.024762911347300208 0.04189647363591572 0.1562834858429301
0.437123895460288 -0.0023683940865891705 0.05687917882121883 -0.023726483607897367 -0.1741448290506065 -0.16830245809437658 -0.11119929764542424 0.17603641857994934
-0.031127819967414178 -0.10217707189592007 -0.24377963435928873 -0.15978175225118157 0.02559883425532604 0.043637726193495714 0.06323368566931796 -0.06960743373960442
-0.2303564585574919 0.14629219258070159 0.04087644488708375 -0.22510843779524073 -0.046870580933364527 -0.10704594139916013 0.31200004907510565 0.15051431551050728
0.02676128656448629 -0.020316954975757796 -0.12471357503163619 0.050524120328792756 -0.282540839957051 0.35862083651384247 0.2657234703791998 -0.3722683814980235
0.24787616891875194 0.3173792355647607 0.036847989534442745 0.12791444937994947 -0.09132020580183539 -0.05411218274827446 -0.00774587002986424 -0.060188969627394714
0.006331006147711457 0.20319322176476295 0.01780270038655385 0.10319893191078136 -0.0073954817274050726 -0.011603936794596911 -0.20112314501601516 -0.21726155937640668
0.0016316295274749122 0.0016687525785422331 0.060336851859148645 0.0006512633841457202 -0.019240911367963836 -0.012039562058037578 0.095027285061986 0.08444568713569528
-0.2604666607045445 -0.29259256001222 0.008457460139407609 0.009320915033752942 0.005336670277695677 -0.33915371948948975 -0.000148341453382845 0.05396584873598321
0.22990855356319936 -0.18624102489658675 0.11097266648078956 -0.24262643858301713 0.16105391718436732 0.21424411743997906 -0.13338391995430174 -0.04496753436576384
-0.07992636510920832 -0.06247931102690373 0.06583612598867643 0.1646838013413846 0.17736372001695164 -0.09116648193752655 -0.06390301984635051 -0.21012407021723611
-0.23040937520470275 0.006929265911300054 -0.01484559358203177 -0.07724338973150746 0.11771552828182015 0.005512820369305514 0.02739161644366221 0.13113381732958976
-0.14706995328379585 0.1310701652991534 -0.16013881228665522 -0.15036501227683005 0.30879547481169567 0.2662617945916905 -0.038220601359936296 -0.12302974097014346
-0.08843836976681493 0.08966215722215393 0.03279348723793266 0.1685047483279942 -0.08339611775898434 0.10445748802229714 -0.20755559063995505 0.10363225401615632
0.04922685137333976 0.1862219518113784 -0.2537621412675263 -0.18135049365167744 -0.002384906139564775 -0.01123369128983802 0.07108155980894189 0.007601837745405902
-0.004297802439638276 0.21180040532147623 0.05334108625341299 -0.18407484342689845 0.020950460346342833 0.05638241618756397 0.30890367582100087 0.44047676387027407
-0.05956858787547295 -0.19499058136651862 -0.04154840817737034 0.08470638094368241 0.1851958048598013 0.04593864568607261 -0.19973399223643962 0.10677855326752494
0.2137286530361807 0.04179834847823751 0.03116280643484371 0.14784319015230982 -0.051100464426677046 0.16765731110550777 -0.01733338481150482 -0.0977485344022922
-0.08108786327611028 0.15349904954846033 0.09334961925919541 -0.08499638535335022 -0.31101887406755957 0.008996942993581617 0.04105677859420834 0.12200712251168333

readout.0.bias f8 [64]
00000000: a891 0e88 db93 b8bf 4a99 8a51 2c1b ccbf
00000010: 74f3 f56b 2f71 c4bf b265 7c52 de22 b6bf
00000020: 4cb7 2837 410e c73f fb64 5039 54aa a6bf
00000030: ba3c 9f37 4b78 d13f 14fd d267 a0f5 e03f
00000040: da9f a24d c930 ccbf f077 c856 bb39 a33f
00000050: 3ba9 8c23 a69e c83f d2d9 dbf9 1030 be3f
00000060: 62c3 a0bc fa60 923f c4ec 814a 3e21 96bf
00000070: 3217 5de3 89e1 c83f 2b91 587d 1106 aebf
00000080: e0e3 1b05 33bd 803f f5ef e2b7 d849 b33f
00000090: f048 c129 cdff c2bf d145 5b2a b665 d5bf
000000a0: fd32 fe2d ac06 5c3f 7339 7201 3475 dc3f
000000b0: 9356 37d4 9e96 a9bf 6a73 117a 1911 af3f
000000c0: 4fea fc9f e637 b8bf 469d d1f0 54b4 c93f
000000d0: 3d86 7520 bea9 99bf 9890 f0f5 dd22 c4bf
000000e0: 8465 69ea 734b 973f 6579 d72b 013e c5bf
000000f0: 9c1e 859d 4ce3 cb3f aca2 3a7a 455e debf
00000100: 7ea7 76bd df8c b9bf b58c 8dc4 6c96 c9bf
00000110: cdcd cf53 3ebd c1bf 82a6 8611 2887 c13f
00000120: 8c4e 6755 137d 9b3f f93b f923 213b abbf
00000130: e4ea 69ed 814d c0bf 2c38 1274 c73e c2bf
00000140: 893d 95e1 a855 873f 49d3 8637 40ee 9d3f
00000150: 7001 f18e b416 803f 9985 4e7c 600e d1bf
00000160: e467 d58d e079 c83f bc3c d677 f61d bf3f
00000170: c725 666c c46a 8dbf 2563 677c 0a45 453f
00000180: c2e1 95df 1078 ca3f 69d4 b677 8c1d debf
00000190: 4bf0 0f4e ec37 a43f cc50 6493 41db ad3f
000001a0: 022c 2568 0641 a8bf 175c b099 3696 dcbf
000001b0: bb4e 3e16 53db cc3f efe7 4c0f 18ed 93bf
000001c0: ebc1 02e3 d9e3 babf 7ecb 948d acdc b6bf
000001d0: 095e deb3 4116 d23f 25e6 ed9e 2bbc c83f
000001e0: 1ae8 c427 6fb7 76bf 802a 1450 e226 bd3f
000001f0: c674 5f72 e860 c23f 070e 04c0 01df cbbf
-0.09600612708761125 -0.21957925778878923 -0.15970413943787387 -0.08646955026451655 0.18012252038300358 -0.044268257137625576 0.2729671519454758 0.5299837138954069
-0.22023884096893093 0.03754983362544795 0.19234158263982146 0.11792093372409987 0.017948072207392037 -0.021611188218668045 0.1943828926252365 -0.058640047598858956
0.0081733690199019 0.07534555901924007 -0.1484314397699289 -0.33433298241024284 0.001710575241278877 0.44465351239423184 -0.049977267651837874 0.06067733397569593
-0.09460297971683328 0.2008157897828175 -0.025061579447884553 -0.15731405743384097 0.02274876707301622 -0.1659547294684202 0.21787412349134605 -0.4745038694041266
-0.09980581641744199 -0.1999031028491111 -0.1385877522694571 0.1369371495796266 0.026844312751406238 -0.05318549694185743 -0.12736534206836503 -0.14254086654222087
0.011393851646657864 0.029229167355612238 0.007855806934572412 -0.2665024961407539 0.19121939588040882 0.12155094552712148 -0.014363798673701645 0.0006490994645061739
0.2067891208387334 -0.47055350962484127 0.039489159134945405 0.05831341671196952 -0.04737110158256287 -0.44666829117471835 0.2254432543382928 -0.01945912927042309
-0.1050392321801678 -0.08930471855710029 0.2826084381608501 0.19324250469416984 -0.005546030235843014 0.11387457327888661 0.14358239731419625 -0.21774312854550734

readout.2.weight f8 [2, 64]
00000000: f480 c321 b26d bcbf a216 067c 8ddc be3f
00000010: 020a 5972 aba4 b5bf de05 00cb 613f af3f
00000020: 7d6d 5723 276d d13f 49b0 5071 058e c63f
00000030: 0235 1bbd 2275 cebf 4daa 6d99 b76b bd3f
00000040: 7907 7559 1eeb d0bf 2a11 c226 535a d53f
00000050: 16e4 f20c c12d b63f 1633 d71d 40f1 9c3f
00000060: bb8d 84b5 e078 cbbf a129 30ec 7894 b03f
00000070: 5bd2 7033 4195 d13f ac0d 6f71 2b2c d6bf
00000080: ae84 4092 cf0c d13f d66d 75c8 0a12 d2bf
00000090: 27c6 221c 0ea2 c2bf 5a7d 692f 6a7d bcbf
000000a0: d725 db55 1b1e d4bf 55ea 83d4 84eb c73f
000000b0: eb16 96b2 d20e 9e3f 8e09 3537 6840 c4bf
000000c0: faf8 2b62 1b8f d03f 1d11 0ba1 4b2f c63f
000000d0: de47 25ac 053a d43f c7fc 1e0f 60c9 d63f
000000e0: 7001 54f7 c009 d33f 1a3d 5de2 970a cebf
000000f0: 2fa4 88b2 2f55 803f 1138 6e25 7d9e d03f
00000100: 5f96 3539 671a d9bf 432c 2162 da5e b0bf
00000110: b849 2d94 60d2 d43f 4618 8ed6 fbde af3f
00000120: b996 e11b b99b ca3f cf15 e7e2 1d1c d2bf
00000130: d116 5502 9fe4 d2bf ff58 a6f2 7fd5 d33f
00000140: 479c 1445 3e4a b83f 938d ba1d c48f bbbf
00000150: 6ede 5cef e3b9 85bf dda5 88d0 7eb2 d0bf
00000160: 0e5f 09eb 4bd1 d0bf d3ea 0994 19b0 d13f
00000170: 1bc9 6cd0 61fb d2bf 7f81 0cad e302 bb3f
00000180: 923b 86c6 6412 ba3f d11c 9164 9b85 c3bf
00000190: f2bb db28 c78a cebf 0d28 fed0 a2fe ac3f
000001a0: 0d07 eefe 5948 8dbf 47dd b3ac 5915 c53f
000001b0: 65ca 1e9a 9f23 a63f 4428 0e43 de29 923f
000001c0: 3142 9c79 0798 ce3f 4d21 faf8 9857 b9bf
000001d0: 0e65 9179 86a4 b5bf 3ee0 518a 9626 d4bf
000001e0: 2e8e 0d71 242e d2bf 5535 22d9 f157 d5bf
000001f0: ecab 1147 9a03 cebf e9b1 b35b 8714 c33f
00000200: f11e 4b0a f018 d43f 03c6 c48d b78f cb3f
00000210: 2657 ff79 2cb6 c13f 2cb5 8e2b cbba d03f
00000220: d9e6 9149 73a7 70bf 149e fa1e 8a3e cd3f
00000230: bdde 9480 8064 b5bf 2a31 cac2 a3d7 c1bf
00000240: 1d3d 3827 13c5 b9bf 1b91 07ce ce15 96bf
00000250: 3f6c 4bcb 32f6 d03f 7245 911f 73ab c1bf
00000260: 5692 9cad f731 c7bf bef9 7e7a 3fb0 d53f
00000270: c1ed df95 d1b9 aebf 7d22 5b98 868c d03f
00000280: a624 c946 83db a63f 979d 46a5 f353 983f
00000290: 5683 c14f 0339 d33f 44c5 c18d 020d d2bf
000002a0: 7adf c30b f75c bcbf 610e f8ec 2d28 90bf
000002b0: c1dd 2c6a 5256 d1bf bf94 78ae 0563 d3bf
000002c0: 10e9 06b2 df54 943f dc37 51af 804b d33f
000002d0: 0fdc 2347 e8cc cfbf 7068 0d30 0e65 acbf
000002e0: ac19 d8aa b9d9 a7bf 7a4f 6391 1c5b d2bf
000002f0: 1bd2 8f7b 914b d33f e58e a40f f9c3 c63f
00000300: 7948 c95c f6ce d3bf 08b5 db6a 4b55 ca3f
00000310: 87b4 9d48 bbb1 ccbf 9d55 583f 008d d5bf
00000320: 063a 92d9 7276 bbbf 8794 bcb0 c665 7ebf
00000330: 0f62 f0dc 14dc c03f 828b d61c 2c3c c33f
00000340: a6d5 5787 cb88 d03f 744d aea9 b704 d53f
00000350: a2bc 73b6 1683 d0bf 7546 f866 6724 d1bf
00000360: d8e6 9954 7a32 c43f 4e9b 351b 9c7b b9bf
00000370: e1b1 f4da a3ae 623f bf11 cbea 20cc d2bf
00000380: f264 41b6 a2ab d23f 5279 280a 4f39 a63f
00000390: ec63 5e5b e389 d4bf 5b48 9504 6280 d3bf
000003a0: 27a1 05e4 e35b d5bf 40e1 0b57 b40f d3bf
000003b0: 6228 ea90 59a9 d8bf 1b99 225e 55e3 cebf
000003c0: 2df0 d4a4 cc91 d1bf 4654 ec5a 51eb d73f
000003d0: 1dda f990 df69 d1bf af25 a8de 9e77 c03f
000003e0: 3858 2710 5d3d d0bf e433 7dc7 c145 75bf
000003f0: 2051 2c1c 8eec c83f dd69 ad40 1fa6 c6bf
-0.11104882549580336 0.12055286672520052 -0.08454391042418055 0.06103044131306111 0.27228716327018515 0.17620914490669495 -0.23794969781594238 0.11492488380250983
-0.2643504975895819 0.33363798890083507 0.08663565221912992 0.02826404745228491 -0.21462639678166603 0.06476550833045859 0.27473478339678586 -0.34644590451736224
0.26640691072868605 -0.2823512036900103 -0.14557052968807335 -0.11128867776414123 -0.3143375719488097 0.18687496544574125 0.029353420400659507 -0.1582155484739584
0.2587345560749693 0.17331834186018905 0.31604139147850485 0.3560409686724139 0.2974703231157241 -0.23469828179302327 0.007974980007093261 0.2596733918697974
-0.392236524456484 -0.06394734283200969 0.32534040899659145 0.062248105946352925 0.20787729131114022 -0.28296610983337883 -0.29520392635127474 0.30990599342602815
0.09488286196266059 -0.10766244626807113 -0.010608463995239261 -0.2608944927656845 -0.26277444794458027 0.27637328583629744 -0.29659314493177796 0.10551283812356436
0.10184316489015391 -0.15251486216059232 -0.2386101674560162 0.05663021851712822 -0.01429815587266916 0.1647140591883078 0.0432405353198149 0.017737839548807935
0.23901456296927528 -0.09899288252393497 -0.08454170673339353 -0.3148552275447435 -0.2840663055451128 -0.33349271969276134 -0.23448494405906162 0.14906398751862973
0.31402207379549824 0.21532339498803318 0.13837200123696752 0.2614009786000959 -0.004065943089807533 0.2284710551514172 -0.08356478823850018 -0.1393933011171467
-0.10066337306510716 -0.0215675652742827 0.2650267586993244 -0.13804472962742015 -0.18121238686684887 0.3388823219537719 -0.060011434121374226 0.25857701185717713
0.044643499747118384 0.023757750475537156 0.300354793440467 -0.28204406588982445 -0.11079353368029202 -0.01577827223628814 -0.2708936726444016 -0.30291883505044476
0.019855017891793614 0.30148331757379565 -0.24844077561985542 -0.05545849167420236 -0.046582986931798714 -0.2868110103420275 0.30148732248861315 0.17785561813172204
-0.3095069795718995 0.20572798459708275 -0.22417393727974774 -0.336731016025931 -0.10727613269612143 -0.007421280035292749 0.13171635425602843 0.15027381332501127
0.2583493062696455 0.3284129292525997 -0.258001020599247 -0.26784691863677007 0.15779046183506895 -0.09954238571445481 0.002280540494800074 -0.2937090199377756
0.2917258052671762 0.0434059810543085 -0.32091602251745033 -0.3047108692891293 -0.3337335325982331 -0.29783352375627103 -0.3853362956221017 -0.24131266685908134
-0.27452388855795357 0.37373765830244954 -0.2720869937687967 0.12865053054728778 -0.2537453325034025 -0.005193478536807714 0.19471908927574422 -0.17694464357448583

readout.2.bias f8 [2]
00000000: 7364 be87 f6f0 acbf decf afc9 e2b4 a7bf
-0.05652590186145625 -0.04630192481991434
